modelos/pytorch/conv-pytorch-mnist.pt (torch, 457156 bytes, 8 tensors)

model.0.weight f4 [32, 1, 3, 3]
00000000: e88c dfbe 9efb cabe 65bd 803e ea9e 92be
00000010: d34a 493e 6f9e 9f3e 9279 5cbe ad35 2a3e
00000020: 63cd 963e 3b25 4c3e 11a5 5bbe 53f6 b1be
00000030: b0ac 053e d698 3b3e 85dc c43e 92de 293d
00000040: e27e 86bd 7f72 803e b6e3 c13e 7ea4 db3e
00000050: 2379 a43d 96e5 d2be 2217 7d3e 84af bc3e
00000060: 245a 84be cc74 99be 4c0d bb3e 1137 65be
00000070: 72ed 07be 34d6 ae3e ff02 bcbd 2483 6d3e
00000080: 2f77 453d e124 2c3c da7c 4e3e 943d b3be
00000090: 87e6 be3e 2a45 f93e 4f4f 94bc f5a0 85bd
000000a0: 3374 86be 3805 d23d bb78 d0be be32 b0bd
000000b0: f993 c63d 4263 963e 6a8d c43e b97a 843d
000000c0: c4e5 b9bd da03 af3c c204 dbbc 2640 85be
000000d0: 83c9 7dbe 45b3 9cbe 097a 983e 4f37 0dbe
000000e0: c359 5fbe d4bb 8fbe b35e 80be 274f b2be
000000f0: 45f0 aebe dd68 063d 2d3a 34be 6502 a0bc
00000100: 9c35 8cbd e0cd b2be bb59 c53d c7e1 443e
00000110: 5152 3dbe 6526 183d 1902 403d cc1f e93e
00000120: 4c38 44be 2069 2dbe 0db3 313d 56fd 11be
00000130: 4721 d23d 67cc 4bbd e284 b3be 36c8 973e
00000140: 7ef7 b3bd 6426 8bbe 07fb 22be 28d9 ac3c
00000150: d519 a63d 44b8 223e c314 883e 6006 e13d
00000160: b390 bc3e c11e 4dbe d960 733e d72e 62be
00000170: 2752 a0be 0c23 033f ea6c 2cbe 797c c3be
00000180: c8a9 eb3e 7460 2d3c 584b 03bd 8bba 18bc
00000190: a570 1d3e b114 d43e 18ab da3d f94f ad3d
000001a0: bf85 a03d 8a55 00be bf54 aabe f822 d9be
000001b0: c436 dc3e eb87 b33e 8a86 4dbe b34c 02be
000001c0: a6ca 923d fca7 48be 4240 94be 6a18 c8be
000001d0: b5c9 b2be 7c3d 81be 93ca c3be 8324 88be
000001e0: 87a2 14bd c275 753e 147c 59bd 8377 babd
000001f0: 449b 48be 406d c33e d1c6 c1be f0a2 203d
00000200: 8cc1 113e f810 febd c07f ac3e f7f1 a63e
00000210: 7393 7b3e 0036 9f3e 6756 c9be 5341 1ebe
00000220: 8905 043e 3303 4c3e ebf5 24be 11dc ae3e
00000230: 84b2 a53e f998 3f3d 8938 cc3e 5f8c 6a3c
00000240: 4474 f03d 869e 3b3e fcfc 813e 7683 74be
00000250: 04dd 9ebe 3b06 a4be 2474 5bbe 67e7 13bd
00000260: 00c5 a4be ddcb f1bd b2a1 843e b9ba 3f3c
00000270: e666 fcbd dfa3 c73c ec86 873d 2d8b fdbd
00000280: 27a4 a5be e96c 93bc 7648 bbbe c4aa 7abe
00000290: 2e46 863e 4eaf 33be 9280 4dbe b502 9d3e
000002a0: 5d35 833d 2eb8 873e c636 be3e 4d4e 2bbd
000002b0: 7f12 413e ae23 c5be 76bc 00be 92ee eabc
000002c0: 8ea4 02bf e448 cf3e 0990 8d3e 0312 c03e
000002d0: da18 88be 8ff6 9bbe d58e 6f3d 3c1a a3be
000002e0: 20cc 6d3d 6910 df3c 674c 8d3e 4079 e83e
000002f0: 144b 103e bc84 84be d977 b8be ac53 d43e
00000300: 6dac 533d ac93 dfbd 08c0 003f f8e8 af3c
00000310: 8465 ec3c f521 9ebe 9ad2 f43e f100 a23c
00000320: e392 2a3e 24f3 d83d 331a 693e 1a62 55be
00000330: a350 c33e e1ee ad3e 8012 6f3e cb31 22be
00000340: 374b 52be 93f0 d2bd a097 87bd d1c1 b2be
00000350: 4797 d03b e329 ef3e 4e49 ad3e 07b2 b43e
00000360: cbbd 04bf efbb 3d3d ca95 d53e 365f 10be
00000370: e93a f63d a6d1 883e 8e25 c43e c2bb 1cbe
00000380: 0336 1d3b fc99 a6be 869c 9dbd 7850 a43e
00000390: 4a39 7abe 104a 8bbc b149 a93e 7fc3 bdbe
000003a0: cacc 393e 9e56 483e 0c09 b7bd 1f9c a1bc
000003b0: 8999 a93e 7956 b5be 2397 ae3e 03af 17bb
000003c0: dbee 32be c079 aa3e 27dc 953e 5931 f23d
000003d0: 04af 27bd a558 09bf 10c6 35be 1a9b 863d
000003e0: 8b20 af3d 3d13 173e 32eb b33e d033 773e
000003f0: 3b81 c33e 0b90 21be c338 2c3d 5965 093e
-0.4366219 -0.39645094 0.25144497 -0.28636867 0.1965745 0.31175563 -0.2153075 0.16622038
0.29453573 0.19936077 -0.21449687 -0.34758243 0.13054156 0.18320021 0.38449493 0.041472025
-0.0656717 0.25087354 0.37869042 0.42898935 0.080309175 -0.41190785 0.24715856 0.36852658
-0.25850022 -0.2997192 0.36533582 -0.22384287 -0.13274172 0.341478 -0.09180259 0.23194557
0.048209365 0.0105068395 0.20164815 -0.35007918 0.37285253 0.4868558 -0.018104224 -0.06524841
-0.26260528 0.10254902 -0.4071711 -0.08603428 0.09696192 0.29372603 0.3838914 0.0646872
-0.090770274 0.021364141 -0.026735667 -0.26025504 -0.24783902 -0.30605522 0.29780605 -0.1379063
-0.21811585 -0.2807299 -0.2507225 -0.34826013 -0.34167686 0.03281485 -0.17600317 -0.019532392
-0.06846163 -0.34922695 0.09636255 0.19226752 -0.18488432 0.03714599 0.046877 0.45532072
-0.191621 -0.16934633 0.043383647 -0.14256796 0.102602534 -0.04975548 -0.3506232 0.29644936
-0.0878744 -0.27177727 -0.15916072 0.021099642 0.08110396 0.15890604 0.2657834 0.10987544
0.36829147 -0.20031263 0.23767413 -0.2208818 -0.31312677 0.5122535 -0.16838422 -0.38180903
0.4602797 0.010582078 -0.032054275 -0.009321819 0.15375002 0.41422036 0.10677165 0.08462519
0.0783801 -0.1253263 -0.3326778 -0.42409492 0.43010533 0.35064635 -0.20070854 -0.12724571
0.07167558 -0.19595331 -0.28955275 -0.39081126 -0.34919515 -0.2524222 -0.3824049 -0.26590356
-0.03628781 0.23970702 -0.053096846 -0.09104826 -0.19590479 0.3816929 -0.37846997 0.03921789
0.14233989 -0.1240558 0.33691216 0.3260648 0.24567966 0.31095886 -0.39323732 -0.15454607
0.12892736 0.19923095 -0.16109435 0.34152272 0.3236276 0.046776745 0.39886883 0.014315694
0.11740926 0.1832219 0.25388324 -0.23878273 -0.31027997 -0.32036003 -0.21431023 -0.036109354
-0.3218155 -0.11806462 0.25904614 0.011702233 -0.12324314 0.024370132 0.06617531 -0.12380061
-0.323518 -0.017996268 -0.3657872 -0.24479204 0.26225418 -0.17547342 -0.20068577 0.30666128
0.064066626 0.26507705 0.37151164 -0.04182272 0.18854712 -0.38503784 -0.12571892 -0.028678212
-0.5103234 0.404853 0.27648953 0.37513742 -0.2658146 -0.30461547 0.058485825 -0.31855953
0.058055997 0.027229505 0.27597353 0.45405006 0.1409114 -0.25882518 -0.36028937 0.41470087
0.05167811 -0.10916838 0.50293016 0.021473393 0.028857 -0.30885282 0.47816926 0.01977584
0.16657595 0.105932504 0.227639 -0.20838204 0.38147458 0.33971313 0.23346901 -0.15839307
-0.20536505 -0.10299792 -0.06620717 -0.34913495 0.00636569 0.46711645 0.3384499 0.35292074
-0.518521 0.046321806 0.41715842 -0.1409882 0.12022955 0.2672245 0.38309902 -0.15305999
0.0023988492 -0.32539356 -0.0769587 0.32092643 -0.24435917 -0.01700309 0.33064035 -0.37063214
0.18144527 0.19564292 -0.089372724 -0.019727765 0.3312495 -0.35417536 0.34099683 -0.0023145087
-0.17473929 0.33296013 0.29269525 0.118258186 -0.040938392 -0.53650886 -0.17751336 0.06572552
0.08551129 0.14753433 0.35140377 0.24140859 0.38184533 -0.15777604 0.04204632 0.13417567

model.0.bias f4 [32]
00000000: 405a e8bd f901 a93e 5a49 013e a72b cfbb
00000010: 58aa 253e f2a6 133e d7c3 68bc af88 0f3e
00000020: 0c0a 53be eaaa aa3e d0e6 bf3b a9a4 b7bd
00000030: 0fec fa3d d326 353e e4fe 863e 4cb6 38be
00000040: 4338 a2bd 1668 703e 7d83 6e3e 2dfa a83d
00000050: dc4c f8bd e938 d1bd 8ff5 393d 5570 94bc
00000060: 5ddf 71bd 85c0 d2bd 3d54 613e b1d4 1e3e
00000070: 5a85 173e b3cb 76be 96eb 77be 4afa d13d
-0.11345339 0.33009318 0.12625638 -0.0063223424 0.16178262 0.14419153 -0.014206848 0.14016984
-0.20609301 0.33333522 0.0058563724 -0.08966953 0.12252056 0.17690592 0.2636634 -0.1803829
-0.07920887 0.23477206 0.23292346 0.08250842 -0.12124035 -0.10215933 0.0454002 -0.01811997
-0.059050906 -0.102906264 0.2200479 0.15510823 0.14796963 -0.24101143 -0.24210963 0.10252817

model.4.weight f4 [32, 32, 3, 3]
00000000: dcdd d8bc dfc8 833c 5ab4 093d 8c7a 413d
00000010: e2c8 d53d 833f d33c 580e b73d ffa0 db3d
00000020: 478c 84bc c80c fd3b 7369 75bd 42fd 2cbd
00000030: c3e5 623d 4e03 d0bc bbea 8abd 7e36 0abd
00000040: 81fe 6bbd 0ac9 d1bb d3d2 2abd 8b92 c8bd
00000050: 0de1 8dbd 10ae b6bd 1296 3abe d134 04be
00000060: 42a3 bebd 7e79 72bd 060d d9bc bb67 83bd
00000070: 3b86 d83d 8408 2f3e bfc5 973d acb3 a93d
00000080: 38fc f13d 3a01 cf3d 79e7 dd3d 2302 33bd
00000090: 3d3a d63d e9ad b13d 7eba 963d 99fd f5bc
000000a0: 57d9 26bd 3583 a33d a2ac e2bc efcd 203d
000000b0: 8ab2 0bbd fb4b 403d f7ea 9abd 2062 35bc
000000c0: 6dc6 f4bd 2b11 13bd af94 4c3d aaa3 c03c
000000d0: e9e2 993d fb66 ef3c d6e1 8ebd 8b09 48bc
000000e0: d043 e83b eea7 d0bd 6743 80bb 8101 373d
000000f0: fd78 2ebd f039 993d f702 053d 2db9 2c3d
00000100: 0e43 4c3d 1016 ad3b d975 6d3d 09be ffbd
00000110: 19ff c8bd 4956 90bc 6752 c1bc 35d5 a83d
00000120: bd14 69bd 4dab 543c e2e0 3b3d b15b efbc
00000130: 9c1c 083d b730 313d da8f 9abc f857 e7bc
00000140: 6621 a43c 83d9 e9bc 3eed a63d 3197 103c
00000150: 8f59 a43c 330c 0d3d c45e 2b3d 2f91 e13d
00000160: a596 9abd 4ead 9ebd dd23 75bc ceb2 26bd
00000170: 9ba0 1bbd ead7 c63c b7dd fdbc e705 933d
00000180: 9544 333e 5bfe 013e 64cb ed3c 05e6 85bd
00000190: 9f21 52bd cff1 ca3d 252b 3bbd 46fa 8b3c
000001a0: 0010 5cbc 8798 883d 76dc 953b 9be8 003b
000001b0: 66b5 32bd 89f2 033d de8c 993c 044a bebd
000001c0: ef32 12bd 5129 b33d 31ad 05bd 33ad 693c
000001d0: d946 fabc f5a4 9f3c 594f 8cbb 2733 41bc
000001e0: 6366 2b3c 120a 96bd cb46 623c ab29 f6bd
000001f0: 00a0 86bd 3b2e 24bd 85e0 a23c 8816 193d
00000200: 8596 0a3e e6b1 813d 6eea 4e3d 49b5 8b3d
00000210: b576 763d e00b 3ebd 4e74 353c b1d7 d4bc
00000220: 527f 9c3b 6bed 303d 3237 a33d 8838 3f3d
00000230: 2b4d 41bd b65f 8b3b e1d6 8cbd afad 22bd
00000240: ba0b 67bd 2051 93bd ff11 05bc ef9b d6bd
00000250: bfd5 19bd 3759 5e3d 8ee7 82bd 6659 81b8
00000260: f3e2 09bd 112a cfbc 2845 32bd 994a 2cbd
00000270: 9c03 1fbd 0763 69bd 00fd 2b3d ffc1 bebd
00000280: 57f3 5b3d aa2f a4bc f4aa 48bd 79ff 6c3c
00000290: 4f10 23bc fdcf a43d 4325 b13d e078 e7bc
000002a0: 636a 563c a6de 073d 970c 9fbd e77d 143d
000002b0: e5c0 dc3c 6724 84bd 0db4 e43b a523 aabd
000002c0: bbc2 023d 4c22 c53c 2d00 b23d 08ca 203c
000002d0: eaad 28bd 0ac8 343d b6e8 a83d 455d b23d
000002e0: 390c 4e3d a8fd 78bc 275b ad3b fd90 a3bc
000002f0: 3432 a5bd 6979 a73c 0960 973d 93e4 2f3e
00000300: 95bb b43d 296e bd3d 795c 883b 0f7c de3d
00000310: c44d 6f3e c813 5e3d e372 80bd 1bbc 98bd
00000320: 8026 74bc f661 3f3d ec1f 99bd 4a8a e0bd
00000330: 2fd6 473d 7678 6ebd a839 92bc 14f2 2d3d
00000340: 4ad1 85bc 1615 21bd 7cc2 da3b 2771 9abd
00000350: e920 d6bd 9d03 45bd 5c2f cabd 16a9 403d
00000360: 81b9 91bd 95a5 0f3b bb05 d83d 93bd 973d
00000370: e8c3 103e 0871 c23d d69a 08bc 326e a43d
00000380: 9bd8 8ebd 895d 413c 479e 573d 97ca 433b
00000390: 0cb3 a83d 7290 193e df30 f83c 4587 0f3d
000003a0: bfed fe3d 3d67 8abd 8913 42bc 6f9d 123d
000003b0: ad26 613d 8234 01bd 6eed a73d a489 b1bc
000003c0: 7155 e8bc efe4 203b 805f 43bd c880 3f3c
000003d0: d3df 1d3c 7efd b03b 563d 02bc b0cc 04bd
000003e0: 7cd1 abbd b8e5 86bc f5e3 a6bd 7be9 0d3d
000003f0: 7b89 0f3d c16a d83d 728d 0e3e 44cd 9f3c
-0.026472978 0.016086994 0.033619262 0.04723601 0.10438706 0.02578712 0.08938283 0.10724067
-0.01618017 0.007722471 -0.059915017 -0.042233713 0.0553949 -0.0253922 -0.067830525 -0.033743374
-0.05761576 -0.0064021396 -0.041704964 -0.09793576 -0.06927691 -0.089199185 -0.1822131 -0.12910773
-0.09308483 -0.059197895 -0.026495468 -0.064162694 0.105724774 0.17093092 0.07410764 0.08286223
0.11815685 0.10107656 0.108351655 -0.04370321 0.10460327 0.08675749 0.07359789 -0.030028151
-0.040734615 0.0798401 -0.027670208 0.039258894 -0.034105815 0.04694746 -0.07564347 -0.011070758
-0.11951909 -0.035905045 0.049946483 0.023515541 0.07513983 0.02922391 -0.069766685 -0.0122093065
0.007088162 -0.1018828 -0.003914285 0.04467917 -0.042595852 0.07481754 0.03247353 0.042168785
0.049868636 0.005282171 0.057973716 -0.12487418 -0.09814281 -0.017619269 -0.023598863 0.08243791
-0.056904543 0.012980294 0.04586876 -0.029218527 0.03323041 0.04325935 -0.018867422 -0.028240189
0.020035457 -0.0285461 0.08150719 0.008825109 0.020062236 0.034435462 0.041838422 0.1101402
-0.075482644 -0.07747899 -0.014962164 -0.040697865 -0.037994962 0.024272878 -0.030989511 0.0717886
0.1750663 0.12694685 0.029027648 -0.06538013 -0.051301595 0.099094026 -0.045695443 0.017087113
-0.013431549 0.06669717 0.0045734 0.0019669894 -0.043630026 0.03221372 0.018743929 -0.09291461
-0.035693105 0.08748115 -0.03263587 0.014262485 -0.03055136 0.019487837 -0.00428192 -0.011791981
0.010461423 -0.073261395 0.013810824 -0.12019666 -0.06573486 -0.04008315 0.01988245 0.037375003
0.13533981 0.063327596 0.05051654 0.06821687 0.0601718 -0.046398044 0.0110750925 -0.025981756
0.00477592 0.04319517 0.07969512 0.04668477 -0.047192734 0.004253353 -0.068769224 -0.03971642
-0.056407668 -0.07193208 -0.008121966 -0.10478961 -0.03755736 0.0542843 -0.06391822 -6.167851e-05
-0.0336637 -0.025288614 -0.043522984 -0.04206333 -0.0388218 -0.056979205 0.041989326 -0.093143456
0.053698864 -0.02004226 -0.04899116 0.014465206 -0.009952619 0.08047483 0.08649685 -0.02825588
0.013086888 0.03317132 -0.07766073 0.036252882 0.026947448 -0.06452256 0.0069794715 -0.0830758
0.03192399 0.024064206 0.0869144 0.009813793 -0.041181482 0.044136085 0.08247511 0.08709196
0.050304625 -0.015197195 0.005290407 -0.019966597 -0.08066216 0.020443635 0.07391364 0.17177038
0.08824841 0.09249527 0.004161414 0.10863506 0.23369509 0.054218084 -0.06271913 -0.07457753
-0.014901757 0.046724282 -0.07476792 -0.109638765 0.048788246 -0.05822035 -0.017849758 0.04246719
-0.016335148 -0.03932675 0.0066760164 -0.07541113 -0.10455496 -0.04809915 -0.09872314 0.047036253
-0.0711546 0.0021918763 0.10547968 0.07409205 0.14137232 0.09494215 -0.008337697 0.080288306
-0.06974908 0.011802086 0.05264118 0.0029875392 0.082372755 0.14996508 0.030296741 0.035041112
0.1244769 -0.067579724 -0.011845478 0.03579467 0.054968525 -0.031544216 0.08199583 -0.021672077
-0.028361054 0.0024550518 -0.047698498 0.011688419 0.009635883 0.0054013124 -0.007949194 -0.032421768
-0.08389565 -0.01646696 -0.08148948 0.034646492 0.03504322 0.10567237 0.13921145 0.019507058

model.4.bias f4 [32]
00000000: e708 bc3b 5c77 97bb f853 19bd 78d4 11bd
00000010: 5436 c2bc d7d0 6dbb 9b2c 093c 10c7 043d
00000020: e225 47bd ddcc 47bc bf48 e13c 3417 3cbd
00000030: 6a02 57ba e370 4abd 5906 2d3d 1833 4abc
00000040: 46ee c1bc 7db8 d9bc 0e04 c5bc 4cba 863c
00000050: 548d 143c b1dc 06bc 2b5f f4bc 5a7c b1bc
00000060: 3c85 1a3c 514e 103d cf66 29bc 38c6 67bd
00000070: 1a92 02bd 1f95 923c 5829 b4bc 2c05 81bd
0.005738366 -0.004622383 -0.037433594 -0.035603017 -0.023707546 -0.0036287808 0.008372451 0.032416403
-0.048620112 -0.012194839 0.027500508 -0.045920566 -0.0008201959 -0.049424063 0.04224238 -0.012341283
-0.023673188 -0.026577229 -0.024049785 0.016446255 0.009066898 -0.008231328 -0.029830536 -0.02166574
0.00943118 0.03523094 -0.010339453 -0.05658552 -0.031877615 0.017893372 -0.02199237 -0.062998146

model.9.weight f4 [128, 800]
00000000: ab27 003c 24a5 17bd fd29 bc3d 5aa6 0dbc
00000010: a339 77bd ed78 66bd 1158 47bd 9c1c c6bc
00000020: b469 9ebc 5e2f 6c3c be94 aebd c00a 72bc
00000030: 4b32 123d 2630 173d 0e3d 613b e224 ac3d
00000040: dd9f 673d faa2 0b3d 8e6c 86bd a446 21bd
00000050: ce1d d23d 2470 67bb 7867 3cbd 5889 01bd
00000060: 37da 2e3c debf 6ebd 3fe4 293d b74f 48bd
00000070: c04d e63c 4211 943d 1cfb 87bc f783 253d
00000080: da1a 043e 5eae 62bd 5361 023d 2cee 73bd
00000090: 7fda efbc a40c e7bc 2f05 cbbc f408 a93c
000000a0: 926f 00be 5390 5fbe e47a 20bd c745 5cbd
000000b0: b7df 363d 3f14 3fbd f2a5 e8bc b363 46bd
000000c0: 7e07 0dbe 5c03 1cbd fc61 bf3c 56f7 f0bc
000000d0: bc7d a93c 935c 93bd 15fa fabc 03f2 b73c
000000e0: d63c 80bd da25 dcba 5f55 76bd 0336 b4bd
000000f0: 47f7 a4bb 3093 12bc 0c9e b5bc 116d 2fbd
00000100: 928c 053c d738 dc3b 094e 9e3c 378c b53c
00000110: cbda 4bbd df8b bdbc 2323 a1bc 4108 b1bc
00000120: 284a 96bc 221d 853c 8ac2 f4bc f744 a13c
00000130: 1f11 65bc 7dc0 2b3d f674 38bc 48df 25bd
00000140: 2d7f 78bc 0620 9fbd 875b e0bc 99f1 553d
00000150: 1b8b aa3d 19b8 763a 64b3 3e3d 4dd6 b53c
00000160: 3c34 983c 950a b0bc fba4 443d d3b1 073d
00000170: 70ec 10bd 4884 94bd f985 a13b 74f1 c73c
00000180: d9fb 1cbd b29f 1d3d b046 6ebb 9413 603d
00000190: c4ce b1bd 806e 83bb 9452 b3bc cf91 00be
000001a0: 40a2 b7bd 7021 88bd 50ad 5bbc 29f8 bfbd
000001b0: 42ee 993c 93a4 ed3c a2b7 e2bd 14cb 4dbd
000001c0: 5134 b03c 7a95 0fbd 03f3 08bc 2a2e 853d
000001d0: cef1 7bba 4082 193c 4738 07bc f743 24bc
000001e0: d813 1e3d e522 c1bc 91a3 133d 173b 01bd
000001f0: 12cb 8c3c 6dfa 073d 1493 ddbc 3e39 6cbc
00000200: faa9 113d 32f0 28bd 2a03 06bd 4667 853d
00000210: 9e14 7b3c 8b68 233d 1d6c 973d fad0 04bd
00000220: e844 683d e6b2 0bbd d3a4 933d 826c bcbd
00000230: 47c0 99bd 5847 77bd 6a66 5dbd b086 ddbd
00000240: 46dd fdbb a925 913d ebf1 1c3d 4e52 d73c
00000250: 4cb2 89bc 59eb e5bc 8b44 dfbd afde a13c
00000260: 2b3c a93c 221d 02be e4d2 3ebd e03e a93c
00000270: 5080 803c 62f3 f53d b860 20bd ec63 0bbd
00000280: a7af c5bc 330d 19bd 6a88 a43b bd3f dbbc
00000290: b423 67bd c15b e53b 8fbd d8bc 6898 f33c
000002a0: 8892 913d 20f0 863c 2ca6 de3d c364 08bd
000002b0: 39d2 383d 7f05 adbc b366 72bd 93dc 2bbd
000002c0: 38b6 e83c 156e 2ebd d0ca a33c fab5 3cbb
000002d0: ad8f 0f3d 085b 923d aefe fc3d 388a 91bd
000002e0: ff21 9a3c 4ada a5bb 9eea 85bd b635 1a3d
000002f0: 1dac ca3d c8f8 a6bc ac1c 183c ef78 2cbd
00000300: e478 0cbd 38e6 9cbc 9b3f 843a 6e7f a73c
00000310: 8fdd 0d3d 71f5 31bb e489 13bd b587 08bd
00000320: b2da f03b 3f6e b3bc 2025 903c 0bc9 fdbc
00000330: 86ab 9c3d 91ef 2ebc c4ae dbbb 6edf 8fbc
00000340: ebf0 8abd c28a da3c 413c 1fbd 5d4e 88bd
00000350: 37ef 6b3d 3f68 f6bd 5884 8bbc 7cb2 90bc
00000360: 0b6c 93bd a2c9 9e3d 5168 db39 6ac5 3cbd
00000370: b8b5 383c 410f f43c 05ce 8b3d 2095 a8bd
00000380: 5649 afbd eda3 0abd 8645 bf3d 26f4 5cbc
00000390: ebb3 aabd da6c a63d 8efa b63c 44e3 fc3c
000003a0: a618 bc3d f24a a7bb 51af 8ebd 8638 d6bc
000003b0: 59b7 bb3a 50fe 953d 0e36 4bbb 731a 0dbb
000003c0: d272 063d 0382 03bc c36a 7abd 400c f73c
000003d0: 953c 9bbd ae37 143d e661 1ebd 72f7 253c
000003e0: 7c73 253d ad87 e6bd 3baf 74bc f3cc fb3c
000003f0: b3c3 17bd e862 60bd 0c81 babc d296 203d
0.007821958 -0.037022725 0.09187696 -0.008645618 -0.0603577 -0.056267668 -0.04866797 -0.024183564
-0.019337513 0.01441559 -0.08524464 -0.014773071 0.035692494 0.036911152 0.0034368667 0.08405472
0.056548942 0.034090973 -0.06563674 -0.03937401 0.10259591 -0.0035314644 -0.045997113 -0.03162512
0.010672144 -0.058288448 0.041477438 -0.048904147 0.028113246 0.07229854 -0.01659923 0.040409055
0.12900868 -0.05534207 0.031831097 -0.05955331 -0.029278992 -0.02820427 -0.024782745 0.020634152
-0.1254256 -0.21832399 -0.039179698 -0.053777482 0.044646945 -0.046650168 -0.028399441 -0.048434924
-0.1377239 -0.03808914 0.023362152 -0.029414814 0.020689838 -0.071953915 -0.030636827 0.022454267
-0.062616035 -0.0016795949 -0.06014001 -0.087993644 -0.0050343606 -0.008946225 -0.02217009 -0.042828623
0.00815119 0.006720643 0.01932432 0.022161586 -0.049769204 -0.023137985 -0.019670075 -0.021610381
-0.018345907 0.016249243 -0.02987792 0.019686205 -0.013981133 0.041931618 -0.011258354 -0.04049614
-0.01516704 -0.0776978 -0.027387394 0.05223236 0.083273135 0.0009411588 0.0465578 0.022196913
0.018579595 -0.02148942 0.0480089 0.03312857 -0.035381734 -0.07251793 0.004929301 0.024407126
-0.03832612 0.038482375 -0.003635805 0.05470617 -0.086820155 -0.0040109754 -0.021889962 -0.12555622
-0.089664936 -0.06647003 -0.01340802 -0.09373505 0.018790368 0.02900914 -0.110701814 -0.0502425
0.021509321 -0.03505466 -0.00835872 0.06502946 -0.0009610922 0.009369433 -0.008253164 -0.01002597
0.038593143 -0.02357621 0.03604466 -0.031550493 0.017186675 0.03319781 -0.027047671 -0.0144179445
0.035562493 -0.041244693 -0.03271786 0.065138385 0.01532474 0.03989462 0.07393668 -0.032425858
0.05670634 -0.034106158 0.07209172 -0.09200384 -0.07507377 -0.060370773 -0.054052748 -0.10816705
-0.007747325 0.07087261 0.03831665 0.026284363 -0.016808651 -0.028066324 -0.109017454 0.019759504
0.020658573 -0.12706426 -0.04658784 0.020659864 0.015686184 0.12009312 -0.03915474 -0.03403084
-0.02413161 -0.037366103 0.0050211446 -0.026763791 -0.056430534 0.0069994633 -0.026457576 0.029735759
0.07108027 0.016471922 0.108715385 -0.03329922 0.04512236 -0.021120785 -0.059179973 -0.041958403
0.028407201 -0.04258545 0.01999417 -0.002879499 0.03504913 0.07146269 0.12353264 -0.07106441
0.018815039 -0.0050614225 -0.0653889 0.03764888 0.09896109 -0.0203823 0.00928418 -0.04210752
-0.034294978 -0.019152746 0.0010089757 0.020446505 0.034635123 -0.002715435 -0.036020175 -0.033332545
0.0073502893 -0.021903155 0.017595828 -0.030979654 0.07649903 -0.010677234 -0.0067041833 -0.017562594
-0.06784233 0.026677493 -0.038875822 -0.066555716 0.05760118 -0.12031602 -0.01703088 -0.017663233
-0.07198342 0.07753302 0.00041848657 -0.046086706 0.011273794 0.02979243 0.068264045 -0.08231568
-0.085589096 -0.033847738 0.093394324 -0.013485944 -0.08335098 0.081262305 0.02233627 0.030870087
0.09184389 -0.0051053697 -0.06967033 -0.02615 0.001432161 0.07323897 -0.003100756 -0.0021530658
0.032824345 -0.008026603 -0.061136972 0.030157208 -0.075799145 0.036185913 -0.038667582 0.010129796
0.040393338 -0.11256347 -0.014934356 0.030737376 -0.037051868 -0.054781824 -0.022766612 0.039206333

model.9.bias f4 [128]
00000000: cc85 ad3a 0125 08bd 7dbc 7abc 1399 14bc
00000010: 32d7 583d b66a dbbc 26c3 57bc 4a0b d4bb
00000020: 8add 023b 8ccd b53c 9f70 9ab9 ec6e f9bc
00000030: 7eb0 e9bc a856 d83b ec7a d03c 16dd 933b
00000040: d346 b1bc 9e85 82bb 18db 9dbc 3da4 b53c
00000050: 8516 0fbd d645 c53a 944c e6bc 35b4 6bbc
00000060: aa10 15bc 37ec 993c 90f5 333d 2b02 e7bc
00000070: eb8f a5bc 51fc ea3b b38a a73c 3f9d a13c
00000080: 15b6 d23c 6580 0dbc ba58 233b b3ed 163d
00000090: 37b9 66bc 0a57 153c 2c3e b9bc 4387 bd3c
000000a0: ffc3 d8bc 5a8a 203c e0f1 dbbb d71f 273d
000000b0: b0ef 3ebb 53bf e8bc 00ad bd3c 1f12 893c
000000c0: 69ff 963c a062 fa3b 68e5 d8bc 1542 13bd
000000d0: bf91 b53c fa25 173c ab20 913c 2820 68bb
000000e0: 24f2 87bc f42b e5bc a6f2 ee3c 1015 493c
000000f0: cb35 53bd 0684 a5bc a777 37bd bace 58bc
00000100: 6d80 793b b536 6b3c a5c1 90bc 3f80 c4bc
00000110: 12c4 a1bc 2a0b e83c 5d15 2cbc bdfb fabc
00000120: e872 a83c 916a d03b 4907 a9bc 0d57 29bd
00000130: 8089 823c 0605 2cbd cec4 0abd d44d 18bd
00000140: bba0 84bc 4fd4 aeb9 5dec cdbc 456b 2e3c
00000150: 046d 61bd 3fa8 5f3c 2c60 9bbb 1e25 eebc
00000160: cfc6 19bb 9375 e3bc 81f3 9d3b 7a34 d1bb
00000170: 408d ffbc a241 82bb 008e 983c 31e7 efbc
00000180: 4127 1e3d 55b7 0ebb 0c48 29bc 70cb fbbc
00000190: dfb7 17bd 7ec8 46bc daf8 03bd 494b b53b
000001a0: 4421 02bd 3913 aebc 0e49 eabc 4fed 153d
000001b0: 82a4 e0bc 6393 0a3d 4e29 133d 19c6 2bbc
000001c0: 0b1a 783c 2ef7 a1bc 6c80 ea3c caa0 083d
000001d0: 52af 98bb 958e 3d3c f09b b23c 1b8e c73c
000001e0: 4b79 c5bc d866 123c 7135 eb3c 6bd2 fa3c
000001f0: 741f 903c 94b9 7ebc 44a2 67bd 46ce 793c
0.0013238727 -0.033238415 -0.015303728 -0.009069699 0.0529396 -0.026784282 -0.013169086 -0.0064710723
0.0019968473 0.022192739 -0.00029457078 -0.0304484 -0.02852654 0.006602127 0.025449239 0.0045124395
-0.021640217 -0.0039832136 -0.019269511 0.022173041 -0.034933586 0.001505072 -0.028112687 -0.014386226
-0.009098211 0.018789394 0.04393536 -0.028199276 -0.020210227 0.0071711917 0.02045188 0.019728301
0.02572159 -0.008636569 0.0024924711 0.03684778 -0.014082245 0.00911499 -0.022612654 0.023135787
-0.026460646 0.009798611 -0.0067121834 0.04080185 -0.0029134564 -0.028411543 0.023153782 0.016732274
0.018432336 0.0076411515 -0.026476577 -0.035951693 0.022164224 0.009225363 0.017715773 -0.0035419557
-0.016594954 -0.02797506 0.029168438 0.012273088 -0.051564973 -0.020204555 -0.044791844 -0.013232881
0.0038070932 0.014356305 -0.017670462 -0.023986934 -0.019746814 0.028325636 -0.01050314 -0.030637616
0.020562604 0.00636036 -0.020633357 -0.041342784 0.015934706 -0.04199698 -0.033879094 -0.037183598
-0.016189924 -0.00033346048 -0.02513712 0.010645692 -0.055035606 0.013650953 -0.004741689 -0.029070433
-0.0023464446 -0.027766025 0.0048202877 -0.0063844295 -0.031195283 -0.003975109 0.018622398 -0.029285045
0.038611654 -0.0021776755 -0.010332119 -0.030736655 -0.037040588 -0.012132762 -0.032219745 0.0055326563
-0.031770006 -0.0212494 -0.028599288 0.03660327 -0.027422193 0.033831965 0.035928063 -0.010484242
0.015142928 -0.019771185 0.02862569 0.033356465 -0.0046595717 0.011569639 0.021802872 0.024359753
-0.024105689 0.008935653 0.028712006 0.030617913 0.017593123 -0.015547175 -0.056551233 0.015246933

model.12.weight f4 [10, 128]
00000000: 3545 883b 0a9f d1bd 7c0c d7bd 06c2 27be
00000010: 8c30 29be 5459 bd3d f1f1 e3bd cdd2 09be
00000020: ca20 50bd 958f 683d 0586 ca3d a177 c6bd
00000030: 14cb 0dbe 9b64 873b 5ac7 1ebe cec8 ce3d
00000040: 7f79 56bd 5e94 e8bd 88aa e9bd 9cfe e9bd
00000050: a4bc 0e3d 2bd3 20bd 57de f23d 22ff 51bd
00000060: c247 da3d 2c4a 883d ef4b d63d 469d 813d
00000070: 06b4 bc3d 5599 063c 18b4 90bd 0c47 3c3d
00000080: e765 ffbb 01f1 e2bc a613 f63d dd18 013e
00000090: 75de 18bd 4587 8d3c 4d80 36be 3e0b bdbc
000000a0: 9566 e8bd c561 d23d b4ba 463d 3373 d43d
000000b0: 122f 943d a6c0 e9bd d0d1 363d a358 f9bb
000000c0: 39c4 c9bd ea32 15bd 6f3d 19bd d63d 75bd
000000d0: 69e5 f2bd b2bb b33d 637f 94bd 2a6b 91bd
000000e0: fc6f 87bd c3db 623d f26d bcbd 8942 f0bd
000000f0: 4282 f6bd 215e 15be 0505 6abd b9b6 53bd
00000100: fafc 023e a795 6abd 06f1 f4bb 3a43 163d
00000110: eb58 27bd 5b0f 0bbe 01a6 ff3d 7abb 15bd
00000120: dc3f 833c 39a6 cbbd dcbe 4e3c 78a1 9ebd
00000130: e71a 543d 3649 3c3d 5e57 26be 4a7f 773d
00000140: 5483 e33c 33db 15bc 6db1 873c a3df 26be
00000150: ee4d 85bc 453e 823c 3bde 8d3d 52eb 093c
00000160: 2f25 4c3d 9199 40bd b3c8 2b3d 8774 5b3d
00000170: bc6e 063d eb71 c0bd 39b0 8f3d 9920 af3d
00000180: 25a1 b13d 4c86 1fbe cdc6 c63d 54d5 833d
00000190: 2f43 a5bd b076 aabd fa77 a7bd 01fe 15be
000001a0: aaad 54bd 6eab 9f3b aaed 193d 7aa2 f1bd
000001b0: 8444 a3bd e364 613d 20b8 e33d 3358 91bd
000001c0: 6fb1 41bd e8ba 233d a792 933d 6429 283e
000001d0: ed4a c23d c35e f83d 1c94 bfbd b5a7 89bd
000001e0: da71 f0bd dee6 ce3c a9fa bb3d ef9a 88bd
000001f0: 890a 8cbd c798 a6bd 7ab7 5dbd a962 653d
00000200: fd4e 5c3d 70b1 d1bb 76e5 5f3d cfdb dfbd
00000210: c631 983d c08c e7bd 13c0 cbbd 306d 96bd
00000220: a549 1fbe f9f2 33bd 220d 81bc e97a 973c
00000230: c984 813d cf1a b93c 6683 433d c58c 2cbe
00000240: 3438 3fbd 17ec 8cbd f663 933d bee9 853d
00000250: faa0 cabd 24bf d63c 7655 6c3d c2f0 403d
00000260: 4f26 20be ab27 dd3d 2561 e13d 3ebe 1bbe
00000270: 62ea c4bd 7117 8dbd 56d0 85bd 04d4 883d
00000280: 7573 8f3d 78e2 24be 7cd7 0fbe e54c b63d
00000290: e409 f2bc ef5f b33d d53a a8bd d58b aabc
000002a0: cd1e af3d 5f40 f3bd 37c8 84bd 7149 703d
000002b0: f7a8 03be 5df0 803d 019f 903d 3cf9 f4bb
000002c0: 0e67 69bd 1a12 613d 7c5e 60bd 1fa1 65bd
000002d0: 0f28 333d f200 efbd 2b3f 31bd 01d6 7f3d
000002e0: 8a46 4cbd e76f c63b 8932 c23d b1d0 7fbd
000002f0: bd01 613d d47b 84bd 7885 75bd 3df5 733d
00000300: bdcc 563d 12ac ba3d 3abc 1fbe f5d0 c03c
00000310: 6869 41be f145 b53d 8809 aebd c3d0 4c3d
00000320: 5ddf 42bd 1d9f b53d bf8c 1dbe d8a4 be3b
00000330: b3aa 1dbd f5b0 c7bd 8cde a4bd 097f 183c
00000340: 5143 07be 0a26 723d 09ff 083e 6c4a b53d
00000350: 8c34 a43c 934b c5bd 54ff 9cbd aaaf 1fbd
00000360: 7666 93bb 5438 133e 6a9e 62bd 91fc a4bd
00000370: 54a5 4ebd 66e8 b13d cc69 8d3d 050f 973d
00000380: 5249 36bd 5f9d 82bc 202f d43d 958a 07be
00000390: 7e13 d43c f534 873c 72f6 f33c f4fc 5d3d
000003a0: fc9d a8bd 0355 853d ffa0 6b3d d345 c63d
000003b0: 699d 193d 7fcf 90bd befa 8cbd 20c0 2fbd
000003c0: 7f31 7d3d 19e1 b0bd 3d8a fdbc c2c6 9d3d
000003d0: 9b70 0cbe c8ed e83d 3d93 6b3d 667e 49bc
000003e0: 1950 17be b26c 3f3c ea54 a53d 599b 903d
000003f0: 2f30 25be b2a7 22be 06c2 c2bd ad04 cb3d
0.0041586407 -0.102354124 -0.10500428 -0.16382608 -0.16522425 0.092455536 -0.11130131 -0.1345932
-0.05081252 0.056777555 0.098888434 -0.09690786 -0.13847 0.004131866 -0.15505734 0.10096894
-0.05236196 -0.11356424 -0.114094794 -0.11425516 0.03484787 -0.039263885 0.11858814 -0.051268704
0.10658218 0.06654772 0.10463702 0.06328826 0.09214024 0.008215268 -0.070656 0.045966193
-0.00779413 -0.02770281 0.120154664 0.12607141 -0.037321527 0.017276416 -0.1782238 -0.02307665
-0.11347691 0.10272554 0.048517898 0.10373535 0.072355404 -0.11413698 0.044633687 -0.0076094433
-0.098518796 -0.03642551 -0.037412103 -0.059873424 -0.11860163 0.087760344 -0.072508596 -0.07100518
-0.06613156 0.055385362 -0.09200658 -0.117314406 -0.120365635 -0.14586689 -0.057133693 -0.05168793
0.12791815 -0.057271626 -0.0074750213 0.036685206 -0.040856283 -0.13580076 0.124828346 -0.036555745
0.016021661 -0.09943814 0.012618747 -0.077456415 0.05178347 0.045968257 -0.16244265 0.060424127
0.027772583 -0.009146499 0.016564095 -0.16296248 -0.016272511 0.015898833 0.06927153 0.008417921
0.04984015 -0.047021452 0.04193945 0.053577926 0.03282045 -0.09396728 0.07016034 0.085511394
0.08673314 -0.15578574 0.09705887 0.064371735 -0.08069455 -0.08323419 -0.081771806 -0.14647676
-0.05192343 0.004872731 0.03758017 -0.11798568 -0.07972053 0.055027854 0.111191034 -0.07096901
-0.047288354 0.03997317 0.07205706 0.1642204 0.09486947 0.12127449 -0.093544215 -0.06721441
-0.117404655 0.02525657 0.09178669 -0.06670176 -0.06837947 -0.08134609 -0.054130055 0.056002293
0.053786267 -0.006399326 0.05466219 -0.10930597 0.074313685 -0.11306143 -0.099487446 -0.073450446
-0.15555437 -0.04393289 -0.015753333 0.018491225 0.06324155 0.022595791 0.047732733 -0.16850574
-0.04668446 -0.06880968 0.071968004 0.065387234 -0.09893985 0.02621419 0.05769869 0.047104605
-0.15639614 0.10798582 0.11004857 -0.1520929 -0.096150175 -0.06889237 -0.065338776 0.06681064
0.070044436 -0.16102016 -0.14047045 0.08901385 -0.029545732 0.08758532 -0.08214346 -0.02081863
0.08550797 -0.11877512 -0.064835005 0.05866379 -0.12857424 0.06295846 0.070615776 -0.007476
-0.056983046 0.054948904 -0.054777607 -0.05606186 0.043739375 -0.11670102 -0.043273132 0.06245995
-0.04987196 0.0060558203 0.09482295 -0.062454883 0.0549333 -0.06468931 -0.05994174 0.05956005
0.052441347 0.09114851 -0.15599146 0.023537138 -0.18887866 0.08851231 -0.08497912 0.05000378
-0.047576297 0.08868239 -0.15385722 0.0058179908 -0.03849287 -0.09750549 -0.0805026 0.009307631
-0.13209273 0.059118308 0.13378538 0.088520855 0.020044588 -0.09633555 -0.076658875 -0.038985886
-0.0044982983 0.14376956 -0.055326857 -0.08055986 -0.050450638 0.086869046 0.06904945 0.073759116
-0.044503517 -0.015944181 0.10360551 -0.13236459 0.0258882 0.016504744 0.0297806 0.054196313
-0.08233258 0.06510355 0.057526585 0.09681287 0.037503634 -0.07070827 -0.06883763 -0.042907834
0.06181478 -0.08636684 -0.030949706 0.07703926 -0.1371483 0.11373478 0.057513464 -0.012298202
-0.14776649 0.01168363 0.08072837 0.0706088 -0.16131662 -0.15884283 -0.09509663 0.09913001

model.12.bias f4 [10]
00000000: 03ff 8d3d 23d7 7a3d c4cd 9bbc 182d 8abd
00000010: d0fd 9abd fe8b 753d 0a59 e0bd d6ac 293c
00000020: 7233 633b f4ce 04bd
0.06933405 0.061240327 -0.019019015 -0.06746882 -0.07567942 0.05994796 -0.10954483 0.010356149
0.0034668115 -0.03242393
