modelos/pytorch/conv-pytorch-mnist.pt (torch, 457092 bytes, 8 tensors)

model.0.weight f4 [32, 1, 3, 3]
00000000: e96a 8b3e 24a5 893e 5252 e53d e5df 03be
00000010: 49c2 7a3d b7e4 173e 1be4 afbc 385b 88be
00000020: c5ce d0be 4e42 c2be 05f5 e1be 0eff 9b3d
00000030: 8e9e 763e 519c 673e 331c 07be a217 383e
00000040: 0dbe 5d3e 1260 863e a790 6abe 99c5 76be
00000050: 98ae d13d f2c5 14be a4a0 9fbe 79a4 22be
00000060: f57f b4be da43 bc3d c26a 5e3e 5c07 1d3e
00000070: 85fb a63d ac3e 62be 957e a33e 9f5a d53e
00000080: d67c b33e d09f f8be d417 b3be d3a8 c93d
00000090: b0e9 93be d4cf efbd 7d77 8fbe 0359 b2bd
000000a0: 1934 9dbe 528a 6bbe 05c0 99bd d31b ccbd
000000b0: 3da1 1cbe 03f2 a0be 8662 b83d 071b b53d
000000c0: 53e5 c5be 8dc9 13be 09a2 e33e 60e7 253c
000000d0: 05ee 673e bd40 cc3d c0ea 243e 47d7 213e
000000e0: 3fcb 8bbd 9f83 db3e db18 ccba 21f1 8fbe
000000f0: db52 b03e 3361 babe cb9b 65be c04d 65bd
00000100: f0ad c03e 9372 5bbe ee60 b8bd 2a07 4b3e
00000110: 0ace 55be 0e71 713e f12c 953e 3f12 a5be
00000120: 2b11 9a3e 6442 b1be 761c a7be f005 443e
00000130: 5566 c5bd 0e99 abbe f03c bf3e f9f8 d83e
00000140: 494b 80be 792d 903e 75cb 993e a283 923c
00000150: e3e7 debd 0383 d63d 902f 063e e99f 3b3e
00000160: 4793 373e dc45 0c3e 21e9 e33d 7476 b53e
00000170: 9750 313e e255 d8be b0dc dbbd 9187 703d
00000180: 818d 65be a5e3 323e 7f20 943d a702 3cbe
00000190: 84fe 353e 0e49 da3d 9827 8dbe 010c a1be
000001a0: 5ce9 603e 23ef 7a3d 75d5 8fbe 9aab b7be
000001b0: 89c9 973d 8648 623e 5279 af3e 49c4 aabe
000001c0: 6d29 c3be dcf0 2fbd 7b8f c03d 6bd1 303e
000001d0: cb10 afbe ab22 893e 89a2 c03e 1b11 8c3e
000001e0: 77df e2be d82c ca3d e847 8d3e 15da b3be
000001f0: 3b64 aebe 1881 58bc f34c a73d 0602 cfbe
00000200: b2fc a1be 0aa7 313e 9cf8 0fbe 1e65 6c3e
00000210: 734d d13e 837b 583e f053 8e3e 192f 623e
00000220: 721e 48bd 882e ba3e bdeb 203d fcab 013c
00000230: 3b9f f03d c59a b0be 694c 80bd 461b a9be
00000240: 6de1 84be 33ea 9ebe fee6 ec3d 02fc 193e
00000250: c2df 35be b240 933e 3050 733e 14de cb3e
00000260: 11c2 7cbe de7f babe 3ee9 08be 681a 933e
00000270: 1d9b 5c3e 4412 6a3d 5ee0 02be 6468 bc3e
00000280: bb9a e03d ee22 ffbe 1b81 c53e b76e 413e
00000290: 85e0 ffbe 0d6e 903e fbc2 afbc 861a a4bd
000002a0: fbe0 ed3d 77a4 8a3e 014e 3abe c6dc 72be
000002b0: 83bb 853e d877 753e 11f6 87be 21d9 c93e
000002c0: dfbc dc3c 3b18 483c d103 9c3e 75a9 9fbe
000002d0: 5324 61be 9140 64be 2e67 c73d b5df 81be
000002e0: 8762 2ebd b8d1 b2be e661 bd3e 7331 283e
000002f0: b923 3f3e 88f1 d63e f2b7 633e 2c56 9e3e
00000300: e452 a03e e53f b5bd ffa3 b8be 6fd9 e4be
00000310: 95f4 7dbe 2143 61be a97b 6f3e 6e80 8e3e
00000320: dec4 a13e f17b 1a3e 43db a23e 3d2e b0be
00000330: 7a06 913e a225 1cbe 1e03 ae3d 18ab 803e
00000340: 7342 3c3d 594d 173e 14f9 93bd 287b 5cbe
00000350: cc62 edbd 172b c2be e03c 873d d0cf b7be
00000360: bb16 593e 7e3d 2abe ead0 73be ff74 ba3e
00000370: f67c 123d eff7 96be 3dd6 ae3d 4fc1 763e
00000380: 5e35 a3be b6c8 bcbd ac77 4d3e a270 07be
00000390: d693 4dbe c644 cfbd 2821 93be 07e3 0ebe
000003a0: 7950 ff3d 8c77 a3be dc0e 9cbd 6c1e de3d
000003b0: 3a16 a93e e967 b13e 1399 a03c eaac a23e
000003c0: d73a 803e 5ed0 e33d 8bda bb3e 302f 403d
000003d0: 7431 aebd 46f1 06bd 6f1d d13e 39a1 b7be
000003e0: 9ea2 7abe 1678 3d3e 3088 883e 6218 963d
000003f0: 7d4d 753e 5cb0 aa3e ec00 0ebe d554 26bd
0.27230003 0.26883805 0.11197342 -0.12878378 0.06122044 0.14833342 -0.021471074 -0.26632094
-0.40782753 -0.3794121 -0.44132248 0.07617007 0.24083921 0.22618224 -0.13194351 0.17977765
0.2165453 0.2624517 -0.22906743 -0.24098815 0.10238379 -0.14528635 -0.31177247 -0.15883054
-0.35253873 0.09192629 0.21720412 0.15334839 0.08153442 -0.2209422 0.31932512 0.416707
0.3505618 -0.48559427 -0.34979117 0.09846654 -0.28889227 -0.11709562 -0.2802085 -0.08708384
-0.3070381 -0.23001984 -0.07507328 -0.099662445 -0.15295883 -0.3143464 0.09003167 0.08843046
-0.38651523 -0.14432354 0.4445956 0.010125965 0.22649391 0.09973285 0.16105175 0.15804778
-0.068258755 0.42873856 -0.0015571372 -0.28113654 0.34438214 -0.36402282 -0.22422712 -0.05598235
0.37632704 -0.21430425 -0.09002863 0.19826952 -0.20879379 0.23578283 0.2913585 -0.32240483
0.30091223 -0.34620965 -0.326389 0.1914289 -0.09638659 -0.3351521 0.3735118 0.4237745
-0.25057438 0.28159693 0.30038038 0.017885033 -0.10884073 0.10474207 0.13104081 0.1832272
0.17927276 0.13698524 0.1112845 0.35441935 0.17315899 -0.42253023 -0.10735452 0.058723036
-0.2241726 0.17469652 0.07232761 -0.18360387 0.17772871 0.10658465 -0.2756927 -0.3145447
0.2196402 0.061263215 -0.28092542 -0.3587311 0.07411487 0.22097978 0.34272248 -0.3335288
-0.38117543 -0.04295431 0.09402367 0.17267387 -0.341925 0.26784262 0.37624004 0.273568
-0.44311115 0.098718345 0.27593923 -0.3512732 -0.34060845 -0.013214372 0.08168974 -0.4043123
-0.31638104 0.17348877 -0.1405968 0.23085448 0.40879402 0.21140866 0.27798414 0.22088279
-0.04885716 0.36363626 0.039287318 0.007914539 0.11749121 -0.3449308 -0.06264574 -0.3302862
-0.25953236 -0.31038055 0.11567496 0.1503754 -0.17761138 0.28760296 0.23761058 0.3981787
-0.24683405 -0.3642568 -0.13370225 0.28731084 0.21543546 0.057146326 -0.12780902 0.36798394
0.109670125 -0.49831337 0.38575062 0.1888989 -0.49975982 0.28208962 -0.021455279 -0.080128714
0.11615177 0.27078602 -0.18193819 -0.23717031 0.26119623 0.23971498 -0.2655492 0.3942347
0.02694553 0.012212808 0.30471662 -0.31183973 -0.21986513 -0.22290255 0.09736477 -0.25365987
-0.04257443 -0.34925628 0.36988753 0.16425113 0.18665971 0.4198115 0.22238138 0.3092512
0.3131324 -0.088500775 -0.3606262 -0.4469714 -0.24800332 -0.21998264 0.23387016 0.2783236
0.3159551 0.15086342 0.31807908 -0.34410277 0.28325254 -0.15248731 0.08496688 0.25130534
0.04596181 0.147756 -0.07225242 -0.21531355 -0.1159111 -0.379235 0.06603408 -0.35900736
0.21200077 -0.1662502 -0.23810163 0.36417386 0.035763703 -0.29486033 0.085369565 0.24097179
-0.31876653 -0.0921797 0.20065182 -0.1322656 -0.20075926 -0.10120539 -0.28736234 -0.13953792
0.12466521 -0.31927145 -0.07620022 0.10845646 0.3302477 0.3464959 0.019604241 0.31772548
0.2504489 0.11123727 0.36690173 0.04692 -0.08505526 -0.03294494 0.4084277 -0.3586519
-0.24476096 0.1850284 0.26666403 0.073288694 0.2395534 0.33337677 -0.13867539 -0.040608246

model.0.bias f4 [32]
00000000: 8abe 1b3e 48c6 20be 7f43 25be 141d eebc
00000010: de46 44be 4434 a63d 674c 48be 5148 643d
00000020: 8a4d eabd 0ebd 3a3e 0e24 193e 6fd0 a7be
00000030: 43b9 01be 6c31 52be 84c9 abbd a4b9 9e3d
00000040: a8d2 c33c 9e88 f0bd afcb 243d bf77 3d3e
00000050: d9ec 73be 1275 c9bd f2b1 6bbe 5dd3 2abe
00000060: 64a3 87bd 659c e33d 5497 ddbd 3585 2e3e
00000070: 3cf3 133e 5802 15be e42b 293e 0ac8 8d3c
0.15209404 -0.15700638 -0.16139029 -0.0290666 -0.19167659 0.081154376 -0.19560395 0.05573303
-0.11440571 0.18236181 0.1495516 -0.3277621 -0.12668328 -0.20526665 -0.083880454 0.07750252
0.02390416 -0.11744808 0.04023331 0.18502711 -0.23820819 -0.098367825 -0.230171 -0.16682191
-0.06622961 0.11113814 -0.10819879 0.17043002 0.14448255 -0.14551675 0.16520649 0.0173073

model.4.weight f4 [32, 32, 3, 3]
00000000: aab8 223d 4346 2abd ae65 3dbd 5d7a 003d
00000010: a572 28bd 4888 72bd e133 71bd 8c7a 13bd
00000020: e395 83bd e6be 2cbe a90d e6bd bada 33bd
00000030: 8351 38be 5596 11be 1246 71bd 94c3 4dbd
00000040: f2b9 e3bc a5a8 53bd 53d1 243b 50d5 3bbd
00000050: 94f7 793b 6ba9 a5bc c4be 58bd 315d a7bd
00000060: e5a4 73bc a582 10bc e99e b7bc 469c e43d
00000070: 8aa2 d83d 47ab c9ba b7e8 323c 79c6 b23d
00000080: 45eb 6b3d 90e2 52bd 2ca6 26bd 604d 6e3c
00000090: 2b24 d4bc 726a 753c 574d 2bbd 97db 4bbd
000000a0: 6c23 82bc 6e72 c03b 1371 11bd 4560 9f3b
000000b0: a11f e5bd cc56 94bc 142e 94bd 743b 09bd
000000c0: 1abf 073d dc51 363b 1eab 4d3d 115c 953d
000000d0: 5570 d33d 9f2d d43d b2a2 883d ffdc c1b9
000000e0: 65c0 e5bc 40a6 293d d95d 313c 95a1 313d
000000f0: 9cfd c4bd e419 db3b 51c3 e13d 11e1 693d
00000100: 0684 e13d 9fa1 063e a4cc 9f3a 2ebd 133e
00000110: d187 183e dac7 0e3d e803 493d a952 e53d
00000120: 99cc c93c bd86 273e aabc b13d fc2d bf3b
00000130: 8a4b 9b3d 19a1 2b3e ad1f af3c fc72 043d
00000140: 448f 823d 7111 f93b 904e 623d 27fb bbbd
00000150: e928 47bd c66d 9bbb 34f7 353d 7efa ffbc
00000160: 42d6 e3bc 7c79 26bc d736 9a3b aba5 223d
00000170: f25a 823a 1f36 bf3c b691 143e b52e b43d
00000180: ac07 c93b ccb3 573d 5cba e53d 9af2 5c3c
00000190: de9c 843c 9e85 9a3c 1c63 bb3d 8ce7 1f3c
000001a0: 4644 22bd 8f67 33bd ab28 743c 8770 14bd
000001b0: 57df 333d c5a6 a3bb eb19 6f3d ad9c e1bc
000001c0: e59c a93d a88d 94bb 0b0e cf3a 2bc1 0dbd
000001d0: 60fe 2dbc b8a0 df3d 05ab 083e a771 c63d
000001e0: dfc0 d2bb 3f80 b13d e52e d63d 358c 86bd
000001f0: 4850 c2bc 07a1 02bc 2da9 48bd 810b d5bb
00000200: e433 0d3d 9a71 b7bd 3031 a3bc cdb2 1f3d
00000210: b10e 84bd d3d7 d2bd 7b1e ddbb c4c7 dcbc
00000220: 90af ba3c 386d e83c 5619 143c 335d 683d
00000230: 41ee 813c fe8e aebc 5cb9 2a3d aec7 26bc
00000240: 63d0 d2bd 1c00 a43c add7 1a3d eaee bcbd
00000250: 4bf8 48bd a6ea b83c 1532 9d3d f68b 0139
00000260: ce09 093c 39f4 243d 987f e83d 8933 383e
00000270: e798 8c3c 6e5d 243e 121e e63d 6ed5 d0bc
00000280: 9003 8b3c c00d b63d 4866 f93a aa9c 393d
00000290: a8c5 983d e941 01bd 7d27 af3d 7786 cb3d
000002a0: 2456 c3bc 1077 27bd d7a0 d33d b5e2 243d
000002b0: 58b6 a6ba d8c9 2bbc 9132 49bc 5d73 ea3c
000002c0: 411e c23d bb86 263c a092 703d 0423 903d
000002d0: 25ef 6ebd 9095 8b3c cf47 8c3d fff3 64bd
000002e0: a62a 26be 0407 19bd 6469 183d 0f09 bfbc
000002f0: 9669 1bbd 3824 f53a 65d1 3abe 9f60 16be
00000300: 4b02 c4bd e1b0 50be 8ed5 46be 1a2b f2bc
00000310: b9f8 adbd 80df ebbd f243 07bd 4777 09be
00000320: 191e b4bd e3a3 01be a358 f8bd fa28 0bbd
00000330: 3258 28be 48d6 1dbe 12b8 90bd d8ef 57bc
00000340: da69 92bd 6e0a e6bd ed65 96bc 1146 86bd
00000350: 9044 47bd 7a62 e13c 1882 a0bd 3ac1 a5bd
00000360: 51eb e33d e974 033e 1fd9 e03d c7e5 b43d
00000370: b4dd 143e 0ac0 0a3e 3e47 6ebd 57f0 623d
00000380: da8e ce3d bb69 3bbd 56c7 e8bc c286 ce3c
00000390: ee91 e33c 452d e6bc d620 42bd 5739 e53c
000003a0: b4db 5c3d 8168 613c aaee 6cbd 5365 94bd
000003b0: a81d f3bd a616 1dbe 8288 ecbd 2056 61bd
000003c0: 99c8 c6bd 4ee8 d8bd 4a35 bfbc 005d 823d
000003d0: 2bde 2c3d 78db 923d 5e9e 1bbd b129 8b3c
000003e0: 29fc 8d3d c025 22bd bbea 6ebd 5da3 003d
000003f0: 6dd2 ad3d 919c 9b3d 0b37 003d 1312 183b
0.03972689 -0.041570913 -0.046239547 0.031366695 -0.04112496 -0.059212 -0.058887366 -0.03600554
-0.06425073 -0.16869697 -0.11233074 -0.043909766 -0.17999844 -0.14217503 -0.058904715 -0.050235346
-0.027798627 -0.051674504 0.002514918 -0.045857728 0.0038141953 -0.020222386 -0.052916303 -0.08172072
-0.014870857 -0.008820211 -0.022414641 0.11162619 0.10577877 -0.0015386128 0.010919741 0.08729262
0.057597417 -0.051485598 -0.040685818 0.014544815 -0.025896152 0.014978992 -0.041821804 -0.049769964
-0.015886031 0.005873016 -0.035508227 0.004863771 -0.11187673 -0.018107794 -0.07235351 -0.033503965
0.033141233 0.0027819788 0.05021202 0.07292951 0.1032416 0.10360264 0.06671657 -0.00036976484
-0.028045842 0.041418314 0.010825598 0.043366987 -0.09618685 0.006686436 0.11023582 0.057099406
0.110115096 0.13147591 0.0012191725 0.14427635 0.1489556 0.034858562 0.04907599 0.11197407
0.024633693 0.16359992 0.08678563 0.005834339 0.07582767 0.16760673 0.021377409 0.03233622
0.06374982 0.007600956 0.055250704 -0.09178763 -0.048623 -0.0047433106 0.044425204 -0.031247374
-0.027812127 -0.0101608 0.0047062445 0.039708775 0.0009945317 0.023341237 0.1450871 0.08797971
0.0061349478 0.052661702 0.11217186 0.013485575 0.016188081 0.018862542 0.09149763 0.009759795
-0.039615892 -0.043799933 0.014902274 -0.036240127 0.043914165 -0.0049942457 0.058374327 -0.02754053
0.082818784 -0.0045334883 0.0015797032 -0.034608047 -0.01061973 0.109193265 0.13346489 0.09689646
-0.0064316834 0.08667039 0.10458163 -0.06569711 -0.023719922 -0.007972962 -0.048989464 -0.0065016155
0.034473315 -0.08957215 -0.019920915 0.038988877 -0.06448115 -0.102950715 -0.0067480183 -0.026950724
0.022788793 0.028372392 0.009039244 0.056729507 0.015860679 -0.021308418 0.04168068 -0.010179443
-0.10293653 0.020019583 0.03780334 -0.09225257 -0.049064916 0.022572827 0.07675568 0.00012354538
0.008364154 0.04027197 0.113524616 0.17988409 0.017162753 0.16051266 0.11236204 -0.025492396
0.016969472 0.08889341 0.0019027675 0.045315422 0.07459575 -0.031556997 0.08552454 0.099377565
-0.023844786 -0.04088503 0.10333412 0.040255267 -0.0012719138 -0.010485135 -0.012280122 0.028619463
0.09478427 0.010163958 0.058733582 0.07037929 -0.058333535 0.01703909 0.06849634 -0.055896755
-0.16227207 -0.037360206 0.037209883 -0.02331975 -0.03794249 0.0018702811 -0.1824394 -0.14685296
-0.0957075 -0.20379974 -0.19417402 -0.029561568 -0.08494706 -0.115172386 -0.033023782 -0.13424407
-0.08794803 -0.12660174 -0.12126281 -0.033974625 -0.16439894 -0.15413773 -0.070663586 -0.013179742
-0.07149096 -0.11232458 -0.018359149 -0.06556333 -0.04864937 0.027512778 -0.078373134 -0.08093496
0.111288674 0.12837566 0.109789126 0.08832889 0.14537698 0.1354982 -0.05817341 0.055404987
0.100858405 -0.04575513 -0.028415363 0.025210742 0.027779546 -0.028097758 -0.047394596 0.027981443
0.053920463 0.013757826 -0.057844795 -0.072458886 -0.11870891 -0.15340671 -0.11549474 -0.055013776
-0.0970623 -0.105911836 -0.02334084 0.063653946 0.042204063 0.071707666 -0.037992828 0.016987653
0.06932861 -0.039586782 -0.058329325 0.031405795 0.08487401 0.07598222 0.031302493 0.0023204132

model.4.bias f4 [32]
00000000: da35 403c 7c5c 633d d16b d4bb 9f74 2bba
00000010: be4c e83c f2eb 4e3d ef48 6e3b 855b 8ebd
00000020: 04ff 123d 0f08 433c eca6 4339 4a12 42bd
00000030: 7394 81bd 34ed d73b c602 6abd fe83 f23b
00000040: 2580 053b dea5 da3a 1187 66bc 02a9 e13c
00000050: 74db 56bd 5772 b23c 58dd 28bb b527 15bc
00000060: d6c9 983c 7772 d43c 4738 33bd a578 4d3d
00000070: 3525 fb3c 4a36 61bd 7d9d d7bc 562e 603d
0.011731589 0.05550812 -0.0064825793 -0.000654051 0.028356906 0.050517984 0.003635939 -0.0695105
0.035887733 0.011903777 0.00018658832 -0.047380723 -0.063271426 0.006589556 -0.05713155 0.0074009886
0.002037057 0.0016681512 -0.014070288 0.02754641 -0.05245538 0.021783037 -0.0025766697 -0.009103705
0.01865093 0.025933487 -0.043754842 0.050163884 0.03065739 -0.054983415 -0.026320213 0.05473169

model.9.weight f4 [128, 800]
00000000: c768 88bc 10b3 aebd 7166 09bd baae d5bd
00000010: 5e01 adbd 2759 c13c 491b 72bc f10a a93c
00000020: fd85 903d d14b 0d3d f8a4 ebbd 2c55 01be
00000030: 4ebc d7bc 211c b4bd 3d3b 3fbd a591 923c
00000040: 9f8f 85bd c185 cfbc 2664 99bd efab 6ebd
00000050: 4bee 083e 5b6c ea3c c872 263d 18a5 47bd
00000060: fd0e ecbd 9707 d0bd 2e31 bf3c e3d1 6f3d
00000070: 7afb 163d 848c c23c e320 5fbd 6903 363c
00000080: 9199 053d b510 e93c 65e3 003d 6753 4e39
00000090: dc77 10bd c7b1 6a3d 92bd 033c a6f4 b63b
000000a0: 0ef2 a5bd ecec 0bbc c7d4 133d 1c64 cabb
000000b0: f438 8abd d4a0 033d 35d8 ca3c 54ed b9bd
000000c0: ba0c 95bd acd0 ebbd 9f94 7cbd f232 47bc
000000d0: 0efe c0bd 9400 39bd 04d0 b5bd a943 f1bd
000000e0: 2126 40bc 5f83 d33c 8c8f 473d 678e 5d3d
000000f0: b9b3 7ebd 3e39 7bbd aeb8 5f3c 8c07 153c
00000100: add5 f2bc e986 8cbd b2dd efbd d259 213d
00000110: dfad f8bc 4270 773c d39b efbc 687e d83d
00000120: 7502 983d 0c45 81bd 5ec0 4dbd 54d9 7ebb
00000130: 9223 393c eda6 3c3c 5717 493d 558e 5ebc
00000140: 23d9 17bd c048 2abc 6129 d1bb ea2b 7b3d
00000150: caef cf3c e72c 65bd 954a 98bc 45bf 083c
00000160: 65c0 0fbd 4498 b4bd 63f9 a8bd 3f43 2ebd
00000170: 84b3 053d 50f3 84bc 9ffe 02bc 5474 cd3d
00000180: ca28 b93d a61b 683b f4b4 a9bc c8e1 33bd
00000190: 75b9 31bd dbee 8f3c 7952 923d b420 563d
000001a0: cda1 1b3c e56f 5fbd e7b2 e3bb 3530 523d
000001b0: 94e8 3b3b 5241 ec3b f1f3 a1bd 8c7a d0bb
000001c0: ebfb b33d e57a 383d 2cca a83c 1329 6bbd
000001d0: eb68 8abc 0595 b33c 619f 743d a933 53bc
000001e0: 6ae9 433d 5192 b3bd 5fcf bbbd 2594 6fbd
000001f0: 5f7f e4bd ec25 fcbc d62a f8bc 98a5 aebd
00000200: a896 e8bd 76c3 f4bd 9e7d 18bd bbb7 56bd
00000210: 007e 63bd 7ad3 3bbc c8b3 973d 000d 7abd
00000220: 0e88 75bd 0497 28bd 6fb1 08bc 9efb 923a
00000230: 7b08 89bd de41 0ebe f1aa 5fbc b58b 4bbd
00000240: e20e 86bc 2c0e 2a3d 5103 553d 2788 293d
00000250: d363 47bc 8be2 dfbd 2ab2 e5bb 2994 d23b
00000260: ab2c 1b3d 6001 3b3d 523c 3ebb 7f4a 3bbd
00000270: f585 8abc 17f6 0b3d 0629 c8bb 934e ed3c
00000280: e044 5cbd cb9c 53bd 6caa 1b3d 7d6d a83c
00000290: a1be efbb c18b e8bc d0bc 04bd 5dfe 87bc
000002a0: 73bf b63b 5a2b f7bc 06d7 2c3d 3de5 48bc
000002b0: d3c5 08bd 2501 8bbd 7408 03be 97b5 3bbd
000002c0: 8644 daba df01 f63c 3629 33bc da39 9e3c
000002d0: 2192 213d 95ae f63c 6f77 a53c 0a0d 893b
000002e0: 9591 313c 9072 003d 60a0 923d 0052 713d
000002f0: a732 02be d09f 32bd 2733 973d aa74 283d
00000300: a8c8 ab3c cc49 70bc 8e35 2b3c 349c 9e3b
00000310: 7c6c 1d3d f074 6ebc af87 e7bc f714 11be
00000320: c818 db3d 9d47 b43d 9e16 2b3c 12fc 97bc
00000330: 3214 a8bc 4a37 aa3c b347 8a3c c5d2 48bc
00000340: 4027 cc3c 74ad 5abc 34b7 6cbc 94cb c2bd
00000350: b29f 30bd e5ae 9bbd 2ce9 c13b 901b 91bb
00000360: bbf3 013d 5e64 923d 2777 8fbc 7c21 8bbd
00000370: 2184 9cba 31f4 a5bd 2411 80bc 2bec 54bd
00000380: cb6c 03bd 8df8 08bd 8a4a 36bd 9906 7a3d
00000390: 9f1c bbbd 91bd 86bd d7f5 35bc 6132 9a3d
000003a0: 87ca 6d3d d74a 103c bf7a bebd 10f7 88bc
000003b0: d112 3abc 2b4e bb3b 27ab 31bd d105 1fbd
000003c0: 8393 2cbd 8c07 c03d 8acd cf3d f162 33bc
000003d0: 1e62 8a3c 9558 4bbd e3d2 63bd 4b54 98bd
000003e0: ee17 8e3d bc27 26bc 7cd0 6dbd 547f 823c
000003f0: 40a8 a83c 5952 4dbc 89be 123d 5fe2 31bd
-0.016651524 -0.08530247 -0.03354496 -0.10433717 -0.084475264 0.023602081 -0.014777013 0.0206351
0.07056806 0.034496132 -0.11506075 -0.12630147 -0.026334908 -0.08794428 -0.046687353 0.017891714
-0.06521534 -0.025332334 -0.07489805 -0.058269437 0.13372152 0.028616121 0.040636808 -0.04874143
-0.11526296 -0.10157698 0.02333888 0.058549773 0.03686092 0.023748644 -0.054474723 0.0111092115
0.032617155 0.02845035 0.03146686 0.0001967676 -0.035270557 0.057298448 0.008040803 0.0055833636
-0.08102809 -0.008540373 0.036091592 -0.0061764847 -0.06749144 0.0321358 0.024761299 -0.0907847
-0.07277818 -0.115144104 -0.061665174 -0.012158142 -0.09423457 -0.045166567 -0.088775665 -0.11780483
-0.011727841 0.025819479 0.04872088 0.054090884 -0.062183116 -0.061333887 0.013654871 0.009096038
-0.029642904 -0.068616696 -0.11712207 0.0393923 -0.030356346 0.015102448 -0.029249107 0.10570985
0.07422344 -0.06311998 -0.050232284 -0.0038886862 0.0112999845 0.011514408 0.049094524 -0.013583739
-0.037072312 -0.0103933215 -0.0063831066 0.061321177 0.025382895 -0.055951025 -0.018590251 0.008346383
-0.03509559 -0.08818105 -0.08250692 -0.0425446 0.032641903 -0.016229302 -0.007995277 0.100319535
0.09040983 0.003541687 -0.020716168 -0.043916494 -0.043389756 0.01756995 0.07144637 0.052277282
0.0094990255 -0.05455007 -0.006948817 0.051315505 0.0028672563 0.007209935 -0.07907856 -0.006362265
0.08788284 0.045039076 0.020604216 -0.05741222 -0.016895732 0.021921644 0.059722308 -0.012890735
0.047830023 -0.08768142 -0.09170412 -0.05849089 -0.111571066 -0.030779801 -0.030293863 -0.08527678
-0.113568604 -0.11951344 -0.037229173 -0.052421313 -0.055540085 -0.011463994 0.074073374 -0.061047554
-0.059944205 -0.041159645 -0.008343085 0.0011213904 -0.06691071 -0.13892314 -0.013651595 -0.049693782
-0.016364519 0.04151742 0.052005116 0.04138961 -0.012169796 -0.109318815 -0.007009764 0.0064263535
0.037884396 0.04565561 -0.0029027653 -0.045725342 -0.016909579 0.034170236 -0.006108406 0.028968131
-0.05377662 -0.0516632 0.038004324 0.02056002 -0.007316426 -0.028386952 -0.032406628 -0.016600782
0.0055770217 -0.030172039 0.04219725 -0.012261686 -0.033391785 -0.06787328 -0.12796193 -0.045827474
-0.0016652502 0.03003019 -0.010935118 0.019314695 0.039446 0.030112544 0.020198552 0.0041824626
0.010837932 0.031359255 0.07159495 0.058916092 -0.12714635 -0.04360944 0.073828034 0.041126885
0.020969704 -0.014666032 0.01044978 0.004840398 0.038433537 -0.014554247 -0.028262941 -0.14168154
0.10698086 0.08802722 0.010442404 -0.018552814 -0.020517442 0.020778317 0.016879892 -0.012257283
0.02492106 -0.0133470185 -0.014447976 -0.09511486 -0.043121047 -0.07601718 0.005917689 -0.0044283345
0.03172658 0.0714805 -0.017512871 -0.06793496 -0.0011941233 -0.081032164 -0.015633173 -0.05198304
-0.032086175 -0.03344016 -0.04450468 0.06104145 -0.091363184 -0.06579126 -0.011105976 0.0752914
0.058054473 0.008806906 -0.09300756 -0.016719371 -0.011357025 0.0057161055 -0.043376114 -0.038823906
-0.042132866 0.093764395 0.10146625 -0.010948882 0.016892489 -0.049645025 -0.05562104 -0.074379526
0.06938158 -0.010141309 -0.058060154 0.015929855 0.02058804 -0.01253184 0.03582624 -0.043428775

model.9.bias f4 [128]
00000000: 7235 613c 8ffb 4d39 1f4f 9ebc f655 4b3c
00000010: f8cc e5bc 10e0 16bc f4a7 3bba 0829 04bd
00000020: d89c 1cbd ef04 18bd 6b74 f23c 90ec c83b
00000030: 21a5 1fbd a18c cd3c 46d6 323c 5676 ddbc
00000040: fbf1 d03c 3faf b1bc c575 34bb e8fa 4d3b
00000050: e522 17bc 5ba4 ea3c ae0f 94bc 3df5 253d
00000060: 0617 18bc 1e50 133c b484 443c 0f10 8b3c
00000070: 81be abbb 45d3 28bd 2d1d c33b 952c 8ebb
00000080: 33dd 1a3c d312 1cbb 5725 1d3d fc3e 84bb
00000090: d447 c43c 8f04 c5bc 383e 623c b27e c8bc
000000a0: 532b 153c 8fc5 223d bd81 6fbc bb02 8fbc
000000b0: 8f8f 723c 792a 84b9 fcb5 e53b eea3 003c
000000c0: fe26 493c c18c 863c 1a8d 953c a43c 1fbd
000000d0: 02e6 8abc 2a00 02bd 8d19 21bd 5577 383c
000000e0: 7788 fd3c 3e36 a6bc d03e 32bb b823 cc3c
000000f0: f522 29bc 3d25 a63c f40d 10ba 18d1 ae3c
00000100: 7397 14bd e6ed 26bd 23fe 9a3b 72db 54bc
00000110: a4e3 243a 6a79 b43c 7173 c13c 7b80 40bb
00000120: 7fc1 f8bb fbff 053d b645 8dbd cc2d 123d
00000130: 368a 0cbd d1f2 69bc aa8a 03bd cab7 7b3c
00000140: f083 f73c 1e7c 9ebc 9267 84bc c6ef 25bd
00000150: eccd f93b f4e5 f63a 7f41 1c3d c621 0cbd
00000160: 9bf7 013c 09dd e93c 15f9 e7bc c92b 2a3b
00000170: 286d 15bd b8bd 8ebc 8622 50bc 821c 673c
00000180: e8ae 783c b724 0a3d 2769 b1bc 0234 a93c
00000190: ae14 69bc 6314 8ebc 7b5d b33c f191 843c
000001a0: b112 86b9 6c68 ca3c 2fdc 29bc bba8 133d
000001b0: a5b6 4c3c 718e 033d f3d1 b5bc 71e8 373c
000001c0: 40d8 d73c 05b5 b6bb c8ec 02bd 8c86 01bc
000001d0: e6e4 253c f29e cdbc 7da3 bbbc 1d9d c93c
000001e0: 6acf f6ba afec 09bd 85ad cd3c b351 e8bc
000001f0: d67f f33b 0d54 13bd 7649 16bd 37bb 563b
0.0137456525 0.00019644036 -0.019324837 0.012410631 -0.028051838 -0.009208694 -0.0007158511 -0.032265693
-0.038235515 -0.03711408 0.029596528 0.006131716 -0.03897584 0.025091471 0.010915345 -0.027033966
0.02550601 -0.02169001 -0.0027536016 0.003143007 -0.009224628 0.028642824 -0.018073883 0.04051708
-0.009282833 0.008991269 0.0119945295 0.01697543 -0.0052412157 -0.041217107 0.0059544058 -0.0043388107
0.009452152 -0.002381493 0.03836569 -0.0040358286 0.023960032 -0.024050025 0.013808779 -0.024474476
0.009104568 0.039739188 -0.014618334 -0.017457357 0.014804735 -0.00025208647 0.0070102196 0.007851584
0.012277363 0.016424539 0.018255759 -0.03887619 -0.01695538 -0.031738438 -0.039331008 0.01125892
0.03094886 -0.020289537 -0.0027198084 0.024919376 -0.010323276 0.020281428 -0.0005495243 0.021339938
-0.036277246 -0.04075422 0.0047300025 -0.012991773 0.00062900246 0.022030551 0.023614617 -0.0029373455
-0.007591426 0.032714825 -0.06898062 0.035688207 -0.034311496 -0.014279083 -0.032114662 0.015363643
0.03021428 -0.019346293 -0.016162667 -0.04051187 0.0076234248 0.0018836842 0.0381484 -0.034211896
0.007932569 0.02854778 -0.028317014 0.002596604 -0.036481053 -0.01742445 -0.0127035435 0.014105918
0.01517842 0.03372642 -0.021656586 0.020654682 -0.014226122 -0.017343706 0.02189516 0.016182872
-0.00025572398 0.024707995 -0.010367437 0.036049586 0.012494718 0.032118265 -0.022194838 0.011224852
0.026348233 -0.0055757784 -0.031964093 -0.007905614 0.010125374 -0.025100205 -0.022905106 0.02461105
-0.0018830125 -0.033672985 0.025107155 -0.02835927 0.0074310107 -0.03596883 -0.03669115 0.0032765397

model.12.weight f4 [10, 128]
00000000: 6118 72be 2cf3 063e a3b5 e4bd ef90 233d
00000010: 3b5a 233d d69d a03d 3a88 2abd 8741 99bc
00000020: 948c 82bd ea94 a9bd b524 89bd 1acb 9f3d
00000030: c83e 38be d5d7 473d c878 dfbd ab64 543d
00000040: 6228 613d a1c6 2ebd 3263 c73d fdb0 1bbe
00000050: fe51 303c c279 35bc ed69 1a3b 05d2 14bc
00000060: c221 893d 6133 7e3d a227 e8bc e17b 2fbe
00000070: fd91 09be 490f d9bc 96cc 8ebd 31f0 e5bd
00000080: c3f7 133d ac53 18be c0ce b73d d80c 913d
00000090: 1862 57bd 2f29 e7bc e7ff 53bd b3bf 3a3d
000000a0: 4181 aa3d 1c61 4d3d 51a9 b63d c35c 143c
000000b0: 0a2a a83d c723 fd3c 061e 493d 0f1b ba3d
000000c0: fa0d 993d 5690 373d 14a3 cb3c 45d3 3bbd
000000d0: f7a3 20be ba81 28bd 38ca 903d ae6e 93bd
000000e0: f4be a43d fe79 ed3d 0c28 8fbc e5ad 8f3d
000000f0: 081d f1bc f546 d03d 4d14 d6bd dea4 83bd
00000100: 273e 5ebd ff78 64bd 141d 09be 1f9c fe3d
00000110: e885 52bc 030b 3cbb 53ac aabd 9fb3 333c
00000120: 2180 19be 10ff d43c 85f5 f8bb cdf6 ac3d
00000130: a37e c3bd 5c42 913d 4a72 2bbd 8a9a 343b
00000140: cdae 4dbd 0958 06be 0764 40bc d9f9 85bd
00000150: 7b71 76bd e105 80b8 bd38 843d 051c b33d
00000160: 7b31 38bc 549d c1bd ee82 33bd 189d c4bd
00000170: 7283 21be 10fd e83d 5621 4f3d f99f ac3d
00000180: ead2 003c b870 09bd b960 ab3d d7a3 35bd
00000190: 4ae7 d4bd ea77 553c c161 d73c a6e2 b1bb
000001a0: d2a1 9dbb e7ab 763d 5e33 873c 46c9 0bbe
000001b0: f1a0 66bd 2972 073d c3bb 25bd d49b 513c
000001c0: c57b ae3d bdb3 8fbd 7c82 56bd 77a0 7bbd
000001d0: 7def 263d 783b 17be c998 143e 399b 93bd
000001e0: a184 563d 988b 8f3c 75ca adbd 3adb bcbd
000001f0: de4b 063d 0c5c eabd 456b a23c e792 92bd
00000200: e7f6 9ebd 2f1b 83bd 024b db3d 0c90 04be
00000210: 8e3b a03c 11ed 183d 3c17 71bd 9788 27be
00000220: 5695 3f3d b7c6 a9bd 7373 0fbe 6c4d ad3c
00000230: 4cfd 09be 10d4 953d e9c6 a83d 26e3 82bd
00000240: 6c4c b23d b9c7 65bd b209 1bbc ee7d b9bd
00000250: 2a1f ad3d 6aa0 19bc 9dce 1abc 89c2 873d
00000260: f187 d9bd 05a7 f9bd 39ec d1bb 0081 613d
00000270: 0850 8fbd b72e b5bc 08d6 7f3c 2020 623d
00000280: fcdf bb3c 50f8 b73d 16f0 dcbd 8b76 86bd
00000290: a9e9 6ebd e102 3f3d 996b e83d 123a b9bd
000002a0: 0cb4 27be c548 403d b045 393d 7a0b ce3d
000002b0: 1125 20bd 2180 c93b 6e40 15bd 4d26 38bd
000002c0: 18c7 24bc de44 973d 27c1 bf3d 99e8 f7bc
000002d0: a8f1 bfbc b43c a1bd 5c01 703d a65f 5bbd
000002e0: d423 483c fb43 0c3e 3d2f a3bd 0985 de3d
000002f0: f4c3 413c 3b53 b23d bd2f 7c3d c8d3 3f3d
00000300: bdaa 96bd da60 a83b df43 ba3c 026e 2bbd
00000310: 1630 d1bd 9d7e afbd 6c0c 153d 9e50 ab3d
00000320: f7c5 0cbd 8558 2a3d a324 71bd 94e7 033e
00000330: daf9 c73d bed3 00be 8456 13be ab2c 7c3d
00000340: 0c45 64bd 8834 d0bd 91d0 08bd 5e09 80bd
00000350: 9e41 f2bc 2718 753d 1a75 af3d e128 18bc
00000360: 791a ae3d 0fe1 da3d 9d0f 48bd 0b58 0fbe
00000370: ddf0 61be 8733 c6bd c1a8 8d3c 2d4f 953c
00000380: 85f5 30be bd22 ea3c 23b3 00bd 9df4 bfbd
00000390: 09bb 09be 5e22 ffbd df86 823c 9cd2 87bd
000003a0: 4cde f83b 618a 12be fad4 7e3d fba6 cc3d
000003b0: e6bd 2f3d 02a8 06be b63d bbbc cae3 0b3d
000003c0: ab05 e8bd 1281 9b3d 45cd d5bc 6c59 783b
000003d0: 5a89 0abe d61f eebc 7360 8abd a276 c33c
000003e0: 4880 f93b 55b4 633d db7b 0f3e 33d5 573c
000003f0: 517d c9b9 240c 1cbd a218 8f3c 6abf 983d
-0.23642112 0.131787 -0.11167457 0.03993314 0.039880972 0.07842605 -0.041633822 -0.018708004
-0.063744694 -0.08280356 -0.066964544 0.078024104 -0.17992699 0.048789818 -0.10911709 0.051853817
0.054970153 -0.042669896 0.09735717 -0.15204234 0.010761736 -0.011076393 0.0023561672 -0.009083276
0.06695892 0.062060717 -0.02833921 -0.171371 -0.13434596 -0.026496546 -0.069726154 -0.112274535
0.036124956 -0.14875668 0.08974981 0.07082528 -0.052583784 -0.02821788 -0.05175772 0.045592975
0.083254345 0.05014144 0.08919013 0.009055319 0.08211143 0.030900849 0.0491009 0.09087192
0.07473369 0.044815384 0.024858035 -0.04585578 -0.15687548 -0.041139342 0.0706982 -0.07198845
0.08044234 0.11595534 -0.01747515 0.070155896 -0.029432788 0.10169784 -0.10453091 -0.0642793
-0.05425849 -0.055779453 -0.13389999 0.124321215 -0.012849309 -0.0028693087 -0.083336495 0.010968118
-0.14990284 0.02600053 -0.0075976276 0.08445511 -0.095456384 0.07092735 -0.04185704 0.0027557933
-0.05021553 -0.1311952 -0.011742598 -0.06541795 -0.060166817 -6.104611e-05 0.064561345 0.08745579
-0.011242266 -0.09453836 -0.043826036 -0.09600276 -0.15772799 0.11376393 0.0505689 0.0842895
0.007862786 -0.033554763 0.08368058 -0.044345703 -0.103956774 0.013029078 0.02629173 -0.00542863
-0.0048105503 0.060222533 0.016503986 -0.13650998 -0.05630583 0.033067856 -0.040462267 0.0127935
0.08519701 -0.07016704 -0.052370533 -0.061432328 0.040755738 -0.1476878 0.14511408 -0.07207341
0.05237258 0.017522618 -0.08485881 -0.09221502 0.032787196 -0.11443338 0.01982654 -0.07156926
-0.07761937 -0.06401669 0.10707666 -0.12945575 0.019559648 0.03733546 -0.05886005 -0.16360699
0.046773277 -0.08289855 -0.14008884 0.021155082 -0.13475531 0.07315838 0.08241064 -0.063909814
0.087059826 -0.056098673 -0.009462761 -0.09057222 0.0845321 -0.009376625 -0.0094486745 0.066289015
-0.10621632 -0.121900596 -0.0064063338 0.055054665 -0.069976866 -0.022117002 0.015614994 0.055206418
0.022933953 0.08982909 -0.1078798 -0.06565579 -0.058328304 0.046633605 0.113486476 -0.09044279
-0.16377276 0.0469444 0.045232475 0.10060783 -0.03909785 0.0061493074 -0.036438398 -0.0449584
-0.010057233 0.07386182 0.09363013 -0.030262278 -0.02343066 -0.07872906 0.058595046 -0.053558014
0.012215573 0.13697807 -0.07967994 0.10865218 0.011826504 0.08707281 0.061568964 0.04683283
-0.073567845 0.0051384987 0.022737442 -0.04185296 -0.1021425 -0.085690714 0.0363888 0.08364986
-0.03436848 0.041588325 -0.05887283 0.12881309 0.09764452 -0.12580773 -0.14388472 0.061566036
-0.05572991 -0.101662695 -0.03340203 -0.06251787 -0.029572304 0.059837487 0.08567257 -0.00928709
0.08501143 0.10687458 -0.048843015 -0.1399843 -0.22064538 -0.09677797 0.017292382 0.01822623
-0.17281158 0.028581018 -0.031420838 -0.09372828 -0.13450254 -0.12457727 0.015933452 -0.066319674
0.007594859 -0.143106 0.06221483 0.099927865 0.04290571 -0.13150027 -0.022856575 0.034152783
-0.11329206 0.075929776 -0.026098857 0.0037895096 -0.13528958 -0.029067915 -0.067566775 0.02386028
0.0076141693 0.0555919 0.14012091 0.013173389 -0.00038431076 -0.038097516 0.0174678 0.07458384

model.12.bias f4 [10]
00000000: 0dc0 233d e345 3d3d 5f4d a23d 8f78 9dbd
00000010: 1c90 98bd 10b1 34bd 80ce cbbd 77a2 88bc
00000020: ee9c 2e3d 350c bdbc
0.039978076 0.046209227 0.079249136 -0.0768901 -0.07449362 -0.044114172 -0.09951496 -0.016679032
0.04263013 -0.02307711
