modelos/pytorch/conv-pytorch-mnist.pt (torch, 457092 bytes, 8 tensors)

model.0.weight f4 [32, 1, 3, 3]
000000 2b e6 14 3e 2b 8c 46 be 3a 48 5a be c5 2c 85 3e
       0.14540927 -0.19389407 -0.21316615 0.2601072
000010 c6 4b 2e be ce 9c 61 be 17 19 f4 bc d8 b6 04 be
       -0.17021093 -0.22032472 -0.02979712 -0.12960374
000020 33 ee 8c be 9f 80 e2 3d 0d 47 0d be 0d 62 35 bd
       -0.27525482 0.11059689 -0.13796635 -0.04428296
000030 0b 82 da bd 47 16 d4 bc 05 93 fa 3d 60 a7 18 3d
       -0.10669335 -0.025889529 0.12235073 0.037268996
000040 68 e5 9f 3d bb 39 46 3e 68 19 6e 3b 99 47 a9 be
       0.07807428 0.1935796 0.0036331061 -0.33062437
000050 15 9c db be d4 99 bd 3e 88 39 a7 3e 32 88 73 be
       -0.4289252 0.37031424 0.3266108 -0.23782423
000060 52 3b 3b bd d6 f1 b9 3e d8 8e 5f 3e f7 05 53 be
       -0.04571087 0.3631732 0.21831834 -0.20607744
000070 41 36 d7 bd 9a bb a3 be c6 94 ab be d2 bc 84 3e
       -0.10508395 -0.31979066 -0.33511943 0.25925308
000080 fe f7 6f be c3 d8 d7 3d a3 ce ce 3e 06 63 c1 3e
       -0.23434445 0.10539391 0.40392026 0.3777086
000090 c9 b7 ea 3e a8 31 b2 be 90 3d 02 bf d0 80 00 3f
       0.45843342 -0.3480351 -0.50875187 0.5019655
0000a0 cc 4b 59 3d 69 60 55 be 28 b7 92 3e 6e fe 73 3d
       0.0530508 -0.20837559 0.28655362 0.059568815
0000b0 e1 83 cc 3e 5d fd 40 be e0 40 6a be f9 0d e9 bd
       0.39944366 -0.1884665 -0.2287631 -0.11379618
0000c0 96 4d 1f bd bf 6a 39 be 32 a5 1a bd e7 03 96 3e
       -0.03889235 -0.18107127 -0.0377552 0.29299852
0000d0 bb 2d 4a 3e be bb 8c 3e 17 58 b0 be 8f db 84 3d
       0.19744007 0.27486986 -0.34442207 0.0648719
0000e0 e5 74 cf bd 8b a8 74 be 07 26 23 be f1 a7 85 be
       -0.10129718 -0.23892419 -0.15932475 -0.26104692
0000f0 a6 f4 96 3d b6 71 11 3e 44 d1 93 be 06 99 bb be
       0.07370882 0.14203534 -0.28870595 -0.36640185
000100 fb ac 14 be db bf 1e be 73 44 43 be 10 e9 ac 3e
       -0.14519112 -0.15502875 -0.1906908 0.33771563
000110 40 6c 6d 3e 3b 8d 5b be 91 87 d2 3e b4 6d 0b bd
       0.23185825 -0.21440594 0.41119054 -0.034040168
000120 7d ae a2 be e1 fd 1c be 16 98 2d 3e f9 a5 50 be
       -0.3177375 -0.15331222 0.16952547 -0.20375814
000130 af 81 a2 3d 1e f8 7b 3e c3 32 56 be 76 b3 62 3e
       0.079348914 0.24606368 -0.20917802 0.22138771
000140 50 9b 87 3e 40 a1 94 3e 34 b7 28 3e bd 90 30 be
       0.26485682 0.29029274 0.16476136 -0.17242713
000150 07 d9 d7 3b bc 8c a4 be 48 aa 90 be 31 e2 62 bd
       0.006587151 -0.32138622 -0.28254914 -0.055391494
000160 d4 a2 77 be 8e ff 99 3e 5b 3c c6 3d ee f9 20 3e
       -0.24183208 0.30077785 0.09679481 0.1572034
000170 60 44 88 3e 31 e6 19 3e 7d 17 92 3e 60 04 ff bd
       0.26614666 0.15029217 0.28533545 -0.12452006
000180 cb b4 f3 bb 35 49 a4 be f4 a3 96 be d6 5f e8 3e
       -0.0074373237 -0.32087103 -0.2942196 0.45385617
000190 e5 28 89 3e 16 3a 06 bf f3 b4 b1 bc 69 46 98 bc
       0.26789013 -0.5243238 -0.021692729 -0.018588262
0001a0 2a 9d 0e be 8a 19 dd 3e b8 f3 0f 3e ff fd ab be
       -0.13927141 0.43183547 0.14057815 -0.3359222
0001b0 80 a7 31 be e8 7d 77 bd 4e f8 de 3e e2 d1 ee bd
       -0.17349052 -0.060422808 0.43548816 -0.11661126
0001c0 17 52 d2 3e 0b 75 21 3e 1b 70 6e 3e 9e 39 66 3e
       0.41078255 0.15767305 0.23284952 0.22482917
0001d0 53 de 77 3e 1a 18 09 be f0 86 3e 3e a9 67 87 3c
       0.24205904 -0.133881 0.18606162 0.016528921
0001e0 4d 46 8d be bd ad 65 bd a0 75 8c be 61 ed 98 3d
       -0.27592698 -0.056073893 -0.2743349 0.074671514
0001f0 c4 5b a3 be ba 26 10 bd 4f ab 4a 3e 66 96 e4 bc
       -0.3190595 -0.035193183 0.19791912 -0.027903747
000200 3f 29 90 3e c5 1b b7 3e 87 2e 84 3e 3a 04 f8 be
       0.28156468 0.35763374 0.25816748 -0.48440725
000210 f4 ad 3b bc ba 1d 99 3d c3 58 96 3e 4c b1 ec 3e
       -0.011455048 0.07476373 0.29364595 0.46229017
000220 b0 ea 61 3d 1a 64 c8 3e 5e 1f be 3d af d1 a4 3d
       0.055155456 0.3913887 0.092833266 0.080478065
000230 8b 20 6a bd ea 89 ce be e3 79 b6 be 88 9b c1 be
       -0.05715994 -0.40339595 -0.35639867 -0.37813973
000240 5e 77 54 3e ed ed ec 3e 4b 82 a0 be 0b 82 c1 be
       0.2074866 0.46275273 -0.31349406 -0.37794527
000250 a5 95 c7 be 1f bf 9d 3e 4a cc 8a 3e ff 55 95 be
       -0.38981357 0.30809876 0.27108985 -0.29167172
000260 e0 a9 63 3e 94 10 17 bd da 63 90 3e 70 f1 32 be
       0.22232771 -0.036881045 0.2820118 -0.17474914
000270 aa 48 6b bd 88 2b c1 3e 41 d6 ca 3e 36 de b9 be
       -0.057442345 0.37728524 0.39616588 -0.36302346
000280 11 2a cf be 07 9b 01 3d 1c be a0 3d d9 e1 75 be
       -0.40461782 0.031641986 0.078487605 -0.24011935
000290 88 9d b0 bd 14 a8 8b be cb 94 89 be 77 9f b1 3d
       -0.08623797 -0.2727667 -0.26871333 0.08672994
0002a0 57 07 4b be a3 84 d9 3d 3b 55 10 bd 07 ce b2 3d
       -0.19827019 0.106210016 -0.035237532 0.08730703
0002b0 fc 31 a0 3e 94 d1 81 3e 03 b9 bb be 97 7b 2d be
       0.31288135 0.25355208 -0.3666459 -0.16941677
0002c0 57 c6 cc 3e 8a 0f 23 be 0c 89 8e bd e7 51 91 3e
       0.3999507 -0.15923896 -0.06959733 0.283828
0002d0 76 1b cd be 06 54 b4 3e 1e 4b 43 be 66 96 19 bd
       -0.40060014 0.35220355 -0.19071624 -0.037496947
0002e0 3a 09 04 3d a2 da b3 3e 2c 95 03 3e 12 1c 4f 3e
       0.03223536 0.3512774 0.12849873 0.20225552
0002f0 32 90 0d be 0c 3b 25 3e ff 32 93 be 37 df 74 be
       -0.13824537 0.16135806 -0.28749844 -0.23913275
000300 6a de 59 be f5 6d 84 be f2 12 bc 3d 40 ab ed bd
       -0.2127625 -0.2586514 0.09183301 -0.11604929
000310 9a 67 46 3d ef 27 9f be a1 c0 be 3e 45 ad 50 3e
       0.048438646 -0.31085154 0.3725634 0.20378597
000320 6a 2b 88 be 80 c4 62 3e d8 48 89 3e 2e 71 31 3e
       -0.26595622 0.22145271 0.26813388 0.17328331
000330 1d b6 0b bd a8 84 8d be ec 37 b2 be 3d b0 2e be
       -0.034109224 -0.2764027 -0.3480829 -0.17059417
000340 45 ac 70 3e 0c 4a 55 3e 87 32 35 3e 63 ac 8a 3e
       0.23503216 0.20829028 0.17695056 0.27084646
000350 71 f7 58 3e bc c7 12 3e b4 a3 cd be 72 e6 94 be
       0.21188141 0.14334005 -0.40163958 -0.29082066
000360 e6 dc d1 3d 27 19 4d 3e 17 3e 60 3e 0c c2 27 3e
       0.10247211 0.20029126 0.21898685 0.16382617
000370 a9 ef 02 3e 6b bf 5f 3d 23 54 b0 3e c2 b8 b7 3e
       0.12786736 0.05462591 0.3443919 0.35883147
000380 c4 84 00 bf 03 df 60 be 97 8b 98 be 9d 95 34 bd
       -0.50202584 -0.21960072 -0.29794 -0.044087995
000390 0b 51 e4 bd 58 80 8d bb 00 40 95 be e0 31 fe 3e
       -0.1114827 -0.0043182783 -0.2915039 0.49647427
0003a0 c1 72 e4 3e 6f d8 c1 bd 7f 2c 8f be 23 5f cb be
       0.446188 -0.094651096 -0.27963635 -0.3972102
0003b0 d1 32 a7 be 40 56 1b be 91 ff 81 3e 78 0e b9 3e
       -0.32655957 -0.1516962 0.25390294 0.3614385
0003c0 89 a2 62 3e ea fc 9d 3e e9 fb 10 be 1e 24 50 be
       0.22132315 0.3085702 -0.14158596 -0.20326278
0003d0 f7 39 c1 be 19 d6 58 3e a1 5c 35 3e 94 f6 14 3e
       -0.37739536 0.21175422 0.17711116 0.14547187
0003e0 9b 7c 05 3e 1f 80 8f 3d 96 e4 8f 3e 0a 94 39 be
       0.13035814 0.07006859 0.28104085 -0.18122879
0003f0 d1 4d 40 be 20 7f 85 bc 55 3a 5b be a1 f0 10 3d
       -0.18779685 -0.01629597 -0.2140897 0.03538573

model.0.bias f4 [32]
000000 fb 6b 01 3e 33 db 59 3e 26 c8 b0 bd 4b 9b a3 3b
       0.12638848 0.21275024 -0.08631925 0.0049928776
000010 25 8f 10 be 05 19 b9 bd 52 3f d0 3d 78 3a 0c bd
       -0.14117105 -0.09037975 0.101683274 -0.034235448
000020 4f 10 44 3e 88 d0 1d 3c 98 85 77 3e 1c 93 38 be
       0.19146846 0.009632237 0.24172056 -0.18024868
000030 b1 23 71 bc 80 6a b5 3c 70 ed 1c 3e a2 4f 2d 3e
       -0.014717982 0.02214551 0.1532495 0.16924909
000040 60 a7 bb bd 20 c0 14 3d a1 b9 6a bd 03 36 58 3d
       -0.091627836 0.036316037 -0.057305936 0.052785885
000050 1f f7 94 3e 5b 84 3a bd 5d c5 c3 3e 2f 4e bb 3e
       0.29094788 -0.04553638 0.38236514 0.36583087
000060 6a 3f 7a 3e 41 39 82 3e 88 43 1e be 11 9f 5b 3e
       0.24438253 0.25434306 -0.15455449 0.21447398
000070 ed 0e d4 bd f7 1e e4 3d b2 47 4a be db b2 3b be
       -0.10354409 0.111387186 -0.19753912 -0.18329947

model.4.weight f4 [32, 32, 3, 3]
000000 33 19 91 bc 27 12 6e bd 48 e0 6b bd a0 01 27 3c
       -0.017712211 -0.05812278 -0.05758694 0.0101932585
000010 80 4f bb ba 40 79 06 bd 84 1f c0 3b 2b a5 dc 3b
       -0.0014290661 -0.032830477 0.005863132 0.0067335567
000020 44 b5 8b bd 0c 29 af 3c d4 bf fb 3c a7 be 68 3d
       -0.06821683 0.021381877 0.03073112 0.056822445
000030 69 43 26 bd 4d 8c ce bc 1d f8 90 3c 12 b7 a3 bc
       -0.04059163 -0.025213385 0.017696435 -0.019984756
000040 5d cc 91 3d b6 d9 30 bc bb c7 84 3d 98 10 96 3c
       0.07119057 -0.010794094 0.06483408 0.01831846
000050 f1 1d 67 3d a3 4b e3 bd ec af 92 bd 86 5c 3b 3d
       0.05642504 -0.11098411 -0.07162461 0.045742534
000060 cd d9 b5 bd bb e3 b8 bd ef 29 21 3d 53 a7 83 bd
       -0.08879433 -0.09027811 0.03934663 -0.06428399
000070 0e d0 85 bc f0 17 71 bd 88 28 cf bd d0 9c 8a bc
       -0.01633456 -0.05886072 -0.101151526 -0.016920477
000080 6e 4e 37 bd b4 dd a3 3c 63 9c 12 3d f5 3b d6 bc
       -0.04475253 0.020003177 0.035793673 -0.026151637
000090 a1 7e 47 3d 38 f8 f3 3d 84 0e de 3d 0f 12 90 bd
       0.048704747 0.11912578 0.108426124 -0.070346944
0000a0 a5 3c 70 3b 33 9b f0 3d 88 b6 7c bd 00 f4 25 be
       0.003665724 0.11748352 -0.061697513 -0.1620636
0000b0 96 7f ac 3d 59 6a 39 bd 0a 20 b1 bd bf 8f eb 3c
       0.084227726 -0.045267437 -0.08648689 0.028755067
0000c0 63 10 cf bd 27 b4 a3 bd 29 83 0f be 26 e6 da bb
       -0.101105474 -0.07993346 -0.14014877 -0.006680268
0000d0 e8 1f 45 bd b8 90 26 be 11 db 6b 3c ad 83 37 bb
       -0.04812613 -0.16266143 0.014395491 -0.002800207
0000e0 e4 f3 2d bc 60 df db 3b 8f 8e 70 bd 81 5f 7b 3c
       -0.01061723 0.006709978 -0.058729704 0.015342594
0000f0 c1 fe 95 3d 77 5b 43 bd df c9 ae bb 52 ed 80 bb
       0.07323981 -0.04769465 -0.0053341235 -0.003934541
000100 23 f8 ed 3c f0 58 88 3c e1 02 8f bd 5b 6f e7 bc
       0.029048985 0.016643971 -0.06982971 -0.02825134
000110 52 d1 b3 3a 23 88 a1 bd 16 63 72 3c 30 a4 88 3d
       0.0013718999 -0.07887294 0.014794132 0.06671941
000120 70 71 05 bc 2e 77 54 3d 40 d1 05 bd bd 05 f9 3c
       -0.008144721 0.05187147 -0.03267026 0.030398244
000130 95 a4 f3 bc c5 e0 a9 3c b2 de 41 3d 64 c4 ef 3d
       -0.029741565 0.020737061 0.04733152 0.117073804
000140 fb 1a af bc 6b fd 1e bd 1f 6f b0 3c 5e 28 07 3d
       -0.02137517 -0.038815897 0.021537362 0.03299748
000150 c5 0f 6d bb 61 61 41 bd ec b2 9a bd fa bc c7 3d
       -0.003617273 -0.04721201 -0.07553658 0.09752841
000160 ec a4 76 3c 54 26 02 be b2 45 b7 3c 4e 17 9f bd
       0.015053969 -0.12709934 0.0223721 -0.07768117
000170 93 b8 c7 bc fb 6b 79 3d 78 d7 9c bd 0e 9e 11 3d
       -0.024380004 0.060893994 -0.07658285 0.035551123
000180 66 2b 81 bd 66 91 9f bc 32 4e 79 bd 4f 16 cc 3c
       -0.06307106 -0.019478511 -0.06086559 0.024912981
000190 3b 02 3d 3b 9d f1 02 3e 41 02 5e bd 2e e1 0e bd
       0.002884044 0.1278748 -0.05420137 -0.034882717
0001a0 df c4 54 3d 2c 28 0c bd b9 0f 72 bd 32 d1 b0 3c
       0.051945563 -0.034218 -0.059097026 0.021584127
0001b0 0d 52 a3 bb 78 29 1c bc a9 ae cc bc 27 3d ec bd
       -0.0049841464 -0.009531371 -0.024985628 -0.115351014
0001c0 6b 3a c3 bc 28 8a 77 bc 56 b8 e7 bd ea 5c 83 3c
       -0.023831567 -0.015108623 -0.11314456 0.016035516
0001d0 93 98 3f bc 70 7f 48 bc c1 d6 e0 bc 89 3a 3f bc
       -0.011694091 -0.012237415 -0.027446153 -0.011671671
0001e0 97 c6 6b 3d a1 df b2 bc d5 48 ac 3c 8f 04 9a 3d
       0.057562437 -0.02183515 0.021030823 0.07520401
0001f0 28 ef 13 3d 95 54 9a bd 57 08 14 3d d0 a4 3f 3d
       0.03611675 -0.07535664 0.036140766 0.046788037
000200 57 a3 af 3d a7 56 0c bd fb 69 1d 3d 02 d6 81 3d
       0.085760765 -0.034262326 0.03843115 0.06339647
000210 ee 22 c2 bd b8 06 b0 bd 93 45 23 3d 2c 62 16 3d
       -0.094793186 -0.085950315 0.039861273 0.036714718
000220 99 73 97 bd bf 1a b8 bd af 1d a5 3d 4a 8e 9e bd
       -0.073950954 -0.089894764 0.08062302 -0.07741983
000230 ad d8 8a bd c8 ae 07 3d 8e 93 c9 bd fa b0 48 bd
       -0.06779609 0.03312567 -0.09842597 -0.048996903
000240 bf 3f 9f 3d dd 0e 9a 3d 51 e1 c6 3c 5d 4c 34 3d
       0.077758305 0.07522366 0.024277361 0.04401814
000250 6a 90 e3 3d 66 f5 01 3d 64 ba 63 ba 21 c9 a2 3d
       0.11111529 0.03172817 -0.0008687137 0.079485185
000260 b5 b1 13 3d 51 69 b7 3d 9b ed 09 3d 8d 38 2e 3d
       0.036058147 0.089556344 0.033673864 0.0425344
000270 62 77 33 bc f1 62 d9 3d 2a 47 f4 3d 4e 04 ba bd
       -0.010953756 0.10614575 0.11927636 -0.09082852
000280 7f 9a 98 3c 66 e7 06 3e 13 f2 1c bd 56 f7 5e bd
       0.018628357 0.13174209 -0.038316797 -0.054435097
000290 97 0d 8f bd 8b 72 a9 bc 29 1d 5e bd 92 d2 b4 bc
       -0.06985014 -0.020684501 -0.054227028 -0.022073064
0002a0 0d 66 1a 3d cd 95 10 3d d0 1a a5 bd c4 bd d6 3d
       0.03769498 0.03529911 -0.08061755 0.10485414
0002b0 f0 1e b0 3d 05 2b ab 3c 76 fa 8b 3c 15 94 14 3d
       0.08599651 0.020894537 0.017087203 0.036274035
0002c0 8b 81 00 bb 3e f2 f6 bb 37 d8 40 3d 61 bd 1b 3d
       -0.0019608464 -0.0075362017 0.0470812 0.038022403
0002d0 f9 2c b0 3d ff f2 22 3d ce ed 0a bd f8 ea c8 bd
       0.08602328 0.03978252 -0.033918194 -0.09810442
0002e0 e9 23 56 3c 86 0b 3a bd 89 b5 8c bd ed 62 11 3d
       0.013070085 -0.045421146 -0.068705626 0.035494734
0002f0 4e 95 1a 3d db 3d f1 3b a3 c3 85 bc 1f a8 82 bd
       0.037740044 0.00736211 -0.016328638 -0.06379723
000300 45 de 59 3d 59 d0 47 3d a8 0d b5 bd 86 de ae 3d
       0.05319049 0.04878268 -0.08840495 0.08538537
000310 41 be 6f 3c 4a bd 8c 3b 29 22 83 3b 13 e5 d6 bb
       0.014632762 0.004295026 0.004001875 -0.0065580695
000320 9f a6 52 3d fe bb d1 bc f5 39 d1 3c 8f 9b 2a 3c
       0.051428434 -0.025602337 0.025540331 0.010413065
000330 aa 72 da bd 5c cf 6e bc e1 45 16 3d 2b 49 db 3d
       -0.10666402 -0.0145758055 0.036687735 0.10707315
000340 ce 6b 98 bb 32 42 27 bd 66 ae 7c 3d b5 7c 5a bd
       -0.004651523 -0.040834613 0.061689757 -0.053341586
000350 16 0d 4f bd fe 3e 39 bd 10 d1 b3 3b 15 8a 91 ba
       -0.05054959 -0.04522609 0.0054875687 -0.0011103774
000360 52 a6 f2 bc 2e d2 b4 bd b8 ba 74 3b 6f be 89 3c
       -0.029620323 -0.08829151 0.0037342738 0.016814439
000370 0a 8c b4 bd 09 52 d4 3c 14 0d 3b bd 9d e4 90 bd
       -0.08815773 0.025918024 -0.04566677 -0.070748545
000380 b0 41 c3 3c dd 1d fb bc ed dc 53 bd de 87 6e 3c
       0.023835033 -0.030653888 -0.051724363 0.01455876
000390 e4 f4 d9 3c 23 ee dd bd 94 f6 f7 3c be 6e 4b 3d
       0.02660603 -0.108364366 0.030268945 0.04966616
0003a0 cb 70 76 ba 2b 12 4b 3d 0f 8e 98 bd 6c 61 1a bd
       -0.0009400963 0.049577873 -0.074489705 -0.037690565
0003b0 23 77 c8 3c 64 00 41 bc 12 6e 88 bd 74 96 50 bd
       0.024470871 -0.011779878 -0.06661619 -0.050924733
0003c0 e5 4a 43 bd 10 96 b6 bd 00 e8 08 be f5 2f 90 bc
       -0.047678847 -0.08915341 -0.13369751 -0.017600993
0003d0 e2 00 2b bd 02 65 81 3d 69 cc bc 3c 38 ac 36 bc
       -0.04174889 0.06318094 0.02304669 -0.011149459
0003e0 f1 92 7a 3c 4a ae 7c bd 72 4d a2 bc 24 1d d4 3c
       0.015293823 -0.061689653 -0.01981232 0.025892802
0003f0 42 ae 37 3d 1b 2f 46 3b 1e 2a 8a bd fc 73 84 3d
       0.04484392 0.003024048 -0.067463145 0.06467435

model.4.bias f4 [32]
000000 0b 33 58 bc 10 68 60 3b b0 e8 c9 bc 89 b8 02 bd
       -0.013195763 0.0034241714 -0.024647087 -0.031914268
000010 b1 1b 74 3d c6 4b 1c 3d 3b 2a 6f 3d 62 70 5a 3d
       0.05959672 0.0381582 0.058389883 0.053329833
000020 8f 83 ab bc 81 97 7c 3d 2c d8 88 3d 97 d0 41 bd
       -0.020936755 0.061667923 0.066818565 -0.047318067
000030 a3 d3 85 3c db 09 18 bd fb bc 3f bd c3 82 17 bd
       0.016336268 -0.037118774 -0.046811085 -0.03698994
000040 79 99 f8 3c fe 69 12 3d d6 2f f7 bc 75 0c 1c bc
       0.030346619 0.035745613 -0.030174177 -0.009524454
000050 6d 29 11 bc 24 1f 1a 3c fb 13 be bc dc 6c 57 3d
       -0.008859974 0.009406839 -0.023202887 0.05259405
000060 10 14 40 bd fc fe 2e 3d 4c d2 a0 3b 8f dd 92 3c
       -0.046894133 0.04272364 0.004907882 0.017927913
000070 12 31 e7 bc 1b ca ce 3c 2d de 80 3d a1 03 fc 3c
       -0.02822164 0.025242856 0.06292377 0.03076345

model.9.weight f4 [128, 800]
000000 b1 d8 cd bb 3f a1 0b bd 76 62 61 3c 6c 5b 7b b9
       -0.006281935 -0.034089323 0.013756385 -0.00023971283
000010 d7 9e ea bb 5e 20 16 bd b4 69 94 3c fa af 25 3c
       -0.0071600485 -0.03665196 0.01811681 0.010112757
000020 7f be a8 bc be 4b 29 3d af 83 85 3b 6c cb 62 3d
       -0.020598648 0.041332 0.004074536 0.05536978
000030 99 3c 10 3b 52 94 6a 3b f6 90 67 ba 21 b5 cb 3c
       0.0022008775 0.0035793972 -0.00088335515 0.024866642
000040 64 06 4e 3d 79 30 36 bd b9 a8 68 3c b4 09 9b 3c
       0.050299063 -0.04447982 0.014200383 0.018925525
000050 e5 2c 55 3c 27 9e cd bc 88 52 07 3d 3e 76 ca bd
       0.013011192 -0.025099827 0.033037692 -0.09885834
000060 9b 76 e2 bc e8 78 37 bd 40 84 a7 bc ee a7 a1 bd
       -0.027644446 -0.04479304 -0.020448804 -0.07893358
000070 dc 85 ef bb 88 99 d7 3c 59 91 d7 3b 13 d6 4e bd
       -0.0073096585 0.026318327 0.006578606 -0.050497126
000080 23 76 fa 3c 79 b1 08 3d 11 f2 91 3c c6 e3 99 3d
       0.03057391 0.033372376 0.017815622 0.075141475
000090 b3 12 57 3d e7 c3 e7 3c 88 d3 2b bd 22 44 d5 3c
       0.052508067 0.028291656 -0.04194978 0.026033465
0000a0 72 36 1d 3d 70 fc aa 38 70 33 f6 ba 49 ad aa bc
       0.038382 8.153252e-05 -0.001878364 -0.020834582
0000b0 a5 74 bb bc 05 ec 26 bc 90 bb ec 36 d1 51 17 bd
       -0.022882769 -0.010188107 7.0551832e-06 -0.03694326
0000c0 85 49 5f bd 15 cb 64 bc 5a 3c b7 3c 79 14 76 bd
       -0.054513473 -0.013964434 0.022367645 -0.060078118
0000d0 c6 d7 7f bc 9e f9 8e 3c c5 32 33 3c ea f3 2c 3b
       -0.015615409 0.017453011 0.010937397 0.0026390501
0000e0 42 f6 e3 3c 64 a2 32 bd ea 9e 9a bd 4b 1a f7 bd
       0.027827386 -0.0436119 -0.07549842 -0.12065562
0000f0 f2 09 35 3d ee df a0 3b 2d e9 b7 bd 21 6f 43 bd
       0.044198938 0.004909507 -0.089800216 -0.047713403
000100 8a 33 63 3d 1f 1a b1 3c 79 90 44 bc 09 ee 87 3c
       0.055469073 0.0216189 -0.011997336 0.016592996
000110 b9 db 29 bc f4 68 bf 3c 63 56 f4 3c e6 6e 45 3c
       -0.010367327 0.023365475 0.029826349 0.012050366
000120 ea 20 f1 bc 5e ab 66 bd eb d7 dd 3c 4b c3 30 bd
       -0.02943464 -0.056315772 0.027080497 -0.043154996
000130 d0 89 be 3c 00 3e c6 bc e0 18 e4 bc 38 05 99 ba
       0.023259073 -0.024199486 -0.027843893 -0.0011674529
000140 b1 51 52 3c 30 35 fe 3c 95 47 a0 3c 6a 56 1a 3d
       0.01283686 0.031031221 0.019565383 0.037680067
000150 25 f9 2e bd f1 e5 a2 ba e3 60 fb 3c 88 06 96 bc
       -0.04271807 -0.0012428147 0.030685848 -0.018313661
000160 0f 26 fe 3c 00 6f 8a bc fc b0 52 bc a2 29 07 3d
       0.031024007 -0.016898632 -0.012859579 0.03299869
000170 39 cd a2 3c 2c 7a d1 3c 0b da 95 3b 32 d0 e2 bb
       0.019873248 0.025570951 0.004573112 -0.0069217915
000180 32 fe 0d 3c f1 25 8c bb b6 a2 e8 3c ae 76 a2 bc
       0.008666562 -0.004276984 0.0283979 -0.019831982
000190 3c 42 5e 3c be 95 f4 3a 2a e6 52 3c 33 b5 65 bc
       0.013565596 0.0018660349 0.012872258 -0.014020252
0001a0 29 51 dd bc 70 6d b2 3c 77 19 03 3d 27 85 45 bd
       -0.02701624 0.0217807 0.032006707 -0.048222687
0001b0 33 ab a1 bd 50 a7 40 bd eb 06 0a 3d 30 ff 9b bb
       -0.07893982 -0.04703456 0.033698004 -0.0047606453
0001c0 8d 1e bd bd 7e fe b5 3c aa 5d 87 3c 1c 58 5d bc
       -0.09234343 0.022216078 0.016524155 -0.013509776
0001d0 a0 fd d9 3b 33 dc c6 ba 04 2a 0c bd 4f 15 f7 3c
       0.006652549 -0.0015171826 -0.034219757 0.030161528
0001e0 17 cc 93 bc 4b 00 db 3b a8 7b 7e bd 22 83 5f 3d
       -0.018041654 0.0066833845 -0.062129647 0.054568417
0001f0 4f f1 df bb 8a 9d b2 bc c0 30 ac bd e3 10 eb bc
       -0.006834186 -0.021803636 -0.08407736 -0.028694576
000200 b0 97 09 3d 98 c8 0e 3d 27 0a a7 bc 5b 06 09 be
       0.033591926 0.03485927 -0.020390583 -0.1338133
000210 df ef 21 bd 24 a7 7d 3d 43 a0 9a 3d 36 c6 35 3a
       -0.0395354 0.061926976 0.07550099 0.0006934138
000220 5a 70 af bc 00 6f a2 3c ed c4 a1 3c 77 0d 1e bb
       -0.021415878 0.01982832 0.019747222 -0.0024116912
000230 25 98 7c bd 80 90 27 bd be 43 b1 3c b1 e4 92 3c
       -0.061668534 -0.04090929 0.021638747 0.017931314
000240 14 54 80 bd b6 55 70 bc c0 7c 65 b8 be 35 85 3c
       -0.06266037 -0.014668873 -5.4714037e-05 0.016260978
000250 40 32 84 bc 7e dc 81 3c e3 ab 4e bd 3e 78 cc bc
       -0.016137242 0.01585221 -0.050456893 -0.02495968
000260 1c fc 35 3b 81 44 56 3d 00 d1 cb 3c a4 ca 20 bd
       0.0027768677 0.052311424 0.024879932 -0.039255753
000270 ac f4 14 bd cf 7c 9d 3c a2 1f b6 3c c1 88 22 3c
       -0.03636615 0.019224552 0.02223188 0.0099203
000280 c1 da 95 bd fe e5 0b 3d c7 ca f0 3c ed db 00 3c
       -0.073171146 0.034154885 0.029393567 0.007864934
000290 30 d3 cc 3c eb d4 c5 bd 0d d4 86 3c 2d d2 a2 3c
       0.025003046 -0.096597515 0.016458536 0.01987561
0002a0 49 26 e9 bc 7b 05 5f bd 7c f9 24 bc a3 fd 01 bc
       -0.028460639 -0.054448586 -0.010069247 -0.007934007
0002b0 cc dd 1b 3d a5 c7 d1 bc 0d da 80 bd cf 48 12 bd
       0.03805332 -0.025607893 -0.0629159 -0.035713967
0002c0 c8 e4 8e bc 2a b7 ba 3c 67 53 99 3b 4b 68 76 3c
       -0.017443076 0.022792418 0.004679132 0.015039514
0002d0 84 e1 30 bc 82 1e 85 3c bf f8 b5 bc 5f 3a 88 bd
       -0.010795955 0.016249899 -0.022213338 -0.066517584
0002e0 1d d8 0f bd f6 b2 5b 3b 29 77 79 3d fc 50 a5 3c
       -0.03511821 0.0033523417 0.060904656 0.020180218
0002f0 8c 6b 20 bc b1 e6 dc 3c 3b 25 69 bc 0c 84 e7 3c
       -0.009791266 0.026965471 -0.014230068 0.028261207
000300 f4 f8 94 3b c9 6c 44 bd b2 8f 66 3d 2b 42 bb bc
       0.004546279 -0.047955308 0.056289382 -0.0228587
000310 81 ec 96 bc 89 0d 34 bc 01 f1 d8 3b 1b bd d3 bb
       -0.01842332 -0.010989555 0.006620527 -0.006461752
000320 2c ff ee 3b 42 63 5a bd 3f 1b fe 3c 78 8d 03 3d
       0.0072936025 -0.053317316 0.031018851 0.032117337
000330 c9 24 9a bb a0 aa 52 3d 85 7c cb 3c 43 11 13 3d
       -0.004704092 0.051432252 0.024839649 0.035905134
000340 72 6a 23 3d da 02 27 3d 29 0f 9f 3c 1e c8 91 bc
       0.039896436 0.040774204 0.019416409 -0.017795619
000350 9f 7b c8 bc 0e 33 ec 3b 61 0f 05 bd 9e a9 3c bd
       -0.02447301 0.0072082346 -0.03248537 -0.046060197
000360 e8 d9 90 3b ce 94 e7 3c 67 e5 c9 bc 57 6a 4f bd
       0.0044205077 0.028269198 -0.02464552 -0.050638523
000370 18 93 01 3c 30 e1 62 3c 60 42 a9 bb d3 7a 04 3c
       0.007908605 0.013847634 -0.005165383 0.008085924
000380 10 f3 85 bc 5d 22 bc bc 24 56 4b bc 84 a5 89 3c
       -0.016351253 -0.022965604 -0.012410674 0.016802557
000390 88 d4 89 3c e5 54 74 3c 8e 98 d5 3c 4f 90 4a bc
       0.016824976 0.014912819 0.02607372 -0.012363507
0003a0 49 fb 6c bc 54 4e 4b bc eb 08 8d bb 11 b1 cd bb
       -0.014464208 -0.012408812 -0.0043040416 -0.0062772115
0003b0 dc 5d 3f 3d 54 02 f1 bc ae 84 cf bc 93 f5 78 3c
       0.04672037 -0.029420055 -0.025331821 0.015195268
0003c0 bc 0d 00 3d 16 8b a9 bc df a4 cc 3b 07 9d 1c 3d
       0.031263098 -0.020696204 0.00624524 0.03823569
0003d0 90 97 50 3d 5a 74 1b bb c0 41 9b 3c 66 1e 6c bc
       0.05092579 -0.0023720474 0.01895225 -0.014411544
0003e0 d2 da 32 bd 31 9b c2 3c c0 5d 3d bd 1d a2 63 bd
       -0.043665715 0.023755642 -0.046231985 -0.055574525
0003f0 71 8d 45 bc f2 98 c0 3c c1 fa c0 3c c7 3f ef bd
       -0.012057648 0.02351043 0.023557069 -0.116820864

model.9.bias f4 [128]
000000 1e 61 05 3d 0e c3 2f bc 87 89 94 bc 89 8d af bb
       0.03256332 -0.010727657 -0.018131984 -0.0053574485
000010 09 6c 70 bc 5b 2d af ba bc ee 6a bc e7 1f f9 3c
       -0.014674195 -0.0013364957 -0.014339145 0.03041072
000020 7d a2 3a 3d 18 6d 19 3c 58 6f d9 3a f1 1f d6 3c
       0.045565117 0.009364389 0.0016588969 0.026138278
000030 bc 66 20 bc b3 34 17 bd b0 56 27 3d 19 a2 a8 bc
       -0.009790119 -0.036915492 0.040854156 -0.020585107
000040 9d 7f 00 3d cc 5f 09 bd 5c 4a 62 bc eb 03 31 3c
       0.0313717 -0.033538625 -0.013811674 0.010804157
000050 b5 cf ca bc 9c 74 c7 3a 10 d9 06 bc f2 2a a6 bc
       -0.024757246 0.0015217247 -0.008230463 -0.02028415
000060 be da 36 bd ff a0 83 bc ff 47 bb bc 24 df 2c bd
       -0.044642203 -0.01606798 -0.022861479 -0.04220499
000070 02 e9 c0 bc 84 68 50 3b fd de d0 3a c2 80 39 bc
       -0.023548607 0.0031800577 0.0015935596 -0.011322202
000080 2b 8c 15 bb c4 ea b7 bb d4 50 c2 bc 7c 33 c5 bb
       -0.0022819142 -0.005612703 -0.023720182 -0.0060181003
000090 fc fc 3c bc 18 0b 85 3c 4c 69 9a 3c d3 2e 8c bc
       -0.011534926 0.016240641 0.018849038 -0.017112171
0000a0 37 13 d9 bb 28 56 c3 3c 6c 22 f1 3b 07 38 e8 bc
       -0.006624605 0.023844793 0.0073588397 -0.028347028
0000b0 63 0f ca bb a3 4c 76 bc 46 0c ce 3c 62 a8 b8 3c
       -0.006166385 -0.01503292 0.025152337 0.022541229
0000c0 38 98 5a bc 99 ef 36 bc 38 e4 a2 3c d2 a3 66 3c
       -0.013341956 -0.011165523 0.019884214 0.014077144
0000d0 19 e8 c4 ba d0 f2 3a bd 00 4e 5c bb 1a 06 b7 3b
       -0.0015022784 -0.04564172 -0.0033615828 0.005585444
0000e0 2f db 45 bb d7 38 70 bb 83 c9 ea bc 56 94 63 ba
       -0.0030190458 -0.0036654973 -0.028660541 -0.00086814666
0000f0 a2 8f fe 3c 52 56 2a 3b c3 27 7c bc 93 de 23 bc
       0.031074349 0.0025991392 -0.015390339 -0.010001796
000100 39 4a 01 3d 8c ff db 39 d4 d7 09 bb 56 87 ac 3b
       0.031564925 0.00041961332 -0.0021033185 0.0052651567
000110 4f cc a9 ba e4 dc df 3a 09 71 47 3c da 85 69 bc
       -0.0012954565 0.001707938 0.012172946 -0.014253104
000120 8f 36 16 3c 6c b9 b6 3a 5e 23 ee 3c 07 8c e8 3b
       0.009168281 0.0013940758 0.029069599 0.0070967707
000130 d9 8f d6 bc c4 6f 91 3b 26 74 ce bc ad 90 93 bc
       -0.026191639 0.0044383723 -0.025201868 -0.018013323
000140 49 35 1d 3d a8 61 ec b9 89 3f ed bb 45 b7 d1 bc
       0.038380895 -0.00045086187 -0.00724024 -0.025600085
000150 d8 94 35 bd 15 e7 c7 bb 1e b6 cf 3c 35 1b c7 3a
       -0.0443314 -0.006100545 0.025355395 0.0015190603
000160 bd 7a 2d bd 76 56 d2 3c cb 93 32 3b bc 0d a6 bc
       -0.04235338 0.025675993 0.0027248736 -0.020270221
000170 09 c7 a4 3c f4 c5 91 bc 88 92 6d bc 07 7c 19 3d
       0.020114439 -0.017794587 -0.014500268 0.037471797
000180 8d 99 c4 3c 68 2d 7d bc b6 5b f2 bb 6c 48 46 3d
       0.023999 -0.01545272 -0.0073961867 0.04840891
000190 4b 59 9a bb 03 51 99 bc a8 af 84 bc fb 17 c5 3c
       -0.0047103516 -0.018715387 -0.01619704 0.024059286
0001a0 a8 b4 d2 3b 3a 20 fd bc 80 25 74 3c 21 e6 13 bd
       0.0064302273 -0.030899156 0.014901519 -0.03610814
0001b0 30 c2 e0 3b bf 47 2c bd d2 22 a1 bc e5 76 01 3d
       0.0068590865 -0.04206061 -0.019669924 0.031607527
0001c0 b6 ce d6 3c c0 03 a0 3c 5d 59 01 bd 74 a6 8a 3c
       0.026221614 0.019533038 -0.031579364 0.016925074
0001d0 cf 13 bd bc 75 41 b0 bc c2 c0 e3 ba a6 b5 02 bc
       -0.023080735 -0.021515587 -0.0017376172 -0.007977879
0001e0 45 91 17 3d 5a ed a0 3c 67 1a 2b 3d 88 86 ee bc
       0.037003774 0.019644428 0.041773226 -0.029116884
0001f0 cc 99 07 bc 77 49 45 bc bc b8 3c 3b 41 fe 4e 3c
       -0.008276414 -0.012041441 0.0028796634 0.012633861

model.12.weight f4 [10, 128]
000000 df 10 9d 3d 9d 87 ba bd a2 d5 78 3d 58 94 e8 bd
       0.076692335 -0.091078974 0.06075061 -0.11356419
000010 2a 78 a5 3d c7 ad 19 bc 86 70 94 bd 65 73 68 bd
       0.0807956 -0.009379811 -0.07248025 -0.056750674
000020 0d 4e ad bd ab f9 ab bc bb 1e fa bc c0 68 f9 bc
       -0.08462153 -0.020993074 -0.030532232 -0.030445457
000030 9d f9 bd 3d 82 25 a1 bd b8 ca 8c 3d 45 d4 41 3d
       0.092761256 -0.07868482 0.06874603 0.047321577
000040 64 4f c0 3b 82 a7 a2 bd ba 18 25 bd 1b 43 24 be
       0.005868839 -0.07942106 -0.040306784 -0.16041224
000050 be c2 43 3d 77 1c f1 3d cd b9 da 3c 7c 8d 67 3d
       0.047793142 0.11773007 0.026699925 0.056531414
000060 28 ec d3 3b ed 49 9c bd 87 ee 3d 3d ff 0b 28 3d
       0.006467361 -0.07631288 0.046370056 0.041027065
000070 c2 b6 0d 3d d2 24 01 3d 13 b3 79 3d 82 6e b4 bc
       0.03459812 0.031529255 0.060961794 -0.02202535
000080 e8 9b 9f bd 7e f9 0f bd 50 10 74 3c 0d 91 93 bd
       -0.07793409 -0.035150044 0.014896467 -0.072054006
000090 52 b8 61 bd 89 0d 85 3d 2c 36 4a bd f5 33 6a bd
       -0.055107422 0.06496722 -0.04936807 -0.057178456
0000a0 08 d7 3b 3d 3a d0 bf bd 80 ce b2 3d c9 8e a1 3b
       0.045859367 -0.09365888 0.08730793 0.0049303514
0000b0 4e 34 a5 bd 56 9a b8 3d 6d 33 0c bd 79 56 2d bc
       -0.08066617 0.09013812 -0.03422873 -0.010579699
0000c0 e8 0d 4f 3d f6 79 06 bc 6d b1 ad 3c 33 6c 43 bd
       0.05055037 -0.008207789 0.021202767 -0.04771061
0000d0 9f 58 24 be ad 25 a2 bd 5e 34 44 bd 4d 61 77 3d
       -0.16049431 -0.07917342 -0.047901504 0.060395528
0000e0 43 b1 b8 bc 58 56 1c 3d 12 4b 4f bd c0 64 8f 3d
       -0.022545462 0.03816828 -0.050608702 0.070016384
0000f0 6b cf 35 bd 07 1f 9f bd 17 24 98 3d b4 30 98 3d
       -0.044387262 -0.0776959 0.074287586 0.074311644
000100 9d 64 34 b9 9d 6e b5 3d 7a 22 12 3e 7a 13 a2 3c
       -0.00017203619 0.088589884 0.14270964 0.019784678
000110 94 e9 35 3d a1 44 c0 bd 90 cc d2 3d 1b c0 81 bd
       0.04441221 -0.0938809 0.102929235 -0.06335469
000120 be b3 90 bd ab d9 b0 3d dc 69 25 bd ba 26 bb bd
       -0.07065533 0.08635267 -0.04038416 -0.09138246
000130 74 95 c5 bd 1e be 1e 3d 3e 83 c7 3b 2c fa fb bd
       -0.096476465 0.03875553 0.0060886433 -0.12303576
000140 eb d3 8a bd e3 76 20 be f5 79 d4 3d b8 dd a1 bd
       -0.067787014 -0.15670352 0.10374824 -0.079036176
000150 40 c5 79 3d 9e df a2 3d b3 28 93 bd 05 40 8f bd
       0.060979128 0.07952808 -0.07185497 -0.06994633
000160 c7 65 85 3d 0f a1 80 3d 2f c1 99 3d 75 b1 88 bd
       0.06513553 0.062807195 0.0750755 -0.06674472
000170 33 de 5f 3d 54 b6 fa bd 34 f9 85 3d 49 33 2b 3e
       0.054655265 -0.122418076 0.06541672 0.16718782
000180 14 f4 06 be 03 f5 23 3d 64 da 0c 3c f4 ef 41 3d
       -0.13179046 0.040028583 0.00859699 0.047347978
000190 87 74 02 be 19 d2 79 bd 96 bd fd bd 1d 9e 0c be
       -0.12739764 -0.06099138 -0.12389676 -0.1373219
0001a0 b3 0a e7 3c 56 db 8c ba 01 d2 fd bc 1e 83 5f bd
       0.028203344 -0.001074652 -0.030983927 -0.054568402
0001b0 1c 06 03 be fb 73 38 3d 37 b8 c6 bd 70 aa 8f 3d
       -0.127953 0.045032483 -0.09703105 0.0701493
0001c0 5f 43 f1 3d d3 93 72 3d 0d 2b 55 3d ba f5 af bd
       0.11780428 0.059223007 0.05204301 -0.085917905
0001d0 90 10 5e 3c e8 43 3f 3d 88 8e 97 bd 30 5e f5 3d
       0.0135537535 0.04669562 -0.074002326 0.119808555
0001e0 a4 d1 d1 bd 9c bc ba bd 8d 3a 94 bd ca 49 d0 bc
       -0.10245064 -0.09118006 -0.0723773 -0.02542581
0001f0 eb 0f 2b be 52 64 d4 3d 0d 18 0d bd 62 bd 16 bd
       -0.16705291 0.10370697 -0.034446765 -0.036801703
000200 8f 53 0a be 62 3f b9 ba 3a 8a 02 3d 84 f3 99 3d
       -0.13508438 -0.001413327 0.031870104 0.0751715
000210 d9 66 a0 3d f7 3c 3d bd 23 cc c9 bd d5 3d 0f be
       0.07832117 -0.04620072 -0.09853389 -0.13988431
000220 aa 09 2a 3c 5f ef 3b bd 88 c9 e9 3b 46 90 52 bd
       0.010378281 -0.04588258 0.00713462 -0.05140712
000230 67 2f ae bd 58 ac 31 be 65 61 08 be 1e cf 6b 3d
       -0.08505135 -0.173509 -0.13318403 0.05757057
000240 15 2a f7 3d 72 01 91 3d 9e 0d 33 be 0f a5 84 3d
       0.120685734 0.07080354 -0.17485663 0.06476795
000250 13 e5 80 3d 4c ea cd bd 6a 06 2d bd 93 69 d9 3c
       0.062936924 -0.10054454 -0.042242445 0.0265396
000260 ab 51 ed 3d 71 cd cd bc 20 94 2c 3d 09 7d 94 3d
       0.115878426 -0.025122376 0.04213345 0.07250411
000270 86 72 89 bc 94 48 55 be a8 4c 36 3d 8e b6 2b bc
       -0.016778242 -0.20828468 0.0445067 -0.010480536
000280 2e f8 48 bd 96 f7 26 3d b8 60 d2 3c 17 42 40 bc
       -0.049064808 0.04076346 0.025680885 -0.011734507
000290 2e d8 fa bc 70 6b 8c bd 0a d1 b5 3d 70 59 a8 bd
       -0.03062066 -0.068564296 0.08877762 -0.08220184
0002a0 a0 a2 c9 bd e0 d7 b0 3c 83 85 89 3d b7 9f 22 3c
       -0.098454714 0.021587312 0.067149185 0.009925774
0002b0 da c1 94 3d bf 59 9a bd ba 29 fd bb ea c0 cf bb
       0.07263537 -0.07536649 -0.0077259215 -0.006340136
0002c0 61 b5 b3 3b df bb 0f 3c ab f5 32 bd 66 ab 92 3d
       0.0054842685 0.008772819 -0.04369132 0.07161598
0002d0 8f c6 38 3d 99 c4 b4 3b ae 7d 9b 3d a4 ba 53 3c
       0.045111235 0.0055166003 0.07592331 0.012922917
0002e0 de d5 c3 3d 03 c0 4f be 14 13 cf bd db c8 d5 bc
       0.09562276 -0.2028809 -0.10111061 -0.026096752
0002f0 a4 42 ec 3d 76 ad 3f bd ec a8 d0 3d c3 1c a3 3d
       0.11536148 -0.046796285 0.10188469 0.0796447
000300 8c 90 1f 3d e5 d1 ab 3d a0 f6 df bc 23 17 d6 3c
       0.03895621 0.083896436 -0.02733928 0.02613408
000310 24 9c de bd a7 b4 21 bd 34 b4 2e bd bd 43 81 bd
       -0.10869625 -0.039478924 -0.042652324 -0.06311748
000320 5a 5c e6 3d fe 6b 22 be c9 6c b2 bd 5d 38 85 3d
       0.112480834 -0.15861508 -0.08712155 0.06504891
000330 81 19 7c bd 87 52 44 bc 26 3a e4 bd 42 8b 99 bd
       -0.06154776 -0.011982567 -0.111439034 -0.074972644
000340 9a ea ed 3d f3 12 7f 3d d1 09 be 3d 59 4b 0e bd
       0.11617012 0.06227393 0.09279216 -0.034739826
000350 18 d8 12 3d f6 1f 13 be 37 37 a8 bc 6d 9b c5 3b
       0.035850614 -0.14367661 -0.020534141 0.006030491
000360 10 85 a2 3c e8 ac c9 bd 59 b3 b5 3d 92 98 ce bd
       0.01983884 -0.098474324 0.088720985 -0.10087694
000370 2c 42 7d 3d e3 40 9c 3d 3b 8f 9c 3d 55 bf 38 3d
       0.061830685 0.07629564 0.076445065 0.045104343
000380 8f 0c 0b 3e 97 d5 f4 bd 39 f3 bf 3d 48 e5 d7 3c
       0.1357901 -0.119548015 0.09372563 0.026354447
000390 42 04 01 be 5c a7 95 3d cf 98 91 bb 9f 6a 8d 3d
       -0.1259928 0.07307312 -0.004443265 0.06905102
0003a0 e8 2b 06 3b be 81 a6 3d bf 45 89 3d a1 77 d8 3c
       0.0020472948 0.08130215 0.06702756 0.026424231
0003b0 57 b3 ec bd c2 ae 09 bc cb 96 51 bb 86 5f 30 bd
       -0.11557644 -0.008403482 -0.0031980749 -0.04305985
0003c0 32 10 45 3d 2f e0 09 be 30 2b 14 bd 49 7e d7 3d
       0.04811115 -0.13464426 -0.036174 0.10522134
0003d0 a0 fe 09 3d cb 67 5c 3d f2 51 a3 bd 12 d0 5f 3d
       0.033690095 0.053809922 -0.07974614 0.05464179
0003e0 95 9c cf 3d fb b9 02 3d 69 70 9e 3d 21 2b 20 3d
       0.101372875 0.031915646 0.07736284 0.03910363
0003f0 f6 d0 2c 3c a1 82 aa 3d cf 48 0a be f3 1e 45 bc
       0.010547867 0.08325697 -0.13504337 -0.012031305

model.12.bias f4 [10]
000000 85 63 8b bd 66 04 41 bc e4 57 f0 bc 82 4f 82 3d
       -0.06806091 -0.011780834 -0.029338785 0.06362821
000010 53 94 57 3c 40 91 4b bd a0 6c 20 bc 30 5d 9d 3c
       0.013157922 -0.049699068 -0.009791523 0.019209474
000020 ec ac 9e 3d 06 bb a4 bd
       0.07747826 -0.080434844
