modelos/pytorch/conv-pytorch-mnist.pt (torch, 456836 bytes, 8 tensors)

conv1.weight f4 [32, 1, 3, 3]
0	0xbe667ac2	-0.22507766
1	0x3e045b36	0.12925419
2	0x3d6356f9	0.055502865
3	0x3e6642ea	0.22486463
4	0x3ee52df7	0.4476163
5	0x3e462a3b	0.19352047
6	0xbee0ef72	-0.43932682
7	0xbe284390	-0.16432023
8	0xbe19caae	-0.15018722
9	0x3e268006	0.16259775
10	0xbeb7c34e	-0.35891193
11	0x3e7384b3	0.2378109
12	0xbda0f834	-0.07859841
13	0xbec06c43	-0.37582597
14	0x3e807e4d	0.2509636
15	0x3eb03f49	0.34423283
16	0x3ed37a9a	0.41304475
17	0x3dcc9329	0.09989006
18	0xbec70dee	-0.38877815
19	0xbe775b0e	-0.24155828
20	0xbeec185c	-0.46112335
21	0x3e81de5c	0.2536496
22	0x3e89f257	0.26942703
23	0x3e4bda15	0.1990741
24	0x3e36450d	0.17799778
25	0xbd9768c4	-0.07393029
26	0x3e7a1d81	0.24425317
27	0x3ebca3a4	0.36843598
28	0x3dabff9b	0.08398362
29	0xbe315511	-0.17317607
30	0x3e1379cc	0.1440193
31	0x3eaaadc5	0.333357
32	0x3dcbe755	0.099562325
33	0x3e628a28	0.22123015
34	0xbbaaa394	-0.0052074883
35	0x3f0ca3d7	0.549375
36	0xbec7a31d	-0.38991633
37	0xbf00e456	-0.50348413
38	0xbd99fd6e	-0.07519041
39	0x3d9bb5ea	0.07603057
40	0x3e830b19	0.25594404
41	0x3e6e90a7	0.23297368
42	0x3f1669f6	0.58755434
43	0xbd3d5df9	-0.046232197
44	0x3eb57078	0.3543737
45	0xbd48ac11	-0.04899222
46	0xbe90d19b	-0.28284916
47	0xbf008a82	-0.50211346
48	0x3ec17e57	0.37791702
49	0xbd201943	-0.03908659
50	0x3e0fb954	0.14035541
51	0x3edb30ae	0.42810577
52	0x3ebf7ba8	0.3739903
53	0xbe6e7ecf	-0.23290561
54	0x3bae6fa8	0.005323369
55	0x3e8b91bd	0.27259627
56	0x3ec84796	0.39117116
57	0xbd6284e1	-0.055302504
58	0xbeac0e98	-0.33604884
59	0x3e1eb017	0.1549686
60	0xbece42a0	-0.40285206
61	0x3df58695	0.1198856
62	0x3e12ed65	0.14348371
63	0xbe1f56e6	-0.15560493
64	0xbc96ad39	-0.018393146
65	0x3cc422c5	0.02394236
66	0xbeffad71	-0.49937013
67	0x3e98f092	0.2987104
68	0x3ec4ac4d	0.38412705
69	0x3ccacc34	0.024755575
70	0x3e947f15	0.29003206
71	0xbeafadda	-0.34312326
72	0x3e6eec32	0.23332289
73	0x3e6f6d7b	0.23381607
74	0x3e96ea2a	0.29475528
75	0x3e9def3f	0.30846593
76	0xbb8b138d	-0.004244274
77	0x3dfad5cd	0.122478105
78	0xbec5046d	-0.3847994
79	0xbedb4d0b	-0.42832217
80	0xbe69f87b	-0.22848694
81	0xbe3d437f	-0.18482779
82	0xbd7808c9	-0.060555253
83	0xbe929e1f	-0.28636262
84	0x3da1e4e7	0.07904988
85	0x3d0917c2	0.033469923
86	0xbe43c8f8	-0.19119632
87	0xbeb2d904	-0.34931195
88	0xbeb4978a	-0.35271865
89	0xbe88461e	-0.26615995
90	0xbea1a43a	-0.31570607
91	0xbe784b4c	-0.24247473
92	0x3d3fc4e1	0.046818618
93	0xbe0d3d49	-0.1379291
94	0xbe067bdf	-0.1313319
95	0xbe346415	-0.17616303
96	0xbeb000fa	-0.34375745
97	0xbd21d761	-0.039512042
98	0xbec763a7	-0.38943216
99	0xbeacc1e6	-0.33741683
100	0xbd2e202e	-0.042511158
101	0xbe9bc5ac	-0.3042425
102	0xbe98a717	-0.2981498
103	0xbe8cf7b2	-0.27532727
104	0xbeb55727	-0.35418054
105	0xbde92721	-0.11384416
106	0xbde9badc	-0.11412594
107	0xbd2a1c35	-0.041530807
108	0xbdcca5a0	-0.09992528
109	0x3ed91ac8	0.42403245
110	0x3ec83f7f	0.39110944
111	0x3e919d0e	0.28440136
112	0x3cc0988b	0.023510238
113	0xbe8bcd85	-0.27305236
114	0x3f0a348b	0.53986424
115	0x3e52e922	0.20596746
116	0xbece3aa6	-0.4027912
117	0x3e7e1235	0.24811633
118	0xbf03495d	-0.5128382
119	0xbe10ee65	-0.1415344
120	0x3e966a3f	0.29377934
121	0x3dd17bd5	0.10228697
122	0x3e60b636	0.21944508
123	0xbe45e239	-0.19324578
124	0x3e320430	0.1738441
125	0x3eba1c6c	0.3634981
126	0x3ed22903	0.41046914
127	0xbe771315	-0.24128373
128	0x3b03f84f	0.0020137017
129	0x3e27b9ce	0.16379473
130	0xbebf094b	-0.37311777
131	0xbe050fa4	-0.12994248
132	0x3eb52bb2	0.353849
133	0xbe45ca21	-0.19315387
134	0xbe0a0b8a	-0.13480964
135	0x3e35c149	0.17749514
136	0x3de240de	0.11047529
137	0xbeb3568e	-0.35026973
138	0xbe88f557	-0.2674968
139	0xbe9fab93	-0.31185588
140	0xbe3bccdd	-0.18339868
141	0x3b457b89	0.0030133447
142	0xbccbc0c8	-0.024872199
143	0xbea2823e	-0.31739992
144	0x3d0bb525	0.0341083
145	0xbf07468e	-0.5284203
146	0xbf15547b	-0.5833203
147	0x3da2e4b9	0.07953782
148	0x3ec196ab	0.37810263
149	0x3e759fb7	0.23986708
150	0x3e41eda8	0.18938315
151	0x3dfbfd60	0.12304187
152	0x3ebdad9e	0.37046522
153	0x3cf2691e	0.02959114
154	0x3d3f663c	0.046728358
155	0xbf0cb445	-0.5496257
156	0x3af30f92	0.0018544069
157	0x3eee54e2	0.46549135
158	0x3d068919	0.03284559
159	0xbe2e11e6	-0.16999015
160	0x3ead673c	0.33867824
161	0x3e61246c	0.2198655
162	0x3da3c141	0.07995845
163	0xbd2580be	-0.04040598
164	0xbe0b4d30	-0.13603663
165	0xbe39faec	-0.18162125
166	0xbeae6c34	-0.34066927
167	0xbd9e37c2	-0.07725479
168	0xbec21832	-0.37909085
169	0x3e298be2	0.16557267
170	0xbeaa8d7f	-0.33311078
171	0xbe425856	-0.1897901
172	0x3e43d2ee	0.19123432
173	0x3ece8128	0.40332913
174	0xbedac526	-0.42728537
175	0x3d8d345b	0.06894752
176	0x3ea500f7	0.322273
177	0x3e33ea13	0.17569761
178	0x3cc4b601	0.024012567
179	0x3eded90d	0.43524972
180	0x3f02ef3d	0.511463
181	0x3efe3970	0.49653196
182	0x3e2345f5	0.15944655
183	0x3eaa4f73	0.3326374
184	0xbe5f2042	-0.21789649
185	0xbecb06c7	-0.39653608
186	0xbdc7667e	-0.09736346
187	0xbe22de22	-0.1590505
188	0xbef34f54	-0.4752146
189	0xbe3a4594	-0.18190604
190	0xbe9d13b0	-0.30679083
191	0xbe425d79	-0.1898097
192	0x3e7fd956	0.24985251
193	0xbe3f2200	-0.18665314
194	0xbe86a443	-0.26297197
195	0xbdc6101c	-0.09671041
196	0x3e834944	0.25641835
197	0xbe9c9517	-0.30582497
198	0xbc1d5c64	-0.009604547
199	0x3e397dfc	0.18114465
200	0xbe1e8fd9	-0.15484561
201	0xbe1aba2d	-0.15110083
202	0x3dbbc61e	0.09168647
203	0x3e91a39a	0.2844513
204	0xbe8ee98a	-0.2791255
205	0xbe9f026e	-0.3105654
206	0xbedbbbf0	-0.42916822
207	0xbe512161	-0.2042289
208	0xbc00278c	-0.007821929
209	0x3eebfd15	0.46091524
210	0x3ec3fe6e	0.38280052
211	0x3f061f08	0.523911
212	0xbe0b70f5	-0.13617308
213	0x3e78a918	0.24283254
214	0xbec9c8a2	-0.39410883
215	0xbe8ae037	-0.27124187
216	0x3e969b96	0.29415578
217	0x3ed412d7	0.41420624
218	0x3e8f29fd	0.27961722
219	0xbdbbec35	-0.09175912
220	0xbe07cf7b	-0.13262741
221	0xbe97a23e	-0.29615968
222	0xbe873ae2	-0.26412112
223	0x3e405456	0.18782172
224	0x3e886d8a	0.26646072
225	0x3eb715f6	0.35758942
226	0x3e828187	0.25489447
227	0xbf1b4599	-0.6065307
228	0x3e1531eb	0.14569823
229	0xbc36f5de	-0.011167018
230	0xbdbb7302	-0.091527954
231	0x3d9f1ea0	0.07769513
232	0x3e9317ce	0.287291
233	0xbd8cf08e	-0.0688182
234	0x3dc48ca4	0.095971376
235	0xbe359d8f	-0.17735885
236	0x3e2fef5c	0.17181152
237	0x3cb78437	0.022401912
238	0x3e246e21	0.16057636
239	0x3ee0d55f	0.4391279
240	0xbe4c6f15	-0.1996425
241	0xbee12dd7	-0.43980286
242	0x3e90cd55	0.28281656
243	0x3eda9397	0.42690727
244	0x3ee85646	0.4537832
245	0x3f006e6d	0.50168496
246	0xbebd30bc	-0.36951244
247	0xbea1561c	-0.3151101
248	0xbdef0ed2	-0.116727486
249	0xbedae4d1	-0.42752698
250	0xbec6d159	-0.38831595
251	0xbe90766f	-0.28215358
252	0xbdc36e3a	-0.095425084
253	0x3ecc568d	0.39909783
254	0xbddc7452	-0.10764374
255	0x3cf67d1a	0.03008895

conv1.bias f4 [32]
0	0x3bda8790	0.0066689923
1	0x3ea7f9cf	0.32807776
2	0xbe139c49	-0.14415087
3	0x3e1f7ebc	0.15575689
4	0xbe1f2b52	-0.15543869
5	0x3e2eaeeb	0.17058913
6	0x3d1017fd	0.035179127
7	0xbd4459fe	-0.047937386
8	0xbd1d67f9	-0.038429234
9	0xbddae059	-0.10687322
10	0xbe65efb4	-0.2245472
11	0xbe4206e1	-0.18947937
12	0xbe37e902	-0.17959979
13	0x3d8cf0d2	0.0688187
14	0xbe34e59c	-0.17665714
15	0xbe8edb0e	-0.279015
16	0x3d7417df	0.059593078
17	0x3ea46450	0.32107782
18	0xbe25026d	-0.16114207
19	0x3e5e0e9e	0.21685264
20	0x3e283101	0.16424944
21	0x3d237475	0.039905984
22	0xbe6d5c7d	-0.23179813
23	0x3db5b508	0.088724196
24	0x3e7a1af7	0.24424349
25	0xbc8f0501	-0.01745844
26	0x3e77622a	0.2415854
27	0xbe138e89	-0.14409842
28	0x3cc7efb5	0.024406293
29	0xbe9c881e	-0.305726
30	0xbd0f1137	-0.034928527
31	0x3e8c2c8e	0.27377743

conv2.weight f4 [32, 32, 3, 3]
0	0x3d4927c0	0.049110174
1	0x3db9b4af	0.09067666
2	0xbda42059	-0.08013982
3	0x3d0b4a87	0.03400662
4	0xbdbc38fe	-0.09190558
5	0xbe303af7	-0.17209993
6	0x3dc810ab	0.09768804
7	0x3ba0e422	0.004910008
8	0x3ceab505	0.02865077
9	0x3d45a7fa	0.048255898
10	0xbc8db3f5	-0.017297724
11	0xbdd85a3c	-0.10564086
12	0x3d29baf8	0.041438073
13	0xbcc68717	-0.024234338
14	0xbdfc9879	-0.12333769
15	0x3d29eeef	0.04148763
16	0x3de0f24d	0.10983715
17	0x3c6d4564	0.014481876
18	0x3d50f0f2	0.051011033
19	0x3c32de8b	0.010917316
20	0x3ce7f546	0.028315198
21	0xbe149b13	-0.14512281
22	0xbd7e809b	-0.062134366
23	0x3cee4be9	0.029088931
24	0xbe2be34b	-0.16785924
25	0xbddcf6f5	-0.10789291
26	0x3d838f50	0.06423819
27	0xbd6b65be	-0.057470076
28	0xbb9b4358	-0.0047382526
29	0xbd894160	-0.067019224
30	0x3c57b862	0.013166519
31	0x3ceec884	0.029148348
32	0xbe3af580	-0.18257713
33	0x3d24e5df	0.040258285
34	0x3e081db4	0.13292581
35	0xbd28deda	-0.041228153
36	0x3cff1c3e	0.031141397
37	0xbc901539	-0.017588245
38	0xbd142e65	-0.036177058
39	0xbdacc70e	-0.08436404
40	0xbde276be	-0.110578045
41	0xbe184b43	-0.1487246
42	0xbe0266c6	-0.12734517
43	0xbd570f75	-0.052504975
44	0xbbfa6b51	-0.0076421876
45	0xbd20eb13	-0.039286684
46	0x3db0894c	0.08619937
47	0x3d101b8b	0.035182517
48	0x3d067a3f	0.032831427
49	0x3de842d6	0.11340873
50	0xbce2c734	-0.027682878
51	0x3d561238	0.05226347
52	0x3e31fa5b	0.1738066
53	0x3d836e10	0.06417477
54	0x3de4df91	0.111754544
55	0xbda37f92	-0.079833165
56	0xbc7afb9f	-0.01531878
57	0x3de8106d	0.11331258
58	0xbde8423f	-0.113407604
59	0xbd65856e	-0.05603545
60	0x3dfaaf90	0.12240517
61	0xbde651cb	-0.112460695
62	0xbcfd4674	-0.030917384
63	0x3dc045e6	0.09388332
64	0x3da5c715	0.080946125
65	0x3bd7db1a	0.0065873982
66	0x3e2fb58d	0.171591
67	0x3d3568b3	0.044289302
68	0xbdbca747	-0.09211593
69	0x3d21f359	0.039538715
70	0x3d2ca5dd	0.042150367
71	0x3d350f45	0.044204015
72	0xbe4e6a72	-0.20157793
73	0x3d704134	0.058655933
74	0x3dc3567c	0.0953798
75	0xbe836a21	-0.25666907
76	0xbd3e3ffc	-0.04644774
77	0xbd5189d3	-0.05115683
78	0xbe6d6918	-0.23184621
79	0xbe0e7df8	-0.13915241
80	0xbda5c559	-0.08094282
81	0x3bdb15eb	0.0066859624
82	0x3ca61413	0.020273244
83	0x3d6a2f70	0.057174146
84	0xbde9aa48	-0.11409432
85	0x3cb13249	0.021630423
86	0x3cbfad5a	0.02339809
87	0xbe230dea	-0.15923277
88	0xbd6c6dde	-0.057721965
89	0x3bdd221d	0.0067484514
90	0xbd01d446	-0.03169658
91	0xbbe25178	-0.0069066845
92	0x3d61e4ff	0.05515003
93	0xbda6c7d1	-0.08143581
94	0xbd4a0acb	-0.0493267
95	0x3db4c725	0.08827046
96	0xbe0baf25	-0.13641031
97	0xbd7c8af5	-0.061655957
98	0x3b396061	0.0028286206
99	0x3cf78257	0.030213518
100	0xbd1ac0c8	-0.037781507
101	0x3cb5b013	0.022178685
102	0xbe10711f	-0.14105652
103	0xbc66bc7e	-0.014083026
104	0xbc88e63e	-0.01671135
105	0xbded4982	-0.11586286
106	0xbde230f9	-0.11044497
107	0x3d2e385e	0.042534225
108	0x3dbb8784	0.09156707
109	0x3df7f02f	0.12106358
110	0xbd96a670	-0.07355964
111	0x3e2c1bd3	0.16807489
112	0x3d8b9a79	0.06816573
113	0xbe04acce	-0.12956545
114	0x3d69eb3d	0.057109106
115	0x3cbe77c0	0.02325046
116	0xbe090366	-0.13380203
117	0x3dd9dd01	0.10637856
118	0xbd6e2914	-0.058144644
119	0xbda70998	-0.08156127
120	0x3d233b9b	0.039851766
121	0xbd302016	-0.04299935
122	0xbd1e609b	-0.03866635
123	0x3d8c144b	0.06839808
124	0x3d820bca	0.06349905
125	0xbaa76759	-0.0012771889
126	0xbdfc55db	-0.12321063
127	0x3e3f020e	0.18653128
128	0x3d652635	0.05594464
129	0x3d2c0db6	0.042005263
130	0x3e1ab85f	0.15109394
131	0x3e0aea90	0.13566041
132	0xbc9f316e	-0.01943275
133	0x3e39c3e2	0.1814113
134	0x3daa640b	0.08319863
135	0xbcfac681	-0.030612232
136	0xbc952777	-0.018207295
137	0x3d51b8ef	0.051201757
138	0xbd9d1d19	-0.076715656
139	0x3d1dab41	0.0384934
140	0x3d7747ae	0.060371093
141	0xbe31d00d	-0.17364521
142	0x3bf4ab23	0.00746669
143	0x3cb21a23	0.021740979
144	0xbce1ced7	-0.02756445
145	0xbd29a82a	-0.04142014
146	0xbdf321c8	-0.11871678
147	0xbe0390c2	-0.1284819
148	0xbdc04aa2	-0.09389235
149	0xbe00d48f	-0.12581085
150	0xbd5cdc79	-0.053921197
151	0x3ded8459	0.11597509
152	0x3dbef13b	0.09323355
153	0x3ca9997b	0.020703068
154	0x3c671aac	0.01410548
155	0xbd8fb723	-0.070173524
156	0x3dd6aff9	0.10482783
157	0x3d11b9b1	0.03557748
158	0xbe03d48d	-0.1287405
159	0x3e0de31e	0.1385617
160	0x3e25c9be	0.1619024
161	0x3d96b92f	0.0735954
162	0xbba9321a	-0.0051634433
163	0xbda9e867	-0.0829628
164	0x3d8716c3	0.06596138
165	0xbe0549ad	-0.13016386
166	0x3c746a16	0.014917871
167	0x3d89a152	0.067202225
168	0xbdffab84	-0.12483886
169	0xbd8eb754	-0.06968561
170	0xbd3b24c5	-0.045689363
171	0x3e0b405d	0.13598771
172	0x3c8a78c2	0.016903285
173	0xbdeb0965	-0.11476401
174	0x3e47799e	0.19479987
175	0x3c0786ce	0.008271886
176	0xbdf06533	-0.11738052
177	0x3e00b963	0.1257072
178	0x3d215358	0.039386123
179	0xbcb62c02	-0.022237781
180	0xbded4e34	-0.11587182
181	0x3e11e134	0.14246064
182	0x3d7459b6	0.059655868
183	0x3d1e4a46	0.03864505
184	0x3e04a083	0.12951855
185	0x39b1a6b1	0.00033884266
186	0xbd04c235	-0.032411773
187	0x3d93f9ff	0.07225417
188	0xbe17e5a6	-0.14833698
189	0xbd242df9	-0.040082905
190	0xbcec041e	-0.028810557
191	0xbcce913a	-0.025215734
192	0xbdfc994e	-0.12333928
193	0x3aee8bae	0.0018199587
194	0xbb9946c9	-0.0046776277
195	0xbd3e75e5	-0.04649915
196	0x3d265b87	0.04061463
197	0x3d163b5d	0.036677707
198	0xbcae754f	-0.021296171
199	0xbd400aad	-0.04688518
200	0x3d2625ac	0.04056327
201	0xbe425b4c	-0.1898014
202	0xbe0814a0	-0.13289118
203	0x3d18c6f2	0.037299104
204	0xbe16aecf	-0.14715122
205	0xbdd546de	-0.104139075
206	0xbbe6a421	-0.0070386087
207	0x3d3d77c1	0.046256784
208	0x3e05acc2	0.13054183
209	0x3cbbe1c1	0.022934796
210	0x3d73a3c8	0.059482366
211	0x3db59f5b	0.08868285
212	0xbe0c7ac7	-0.13718711
213	0xbd9d0db1	-0.07668627
214	0xbd1e4f5c	-0.0386499
215	0xbdf27fa7	-0.11840754
216	0xbcc3dadf	-0.023908077
217	0x3c83898c	0.016056798
218	0xbd9eab26	-0.07747488
219	0x3d3b915b	0.04579292
220	0xbc7b1c0d	-0.015326512
221	0xbe0f533e	-0.13996598
222	0x3dd4d9c4	0.10393098
223	0x3d531513	0.05153377
224	0xbde5101d	-0.11184714
225	0x3aed4337	0.0018101697
226	0x3e06389c	0.13107532
227	0xbc28fa36	-0.010313561
228	0x3d90c4dd	0.07068799
229	0x3e877638	0.2645738
230	0x3ce6ae86	0.028159391
231	0x3e1ecfab	0.15508907
232	0x3e673f63	0.22582774
233	0x3c9377f4	0.018001534
234	0x3dd51036	0.104034826
235	0xbcf30bc1	-0.02966869
236	0xbd18545b	-0.037189823
237	0x3dac755b	0.08420821
238	0xbe0a24bf	-0.1349058
239	0x3c2aa3e7	0.010415054
240	0x3db242af	0.08704125
241	0xbc265d46	-0.010154074
242	0x3b3e988a	0.002908262
243	0xbe0b1389	-0.13581671
244	0xbdb3e46e	-0.08783804
245	0x3c2357a5	0.009969627
246	0xbe28f7e8	-0.16500819
247	0xbdff0487	-0.124520354
248	0x3c7c857e	0.015412686
249	0xbe1f1f2d	-0.15539236
250	0xbdb5fee1	-0.08886505
251	0xbd944b2e	-0.07240902
252	0xbdd0d30e	-0.101965055
253	0xbb201079	-0.002442388
254	0xbac16b2b	-0.001475667
255	0xbdc15df1	-0.09441746

conv2.bias f4 [32]
0	0xbd012cee	-0.03153699
1	0xbd33b274	-0.043871358
2	0xbc8db7aa	-0.017299492
3	0x3cf8e1fb	0.030381193
4	0xbcd124af	-0.025530187
5	0xbcd85901	-0.026409628
6	0x3c893b2c	0.016751848
7	0xbd57d3f5	-0.052692372
8	0xbd047d7e	-0.03234624
9	0x3d85b55b	0.065287314
10	0xbd656d61	-0.056012515
11	0x3d3001f1	0.0429706
12	0x3c1646a6	0.009172117
13	0x3d3fe5ab	0.046849888
14	0x3d46140d	0.048358966
15	0x3d1418ca	0.036156453
16	0xbd04c8fd	-0.03241824
17	0x3cb188da	0.021671701
18	0xb9c8dce4	-0.0003831155
19	0x3cc2ba7e	0.023770567
20	0xbca030dc	-0.019554548
21	0x3cee2d89	0.029074447
22	0xbd3b61d9	-0.04574761
23	0x3cb7d83f	0.022441981
24	0x3d192592	0.037389345
25	0xbce2d413	-0.027689015
26	0xbd6710fc	-0.056412682
27	0x3c60964e	0.01370771
28	0x3d5d9392	0.054095812
29	0xbd841355	-0.06449
30	0x3c5471bc	0.0129665695
31	0xbc9972e2	-0.018731538

fc1.weight f4 [128, 800]
0	0xbc88e86c	-0.01671239
1	0x3c8a5df9	0.016890513
2	0xbcd8a5be	-0.02644622
3	0xbc6bb3f4	-0.014386166
4	0xbd0dcea6	-0.034620903
5	0x3bcc2048	0.006229434
6	0xbcf7e72b	-0.030261597
7	0x3cc03856	0.023464363
8	0xbd0f951e	-0.03505432
9	0xbcacc6e7	-0.021090938
10	0xbd063ede	-0.0327748
11	0xbccd6550	-0.025072724
12	0x3cae64bf	0.021288274
13	0xbc309de5	-0.0107798325
14	0x3ce91f92	0.028457437
15	0xbb844dae	-0.0040375805
16	0x3cbe8dbe	0.023260947
17	0xbcb299c1	-0.021801831
18	0xbcc23f68	-0.023711875
19	0xbc891696	-0.016734403
20	0xbc5c4375	-0.013443817
21	0xbcdb40c6	-0.026764285
22	0xbd132abc	-0.035929427
23	0xbc099bd0	-0.008398965
24	0x3c8ad991	0.016949447
25	0x3cfeea31	0.03111753
26	0xbce3fc52	-0.027830277
27	0xbbd59387	-0.006517831
28	0xbc2ff7dc	-0.010740247
29	0x3c2f869c	0.010713246
30	0xbd07dd0f	-0.033169802
31	0x3c017deb	0.007903556
32	0xbb69bf47	-0.0035666989
33	0x3c84e662	0.016223136
34	0x3bdbdac3	0.006709428
35	0x3cb8a075	0.02253745
36	0xbc9f3253	-0.019433176
37	0x3d02a58e	0.031896167
38	0xbb1894c0	-0.0023282021
39	0x3c9e59f4	0.019330002
40	0x3c8c39fd	0.017117495
41	0xbcf45160	-0.029823959
42	0xbcf85ce9	-0.03031774
43	0xbd122062	-0.035675414
44	0xbcbab3f3	-0.022790885
45	0xbc7b5c80	-0.015341878
46	0xbcf0d709	-0.029399412
47	0x3c35bb4a	0.0110920165
48	0xbd200db1	-0.039075557
49	0x3b9f8df3	0.0048692166
50	0x3c1e001e	0.009643583
51	0xbc01b60a	-0.007916937
52	0xbd15057e	-0.03638219
53	0xbd0ca433	-0.03433628
54	0xbbb54720	-0.0055321604
55	0x3c239eff	0.009986638
56	0x3c748177	0.014923445
57	0x3cb2c417	0.021822019
58	0xbcc14171	-0.023590775
59	0xbd066826	-0.032814167
60	0xbcdd10e0	-0.026985586
61	0xbcf4c9bf	-0.029881356
62	0xbc380ef5	-0.011234035
63	0xbb02bd8d	-0.0019949407
64	0xbc24e47b	-0.01006424
65	0x3ce4b3a3	0.027917689
66	0x3bd89712	0.006609806
67	0x39bb7984	0.00035757956
68	0xb9dc2e03	-0.0004199595
69	0xbd21c0e6	-0.039490603
70	0x3cc945a7	0.024569346
71	0x3b945576	0.0045267893
72	0xbd11de12	-0.035612173
73	0xbc85100c	-0.016243003
74	0xbccd0109	-0.025024908
75	0x3c97e5ee	0.018542256
76	0xbcdbb247	-0.026818408
77	0x3c7f7efc	0.01559424
78	0x3c7998bf	0.015234171
79	0xbaca3f71	-0.0015430284
80	0x3c1c7d00	0.009551287
81	0xbcb33d4d	-0.021879816
82	0x3c403881	0.011732222
83	0x3c726046	0.014793461
84	0xbc4d78ce	-0.012541009
85	0xbc8c73a1	-0.01714498
86	0x3c6b4f37	0.014362148
87	0x3ce70092	0.028198514
88	0xbcccd6bb	-0.025004735
89	0xbcdad646	-0.026713502
90	0xbd2b1d8b	-0.04177622
91	0xbcf0b1f4	-0.02938173
92	0x3caa95e2	0.020823423
93	0x3cf108b3	0.029423093
94	0xbc8d2975	-0.017231682
95	0xbd1cacb8	-0.038250655
96	0xbce535b3	-0.027979707
97	0xbca9e8da	-0.020740915
98	0x3ce68c93	0.028143203
99	0x3c866482	0.016405348
100	0xbc8a309d	-0.016868884
101	0x3a51e196	0.0008006332
102	0xbca949d8	-0.020665094
103	0xbc44a50a	-0.012002239
104	0xbcce3606	-0.025172245
105	0xbd04ce6b	-0.032423418
106	0x3ceb1dbe	0.028700706
107	0xbd053045	-0.032516737
108	0xbc45ffe6	-0.012084937
109	0xbd1dad5a	-0.0384954
110	0x3cd49022	0.025947634
111	0x3d00de2f	0.03146189
112	0x3b017e75	0.0019759212
113	0xbd17af36	-0.03703233
114	0xbc4812be	-0.0122115
115	0x3c9368f2	0.017994378
116	0x3bc16506	0.0059019355
117	0x3bd3e19d	0.006466104
118	0x3c56c45f	0.013108342
119	0xbc79d859	-0.015249335
120	0xbd1723df	-0.036899444
121	0xbd090d61	-0.033460025
122	0xbce92ab5	-0.028462747
123	0xbd186546	-0.037205957
124	0x3c327d6a	0.010894159
125	0xbc9ef809	-0.019405382
126	0xbc9751b8	-0.018471584
127	0xbc0f35f1	-0.008740888
128	0x3c621921	0.0137999365
129	0x3c211bc3	0.009833279
130	0xbb73a70b	-0.0037178423
131	0x3c968457	0.018373651
132	0xbd1a5ee9	-0.03768817
133	0xbcb70ee5	-0.02234597
134	0xbba055e1	-0.00489305
135	0xbce8c210	-0.028412849
136	0x3c941ffb	0.018081656
137	0xbc8e8e7b	-0.017401924
138	0xbd0f0211	-0.03491408
139	0xbc1104a0	-0.0088512
140	0x3bacea9d	0.0052769915
141	0xbc9feb1f	-0.019521294
142	0xbb37ef03	-0.0028066046
143	0xbb9c4064	-0.004768418
144	0x3cafa8c9	0.021442788
145	0x3cb8f59a	0.02257805
146	0xbcf3cd97	-0.029761119
147	0xbc28d88e	-0.010305537
148	0x3c84d07d	0.016212696
149	0xbb5674b0	-0.003272336
150	0xbc7142d8	-0.014725409
151	0x3cccfff4	0.025024392
152	0xbc0c16b3	-0.008550334
153	0xbbb6f2cc	-0.005583143
154	0xbc5519b6	-0.013006618
155	0xbbe99f62	-0.0071295956
156	0xbc671977	-0.014105192
157	0xbd0158d4	-0.031578854
158	0x3b7a1dd4	0.0038164752
159	0xbcc2a29c	-0.023759179
160	0x3b890ab6	0.004182185
161	0x3bf0ebff	0.0073523517
162	0xbcd2b8b1	-0.025722833
163	0x3c152a28	0.009104289
164	0x3c73d403	0.0148820905
165	0xbc4fafa5	-0.012676154
166	0xbab118d3	-0.0013511427
167	0xba3417b2	-0.0006869986
168	0x3c931957	0.017956419
169	0x3a954c17	0.0011390474
170	0xbcf7633b	-0.030198684
171	0xbcfa7fa3	-0.03057844
172	0x3c86f89b	0.016475966
173	0xbcd884f9	-0.026430594
174	0x3c9c28b3	0.019062376
175	0xbd24762b	-0.040151756
176	0x3c4cbbbc	0.012495931
177	0x3bd40ae0	0.006471023
178	0x3b7ab86f	0.0038256904
179	0xbc852e1a	-0.016257335
180	0xbb3160ec	-0.0027065827
181	0x3bda8130	0.0066682324
182	0xbcdfc894	-0.027317323
183	0x3c961213	0.018319165
184	0xbc67fc29	-0.014159241
185	0xbc664f52	-0.014056997
186	0x3cbcd306	0.023049843
187	0xbd19f150	-0.03758365
188	0x3c610169	0.013733246
189	0x3c2ad681	0.010427118
190	0x3c2a9284	0.010410909
191	0xbcfee749	-0.031116145
192	0xbd114ee5	-0.03547563
193	0x3c5548b0	0.013017818
194	0x3c1a854c	0.0094311945
195	0xbcf7287d	-0.030170674
196	0xbc9982ec	-0.018739186
197	0x3ccee6af	0.025256483
198	0xbc2eb08c	-0.010662209
199	0x3ba9cb55	0.00518171
200	0xbc76903a	-0.015049035
201	0x3ca118b9	0.019665109
202	0x3cfd97fa	0.030956257
203	0x3bdb4a85	0.006692233
204	0xbcec604e	-0.028854515
205	0xbd068e30	-0.032850444
206	0xbca2df04	-0.019881733
207	0xbce4c81d	-0.027927453
208	0x3c29f7ba	0.010374004
209	0xbcd9ddff	-0.026595114
210	0x3cd2cd39	0.025732623
211	0xbc99dc6c	-0.018781863
212	0x3cce16e5	0.025157401
213	0x3ad3bed9	0.00161549
214	0xbc913de2	-0.017729703
215	0xbcf7873e	-0.030215856
216	0x3cd8a76b	0.026447019
217	0xbbebfaf3	-0.0072015463
218	0x3c263a41	0.010145725
219	0xbb0cf019	-0.0021505414
220	0xbb009426	-0.0019619553
221	0xbba517e0	-0.0050382465
222	0x3d0e5470	0.034748495
223	0x3bb402e4	0.0054935087
224	0xbba330dd	-0.00498019
225	0xba8ed104	-0.0010896032
226	0x3d00f23d	0.031481016
227	0xbc5e879e	-0.013582138
228	0xbb488060	-0.0030594096
229	0x3d0b0f96	0.03395041
230	0xbbdba1ba	-0.006702629
231	0xbcb736b1	-0.022364946
232	0xbc9d56a5	-0.019206354
233	0x3bc4f340	0.006010443
234	0xbc6122dc	-0.013741221
235	0xbbea8fc1	-0.00715825
236	0x39b1c0dd	0.00033903765
237	0x3c1e7016	0.009670278
238	0x3cd90a70	0.026494235
239	0xbbdcfdcd	-0.0067441226
240	0x3c8ff239	0.017571555
241	0xbc3423b2	-0.010994839
242	0xbc47871f	-0.0121782115
243	0xbd11cddf	-0.035596725
244	0xbc0b1b6b	-0.008490424
245	0x3b83f435	0.0040269145
246	0xbcb453fe	-0.022012707
247	0xbce2b00f	-0.027671842
248	0xbbd71ad0	-0.0065644756
249	0x3c8eacab	0.017416319
250	0x3c474679	0.012162798
251	0x3cf29a22	0.029614512
252	0xbcbd174a	-0.023082394
253	0x3c9dd1d2	0.01926509
254	0x3a98acbb	0.0011648157
255	0x3ca3d28f	0.019997863

fc1.bias f4 [128]
0	0xbccebdd7	-0.025237007
1	0x3b8dbfea	0.0043258565
2	0xbca71ad8	-0.020398542
3	0x3d0081ec	0.031373903
4	0xbc741c17	-0.014899275
5	0x3c4db937	0.012556366
6	0x3d0a2411	0.0337258
7	0x3cc92a14	0.024556197
8	0xbcbabe3f	-0.022795795
9	0xbc7500ac	-0.0149537735
10	0xbc529f23	-0.012855324
11	0xbc3da277	-0.011574379
12	0x3d00e699	0.031469915
13	0x3c4da020	0.012550384
14	0x3d03e4aa	0.032200493
15	0xbd09467e	-0.033514492
16	0xbd153b7b	-0.036433678
17	0x3c15cf7d	0.009143707
18	0xbb420d12	-0.0029609841
19	0xbceb0a45	-0.02869142
20	0xbb8bb8a9	-0.0042639566
21	0x3c595311	0.0132644335
22	0xbc205ce8	-0.009787776
23	0x3d539358	0.05165419
24	0x3c78bf6f	0.01518236
25	0xbd167403	-0.03673173
26	0x3ced7ca3	0.028990095
27	0x3bd51bd2	0.0065035606
28	0xbcf21771	-0.029552193
29	0xbc8d1ec7	-0.01722659
30	0xbcdd2c88	-0.026998773
31	0xbcfdd385	-0.03098465
32	0x3ce30769	0.027713494
33	0xbc75d981	-0.01500547
34	0xbbda6f21	-0.0066660796
35	0xbbdfa668	-0.006825257
36	0x3c1d6ca1	0.009608419
37	0xbcbd6ccc	-0.023123167
38	0xbcaa0d33	-0.020758247
39	0xbc4021f9	-0.01172685
40	0x3c4a527b	0.012348766
41	0x3d241afb	0.040064793
42	0x3c842f05	0.016135702
43	0xbcfb280e	-0.030658748
44	0xbd0ad91f	-0.03389847
45	0xbc95da68	-0.01829262
46	0x3d155f89	0.036468063
47	0xbc99cd1a	-0.018774558
48	0xbc048bd0	-0.0080899745
49	0x3d398f38	0.0453026
50	0xbb00f17f	-0.0019675193
51	0x3c78351f	0.015149384
52	0xbb807c09	-0.003921036
53	0x3c74de62	0.014945598
54	0xbc33df3d	-0.010978517
55	0xbd229e7f	-0.039701935
56	0x3d3209de	0.04346644
57	0x3d0995fa	0.033590294
58	0x3cccbbf4	0.024991967
59	0xbcd5b1d4	-0.026085772
60	0xbb1e3cc2	-0.0024145101
61	0x3c154086	0.009109622
62	0xbc340e0c	-0.010989677
63	0xbc4fb7c8	-0.012678094
64	0x3c9240e5	0.01785321
65	0xbc6cf4fc	-0.014462706
66	0xbc2d78d3	-0.010587889
67	0xbbb4883e	-0.0055094054
68	0xbced3d6b	-0.02895995
69	0x3d2aca93	0.041697096
70	0xbca6c4b0	-0.02035746
71	0x3d1ba0ab	0.03799502
72	0xbd073bea	-0.033016123
73	0xbc2b858f	-0.010468855
74	0x3bf4cb7c	0.0074705463
75	0x3c72ddff	0.014823436
76	0x3cd20666	0.025637817
77	0x3bb876f0	0.005629413
78	0xbcde24bd	-0.027117128
79	0x3c2d2385	0.010567551
80	0xbd193ea8	-0.03741327
81	0xbd0fe5b3	-0.035131168
82	0xbcb49196	-0.022042077
83	0x3d18358a	0.037160434
84	0x3d09f299	0.033678625
85	0xbcc05d8c	-0.023482107
86	0x3bd2da18	0.00643469
87	0xbbb1e27e	-0.0054286113
88	0x3c500534	0.012696553
89	0x3cb3ff33	0.021972274
90	0x3c5058a9	0.012716451
91	0x3ca4083d	0.02002346
92	0x3c948c19	0.01813321
93	0x3b7a37dd	0.003818027
94	0x3b12415b	0.0022316787
95	0xbc2a5810	-0.010396972
96	0xbccb29b2	-0.024800155
97	0x3d0b19c7	0.03396013
98	0xbc162f03	-0.009166482
99	0xbcb5288c	-0.02211406
100	0xba875919	-0.0010326236
101	0xbc719131	-0.014744089
102	0x3d2e1aa3	0.04250587
103	0xbd0f3f39	-0.034972403
104	0x3cf07976	0.029354792
105	0x3cba3a7c	0.022732966
106	0xbd1c31e9	-0.038133536
107	0x3c29adbc	0.010356363
108	0xbd22a551	-0.03970844
109	0x3b5e6811	0.003393654
110	0xbb8a06de	-0.0042122444
111	0xbbf0d363	-0.007349418
112	0xbb534081	-0.0032234492
113	0xbbfdd7b7	-0.0077466625
114	0x3d11ef5e	0.03562867
115	0x3cc769f4	0.024342515
116	0x3c0d075b	0.008607711
117	0x3d43fe14	0.04784973
118	0xbcb4295a	-0.021992374
119	0xbcc291e8	-0.023751214
120	0x3cca42dc	0.024690084
121	0x3cdc67a6	0.026904892
122	0x3d6fc9d1	0.058542076
123	0xbc3aaa51	-0.011393146
124	0xbb46fc9e	-0.0030362974
125	0x3c742bf5	0.014903058
126	0xbcc9b6bc	-0.024623267
127	0x3d2696cc	0.040671155

fc2.weight f4 [10, 128]
0	0xbcdc25e0	-0.026873529
1	0xbaa97e2a	-0.0012931277
2	0xbe045df6	-0.12926468
3	0x3cace21c	0.021103911
4	0xbd84fd65	-0.06493644
5	0x3d0d9637	0.034567084
6	0x3d8eef72	0.06979264
7	0xbda28697	-0.07935827
8	0xbe1fe9b2	-0.15616491
9	0xbd2b3c92	-0.04180581
10	0xbd98a910	-0.07454121
11	0xbb045562	-0.0020192494
12	0x3d8ba361	0.068182714
13	0x3d490a8f	0.049082335
14	0x3e07a748	0.13247406
15	0x3d10247e	0.03519105
16	0x3cdbaa73	0.026814675
17	0xbc999f6c	-0.018752776
18	0xbbfc59e8	-0.0077011473
19	0x3c902d47	0.017599715
20	0xbda0db38	-0.07854313
21	0xbdb1c452	-0.08680023
22	0x3d1eb2f5	0.038744885
23	0x3d88ce2e	0.06679951
24	0xbce450b7	-0.02787052
25	0x3d3a44fa	0.045475937
26	0xbc96d86a	-0.018413741
27	0x3d841d13	0.06450858
28	0x3d7b7329	0.061389122
29	0x3ce5da1d	0.028058106
30	0xbd8151f4	-0.063144594
31	0xbd78460b	-0.060613673
32	0xbddfd19f	-0.10928654
33	0xbe0bb3b5	-0.13642772
34	0xbd5f6c89	-0.054546867
35	0xbd6079c8	-0.05480364
36	0x3d95d85e	0.073166594
37	0x3da670a3	0.081269525
38	0xbdcf7917	-0.10130518
39	0xbd80f4ba	-0.06296678
40	0xbc95cc36	-0.018285852
41	0x3dff128d	0.1245471
42	0x3d58b109	0.05290321
43	0xbdae5e1d	-0.085140444
44	0xbddf6887	-0.10908609
45	0x3b62ba51	0.0034595917
46	0x3db381a4	0.08764961
47	0x3cdda0a4	0.027054138
48	0x3d702add	0.058634628
49	0x3da6bebb	0.08141848
50	0x3d61c61d	0.055120576
51	0xbc418461	-0.011811347
52	0xbd9d0375	-0.07666675
53	0x3cb5626f	0.022141663
54	0xbde7d970	-0.1132077
55	0x3d29e79c	0.041480646
56	0x3dd8c89d	0.10585139
57	0x3d747f86	0.05969193
58	0xbcc5a5d6	-0.024126928
59	0x3d3e8c16	0.046520315
60	0x3daf8bcd	0.08571587
61	0x3c37e9c0	0.011225164
62	0x3d93ebdd	0.07222722
63	0xbcfd0992	-0.030888353
64	0xbd811a34	-0.06303826
65	0xbcb79636	-0.022410493
66	0xbd1e3120	-0.038621068
67	0x3c8c3676	0.017115813
68	0x3da2645c	0.07929298
69	0x3d8a6eaa	0.06759389
70	0xbd9547c6	-0.0728908
71	0x3d45bdbd	0.04827665
72	0xbbd30377	-0.006439622
73	0xbe16b961	-0.14719154
74	0xbca9ce15	-0.02072815
75	0x3d485670	0.04891056
76	0x3cfcf83f	0.030880092
77	0xbd91102a	-0.07083161
78	0x3cfb2c1d	0.030660683
79	0x3d081ee9	0.033232603
80	0x3c1b5ec5	0.009483044
81	0x3ce15199	0.02750473
82	0xbcd2c2ae	-0.025727596
83	0x3dd8cc1c	0.10585806
84	0xbdc3febc	-0.09570071
85	0xbde76cc5	-0.11300043
86	0xbd8ac7cb	-0.06776389
87	0xbcefbcc5	-0.029264817
88	0xbc99272c	-0.018695436
89	0xbdbdbe51	-0.092648156
90	0x3d3463df	0.044040557
91	0xbe4eafc9	-0.20184244
92	0x3dc1e247	0.09466987
93	0xbdfdab6a	-0.1238621
94	0x3de6fd34	0.112787634
95	0x3dcb3232	0.09921683
96	0xbb599e62	-0.0033205976
97	0x3daa5365	0.083166875
98	0x3da13f73	0.0787343
99	0xbd89327b	-0.066990815
100	0x3d471853	0.04860718
101	0x3db86f92	0.09005655
102	0xbe0be27b	-0.13660614
103	0x3cd87998	0.026425168
104	0xbdf4fe3c	-0.11962554
105	0x3cff8721	0.031192364
106	0xbd40b6d6	-0.047049366
107	0xbdd7e99d	-0.10542605
108	0x3cbdc483	0.023164993
109	0xbc88cc52	-0.01669899
110	0xbcc166ee	-0.023608651
111	0xbd579340	-0.052630663
112	0x3d8e3df7	0.069454126
113	0xbc8d823a	-0.01727401
114	0x3d5d90d1	0.054093186
115	0x3dd78df9	0.10525126
116	0xbcc9d721	-0.024638714
117	0x3bcd3867	0.006262827
118	0xbdf03722	-0.11729266
119	0x3d7bbe52	0.0614608
120	0xbb8ee94f	-0.0043613086
121	0xbd6b7b55	-0.057490665
122	0x3d980ce7	0.07424336
123	0xbc9c47e9	-0.019077258
124	0x3ce387af	0.02777466
125	0xbcc28430	-0.023744673
126	0x3d29fdd9	0.041501854
127	0xbdece75c	-0.11567566
128	0x3d4bb266	0.04973068
129	0xbd32eecc	-0.043684766
130	0x3cd8a1ec	0.026444398
131	0xbe132ad6	-0.1437181
132	0xbd74235d	-0.059604038
133	0x3d897229	0.067112274
134	0x3ce5d70e	0.028056648
135	0xbdf7f02b	-0.12106355
136	0xbd79f535	-0.061024863
137	0xbd0a28e3	-0.0337304
138	0xbd865de0	-0.06560874
139	0xbd6760f0	-0.05648893
140	0x3d23c6af	0.0399844
141	0xbd9e2111	-0.07721151
142	0xbde2a07b	-0.110657655
143	0x3d80af18	0.062833965
144	0x3cd337d9	0.025783466
145	0x3d84023a	0.06445737
146	0x3cda8213	0.026673352
147	0xbd48b6a1	-0.049002293
148	0xbd146495	-0.036228735
149	0x3d59adba	0.053144194
150	0xbc9f9cab	-0.019483885
151	0xbd944f91	-0.072417386
152	0xbd64fa48	-0.05590275
153	0x3d2dc438	0.042423457
154	0xbd7cea6b	-0.061746996
155	0x3d87335c	0.06601593
156	0xbd12848c	-0.035770938
157	0xbde328c4	-0.1109176
158	0x3dbee429	0.09320862
159	0x3da2b7f7	0.07945245
160	0xbdb09d50	-0.08623755
161	0xbd54c03e	-0.05194115
162	0x3c13b1a4	0.009014521
163	0xbcc5e333	-0.024156189
164	0xbe0c7b48	-0.13718903
165	0xbe24775a	-0.16061154
166	0xbdb15b9e	-0.08660053
167	0xbdcecd70	-0.10097778
168	0x3d8665a7	0.065623574
169	0x3e0175d2	0.12642601
170	0xbe04bf5e	-0.12963626
171	0x3dd289ea	0.10280211
172	0xbca83f3e	-0.020537969
173	0xbdda9149	-0.10672242
174	0xbe0b95f4	-0.13631421
175	0x3e088350	0.13331342
176	0x3bdead3e	0.0067955544
177	0x3d24f0d6	0.04026874
178	0x3d76937d	0.06019925
179	0xbc38766a	-0.011258701
180	0xbb1b6a8f	-0.0023714637
181	0x3d40a582	0.04703284
182	0x3cb9aa9b	0.022664359
183	0xbd1b9568	-0.03798428
184	0xbd12d510	-0.035847723
185	0xbe15774c	-0.1459629
186	0x3d40807f	0.046997543
187	0x3d49b687	0.049246337
188	0xbdec1e94	-0.1152927
189	0x3c8b1825	0.016979286
190	0x3d04a6ab	0.03238551
191	0xbcd56054	-0.02604691
192	0xbc755617	-0.014974139
193	0x3d986d45	0.074427165
194	0xbd158f29	-0.03651348
195	0x3ca5754c	0.020197533
196	0x3d4b6d23	0.049664628
197	0xbda22068	-0.07916337
198	0x3d8b7eb4	0.06811276
199	0x3db74dba	0.08950372
200	0xbd2cb35d	-0.04216324
201	0x3d309780	0.04311323
202	0xbd088379	-0.033328507
203	0xbde1dbe3	-0.11028268
204	0xbd9e93ed	-0.07743058
205	0xbdf6d73d	-0.12052772
206	0x3c95eb41	0.018300654
207	0x3dac64dd	0.08417676
208	0xbe090748	-0.13381684
209	0xbd5f13e9	-0.054462347
210	0xbd987c9d	-0.07445643
211	0x3dcadde6	0.09905605
212	0x3d2c3e0c	0.04205136
213	0x3e10b42b	0.14131229
214	0x3d416171	0.047212068
215	0xbda11312	-0.078649655
216	0xbbcbc5b4	-0.0062186364
217	0x3cf93eeb	0.03042551
218	0xbd9c96c2	-0.07645942
219	0xbd1bbcdb	-0.038021903
220	0xbce9268a	-0.02846076
221	0x3df51671	0.11967171
222	0x3c8b5679	0.017009007
223	0xbd6e8589	-0.058232818
224	0xbdecf46f	-0.115700595
225	0xbd0319ff	-0.032007214
226	0x3d1bea3a	0.038065173
227	0xbd8538ca	-0.06504972
228	0xbd48e97a	-0.049050786
229	0x3d66e427	0.056369927
230	0x3d75b0a9	0.05998293
231	0xbc1cb3b6	-0.009564331
232	0x3d837458	0.06418675
233	0x3ba7b4d6	0.005117993
234	0x3d30ae04	0.043134704
235	0xbd95d762	-0.07316472
236	0xbd85d714	-0.065351635
237	0x3dca8398	0.09888381
238	0x3dfb955f	0.1228435
239	0x3d79ac08	0.060955077
240	0x3da5bd6b	0.08092769
241	0xbc3ddae8	-0.011587836
242	0x3da906af	0.08253228
243	0xbe1f42a6	-0.15552768
244	0x3d81dab6	0.06340544
245	0xbe12e14b	-0.14343755
246	0xbdf00203	-0.11719134
247	0x3d5c8dc6	0.053846143
248	0x3d8c04b5	0.06836835
249	0xbdc04fb8	-0.09390205
250	0x3ddadb59	0.106863685
251	0xbd761388	-0.06007722
252	0xbcc6184c	-0.024181508
253	0x3d299ef4	0.041411355
254	0xbc637bd8	-0.013884507
255	0x3dd2677b	0.102736436

fc2.bias f4 [10]
0	0xbcdc8939	-0.026920902
1	0xbd53edb3	-0.05174036
2	0xbca9bf8a	-0.020721216
3	0x3dbf7fb7	0.093505315
4	0xbcf3e9bb	-0.029774537
5	0x3d079760	0.033103347
6	0x3cab86f5	0.020938376
7	0x3d9b9569	0.07596857
8	0x3d51cb13	0.051219057
9	0xbba17bef	-0.004928104
