modelos/pytorch/conv-pytorch-mnist.pt (torch, 457092 bytes, 8 tensors)

model.0.weight f4 [32, 1, 3, 3]
0.1064233 -0.39886323 0.210918 0.14114046 -0.15027118 0.04058256 -0.0051652556 -0.27966842
0.039241742 0.29401547 0.21931109 -0.2193169 0.15955812 0.070933625 -0.24192508 0.33642638
0.36932823 0.13405134 0.19415675 -0.122763254 -0.33837023 -0.2646115 -0.18184967 -0.19659424
0.29170203 0.53275746 0.15732977 0.3063071 0.3719301 0.3244607 -0.07640652 0.38123348
-0.14785908 0.3416825 0.31987464 0.20985033 -0.056907024 0.096252844 -0.3104468 0.17756897
-0.23030125 0.40319124 -0.3672135 0.074427985 0.2985852 0.18776909 0.44365042 0.21139818
-0.16225249 -0.05519746 -0.102501094 -0.23429029 -0.27237457 -0.21423298 0.16912317 0.24871741
-0.56663865 -0.24494298 0.120881625 0.38833305 -0.19972025 0.28415543 -0.09653475 0.2672589
0.21248178 0.22873624 -0.26952216 0.13435279 0.26022875 -0.20877588 -0.31550106 -0.2857696
-0.24321856 -0.1590741 -0.2685941 0.23096016 -0.10397459 -0.124117464 0.10565046 0.11139062
0.20276406 0.25688192 -0.25761968 -0.3666714 -0.3195131 -0.34989715 -0.14429107 -0.16808923
-0.17177016 0.16978309 0.08782404 -0.15114665 0.37088665 0.42524683 0.34802294 -0.31962568
0.39106175 -0.20139153 -0.4162497 -0.16351573 -0.20332795 -0.33587858 0.16047923 -0.18211167
-0.17573696 -0.039599225 -0.3084999 0.05779988 0.06837996 -0.22402732 0.45035988 -0.062053103
0.25090358 -0.10984932 -0.27975467 -0.21865696 -0.06460542 -0.3707847 0.2311392 0.26693508
-0.2845046 0.50099105 -0.16906908 0.17131129 0.26921228 -0.18387586 0.050708707 0.36371133
0.41219005 -0.25203305 -0.082777336 0.106160685 -0.32385564 -0.2688084 -0.038296722 0.18125041
0.3509306 -0.07864259 -0.16027124 0.26263806 0.35262766 -0.3199615 -0.42145467 0.17805353
0.36382428 0.2159651 0.2763243 -0.2762318 -0.2938912 -0.010479733 -0.35317597 -0.06018139
0.4002338 0.21004857 -0.20968561 -0.25330833 0.314398 -0.38710395 0.23684938 0.4275845
-0.28602883 -0.021465842 0.08685985 -0.3659813 0.065681905 0.1265573 -0.113776855 -0.36127356
0.2581048 0.20745759 0.18741702 0.34666556 0.29332703 0.36665782 -0.10005352 0.08979326
0.18555655 -0.18568578 -0.2969018 -0.42217183 -0.084784314 0.3403633 -0.20589416 0.1446688
0.3252479 0.1938105 0.2385106 0.31671017 -0.49165517 0.33102927 0.16320652 0.26574212
0.21929446 -0.32045302 -0.20066696 0.27439815 -0.3059231 -0.38205996 -0.3702853 0.105178975
-0.15775777 -0.3393069 -0.1623123 -0.05231612 -0.25178912 0.09142595 -0.08814481 -0.36097804
0.013285797 0.30214784 0.10772135 0.098331146 -0.24209969 0.23753408 -0.029380932 -0.12248821
-0.30825177 -0.17973752 0.05220933 -0.1946245 -0.21810931 -0.30514643 0.03689233 -0.08017878
-0.17990582 0.30431968 -0.048958246 0.22719002 0.13498524 0.2346198 0.3596798 -0.091196775
-0.4742629 0.061597116 0.215988 0.31716242 -0.0019374001 0.20115031 0.19973688 -0.2880615
0.05658355 -0.20686685 -0.39184695 -0.30566093 -0.4297562 -0.38660926 -0.37870464 0.029572854
0.38645703 0.5160729 0.3164243 0.29125696 -0.013114394 0.32209253 0.19852307 0.16991754
00000000: 76f4 d93d cd37 ccbe e3fa 573e 2087 103e
00000010: b0e0 19be e639 263d 4e41 a9bb b330 8fbe
00000020: f3bb 203d 3289 963e 1693 603e 9c94 60be
00000030: 3463 233e a645 913d 35bb 77be 1440 ac3e
00000040: 9718 bd3e c144 093e 07d1 463e 4d6b fbbd
00000050: dd3e adbe 297b 87be cd36 3abe 0050 49be
00000060: f859 953e cb62 083f 0e1b 213e 49d4 9c3e
00000070: 9f6d be3e b61f a63e 067b 9cbd 0931 c33e
00000080: 5f68 17be 02f1 ae3e 9cc6 a33e 01e3 563e
00000090: 5717 69bd 3620 c53d e2f2 9ebe a4d4 353e
000000a0: 17d4 6bbe 156f ce3e 6803 bcbe b36d 983d
000000b0: 29e0 983e 8a46 403e 2626 e33e c478 583e
000000c0: 8425 26be bb16 62bd 18ec d1bd cbe9 6fbe
000000d0: ae74 8bbe e45f 5bbe a02e 2d3e c7af 7e3e
000000e0: 3b0f 11bf 55d2 7abe c990 f73d 97d3 c63e
000000f0: 7783 4cbe d27c 913e 03b4 c5bd 29d6 883e
00000100: d394 593e d539 6a3e cffe 89be c793 093e
00000110: b43c 853e 58c9 55be 5b89 a1be 6550 92be
00000120: 490e 79be 52e4 22be 2a85 89be d280 6c3e
00000130: a1f0 d4bd 4c31 febd 455f d83d c420 e43d
00000140: 62a1 4f3e 0786 833e bae6 83be 5bbc bbbe
00000150: 3997 a3be b825 b3be 0ac1 13be 951f 2cbe
00000160: 84e4 2fbe 9edb 2d3e 17dd b33d 30c6 1abe
00000170: dbe4 bd3e f4b9 d93e 1030 b23e faa5 a3be
00000180: 3f39 c83e 9539 4ebe ae1e d5be ab70 27be
00000190: 3435 50be 47f8 abbe ab54 243e 7b7b 3abe
000001a0: 64f4 33be cc32 22bd b3f3 9dbe 91bf 6c3d
000001b0: cb0a 8c3d 6b67 65be 9295 e63e 652b 7ebd
000001c0: 6f76 803e aef8 e0bd 013c 8fbe 9ce7 5fbe
000001d0: d94f 84bd 7ed7 bdbe c1af 6c3e b7ab 883e
000001e0: 96aa 91be f340 003f 7220 2dbe 3a6c 2f3e
000001f0: 31d6 893e f449 3cbe efb3 4f3d 5f38 ba3e
00000200: 930a d33e 7a0a 81be 2a87 a9bd c66a d93d
00000210: 68d0 a5be 41a1 89be 06dd 1cbd b599 393e
00000220: 2dad b33e 5e0f a1bd 251e 24be 7f78 863e
00000230: 9d8b b43e fed1 a3be e8c8 d7be aa53 363e
00000240: 2d47 ba3e f525 5d3e 617a 8d3e 416e 8dbe
00000250: e878 96be 30b3 2bbc 7bd3 b4be c380 76bd
00000260: 72eb cc3e f916 573e d3b7 56be a1b1 81be
00000270: c6f8 a03e 7d32 c6be a588 723e 5bec da3e
00000280: 5f72 92be 22d9 afbc 94e3 b13d e761 bbbe
00000290: 3c84 863d 3d98 013e d703 e9bd d9f8 b8be
000002a0: 5026 843e c36f 543e 3fea 3f3e 267e b13e
000002b0: f62e 963e 93ba bb3e dce8 ccbd 87e5 b73d
000002c0: 8902 3e3e 6a24 3ebe 8303 98be e826 d8be
000002d0: 66a3 adbd 1944 ae3e ebd5 52be 0f24 143e
000002e0: e586 a63e 4276 463e 1f3c 743e d627 a23e
000002f0: 3aba fbbe ab7c a93e 9c1f 273e 5a0f 883e
00000300: ba8e 603e 6b12 a4be a47b 4dbe ea7d 8c3e
00000310: f4a1 9cbe 5d9d c3be 0996 bdbe 1368 d73d
00000320: 418b 21be a2b9 adbe 3235 26be 6e49 56bd
00000330: 81ea 80be 873d bb3d 4485 b4bd 1dd2 b8be
00000340: acac 593c 1fb3 9a3e 039d dc3d d761 c93d
00000350: fbe8 77be 223c 733e 48b0 f0bc 19db fabd
00000360: 2dd3 9dbe 1d0d 38be 73d9 553d a54b 47be
00000370: 0c58 5fbe 273c 9cbe 691c 173d c634 a4bd
00000380: 3b39 38be cacf 9b3e 7188 48bd 80a4 683e
00000390: 9239 0a3e 2c40 703e f327 b83e 60c5 babd
000003a0: 96d2 f2be 424d 7c3d f52b 5d3e 1d63 a23e
000003b0: 5cf0 fdba 59fa 4d3e d387 4c3e cc7c 93be
000003c0: 27c4 673d e7d4 53be 2aa0 c8be 977f 9cbe
000003d0: 0109 dcbe a6f1 c5be 93e5 c1be c542 f23c
000003e0: b2dd c53e 5b1d 043f 5e02 a23e a21f 953e
000003f0: c1dd 56bc 50e9 a43e a249 4b3e ddfe 2d3e

model.0.bias f4 [32]
-0.22033787 -0.20258123 -0.03132155 0.033011664 0.03478901 -0.16191906 -0.082193755 0.019876897
0.221749 -0.06696149 0.29853782 -0.23647244 -0.006666083 -0.011748629 0.02873053 0.20965357
0.19372916 -0.05156278 -0.00792179 0.27060747 0.2921404 0.049882077 -0.22801755 -0.06427617
-0.19014701 -0.04729704 0.053942192 -0.10089922 0.14161594 0.010337224 0.067225106 0.040638205
00000000: 40a0 61be 7471 4fbe 074b 00bd 3d37 073d
00000010: ec7e 0e3d 1cce 25be 3355 a8bd e0d4 a23c
00000020: 2b12 633e 1b23 89bd f3d9 983e d525 72be
00000030: 286f dabb 527d 40bc 4a5c eb3c 6daf 563e
00000040: f060 463e 7e33 53bd 65ca 01bc 108d 8a3e
00000050: 6d93 953e 2651 4c3d 6f7d 69be 3aa3 83bd
00000060: e6b5 42be 8aba 41bd 7df2 5c3d 40a4 cebd
00000070: c503 113e 765d 293c 51ad 893d 3f74 263d

model.4.weight f4 [32, 32, 3, 3]
-0.059068594 0.026147045 -0.060904086 -0.08933375 0.15401348 0.038857564 -0.07095404 0.12273017
0.080908045 0.008118485 0.026983788 0.013097799 -0.015671168 0.0033046445 0.052887104 -0.06485769
-0.13226126 0.06848985 -0.029289737 -0.027180243 0.044851813 -0.105207965 -0.07579772 0.022816146
0.02616007 -0.021064024 0.076214194 0.0130210845 -0.077177115 -0.062356167 -0.021941215 -0.070761524
0.036885742 -0.007610111 -0.091091394 0.056731954 0.014468114 0.08236025 -0.07041871 -0.097944416
0.026294798 0.102200605 -0.0906548 -0.022410817 0.08335757 0.041876804 -0.040534943 -0.0984435
0.039257694 -0.045922343 -0.06537628 -0.03014086 -0.015703928 -0.03196041 -0.044910695 0.121555135
0.113888524 -0.04601133 0.025503652 0.16768879 -0.030846607 0.06323485 0.32342485 0.05629403
0.09726289 -0.021460598 0.028737035 0.026861794 0.01728155 -0.085747115 -0.008617168 0.030602442
-0.09247716 -0.03517008 -0.0011829305 -0.022784714 -0.03963601 -0.039011255 0.065814525 -0.003857961
-0.05277344 0.02659031 -0.039352596 -0.044156943 -0.011877512 -0.067187354 -0.102331914 0.00023264703
0.03448954 -0.08446699 0.0036216856 -0.040719617 0.032788575 0.01730233 -0.13845512 0.03471388
-0.10508175 0.0039487397 -0.029374639 -0.004573572 -0.046312828 -0.028275777 0.022795714 -0.06767665
-0.05707084 -0.006068173 0.035419874 -0.10936949 -0.031247627 -0.0010360251 -0.026088974 -0.029322673
0.067752205 -0.018504517 0.059248358 0.059808522 -0.010245037 -0.066968925 -0.10501317 -0.07087045
-0.116442345 -0.013215564 0.023906417 -0.11316571 0.046214987 -0.00493773 0.07991667 0.1353992
0.029266268 -0.0021886802 0.07432117 0.051556278 -0.050096408 0.042993113 0.028008008 0.022401363
0.105648145 0.028097002 -0.018276311 0.06357259 0.027652198 -0.14941786 -0.067086436 0.0741994
0.029007766 0.067396306 0.0081380205 0.0002860802 0.07298088 0.10830305 0.024596395 0.087768935
0.12537402 0.0112781525 0.03172545 0.06956288 -0.0075033098 0.012864651 0.07295582 -0.08032795
-0.11031376 0.0360834 -0.022530902 0.007379901 0.05937948 -0.0043981737 0.0179104 0.0251101
-0.033267975 -0.0422135 -0.053760566 0.03238584 0.0021555217 -0.07311587 0.02124215 0.04733236
0.02867502 -0.0011800971 -0.07845959 0.03139149 0.0262105 -0.012022625 0.060885433 0.024574114
-0.09315941 -0.0043643117 -0.10747862 -0.07529851 0.0045117764 0.023728577 -0.07126662 -0.0013883506
0.054355096 -0.06813846 -0.06592158 -0.064593874 -0.050311517 -0.10474576 0.014117371 0.0127324425
-0.0780808 -0.035231642 -0.032145247 -0.06859292 0.019693542 0.047864832 -0.05711855 0.079665855
0.02602608 0.037018705 -0.03183835 -0.07503286 -0.0025025222 -0.050386023 0.07701955 0.044411413
-0.060842924 0.009945491 -0.010409771 0.015517504 -0.05276835 -0.10025266 -8.554838e-05 0.044226922
0.0082497625 0.023647334 0.08496571 0.058645103 0.021561615 0.027520997 -0.017403757 -0.08024281
-0.030198963 0.0038384108 0.021524131 -0.1579782 -0.1125145 0.0009051601 -0.115060195 -0.027123572
-0.0765043 -0.00472654 -0.07762721 -0.08597135 -0.1424939 -0.016445162 -0.07529829 -0.11996118
-0.08112779 -0.022643952 0.03129862 -0.068312146 0.02993247 0.041317638 -0.008970956 -0.02606895
00000000: e9f1 71bd 5432 d63c 9076 79bd 9df4 b6bd
00000010: b6b5 1d3e 1c29 1f3d 5a50 91bd f559 fb3d
00000020: 1eb3 a53d 6503 053c 1b0d dd3c 2798 563c
00000030: d260 80bc bc92 583b 26a0 583d 1cd4 84bd
00000040: 7f6f 07be 6844 8c3d 08f1 efbc 1aa9 debc
00000050: 89b6 373d 4677 d7bd d63b 9bbd ede8 ba3c
00000060: a54d d63c 768e acbc 3016 9c3d 6356 553c
00000070: 090f 9ebd 2e69 7fbd 10be b3bc 6beb 90bd
00000080: 8115 173d 3d5e f9bb 208e babd c45f 683d
00000090: ab0b 6d3c 7eac a83d af37 90bd 1597 c8bd
000000a0: 3068 d73c 8d4e d13d 39a9 b9bd e496 b7bc
000000b0: 60b7 aa3d 0387 2b3d f807 26bd bf9c c9bd
000000c0: adcc 203d 1119 3cbd 00e4 85bd f7e9 f6bc
000000d0: 86a5 80bc ebe8 02bd 47f4 37bd e6f1 f83d
000000e0: 633e e93d 6076 3cbd 09ed d03c 9cb6 2b3e
000000f0: 06b2 fcbc 4681 813d f197 a53e 9294 663d
00000100: c431 c73d 23ce afbc ee69 eb3c 440d dc3c
00000110: 0a92 8d3c 2f9c afbd 062f 0dbc f9b1 fa3c
00000120: aa64 bdbd 800e 10bd 900c 9bba 02a7 babc
00000130: 5e59 22bd 44ca 1fbd c4c9 863d d8d5 7cbb
00000140: f628 58bd ecd3 d93c 3030 21bd e9dd 34bd
00000150: e599 42bc 8699 89bd 6593 d1bd b6f2 7339
00000160: e744 0d3d 07fd acbd cd59 6d3b 9dc9 26bd
00000170: 504d 063d 9ebd 8d3c 2ec7 0dbe 2430 0e3d
00000180: 1a35 d7bd 6e64 813b 15a3 f0bc e7dd 95bb
00000190: 85b2 3dbd 9aa2 e7bc 14be ba3c 0e9a 8abd
000001a0: 1dc3 69bd 86d7 c6bb 6e14 113d 1cfd dfbd
000001b0: 06fb ffbc 3ccb 87ba 8bb8 d5bc 1a36 f0bc
000001c0: abc1 8a3d c996 97bc 68ae 723d c8f9 743d
000001d0: cdda 27bc 0127 89bd 2511 d7bd 8724 91bd
000001e0: 5379 eebd 1886 58bc 64d7 c33c 6cc3 e7bd
000001f0: ed4b 3d3d aecc a1bb 5aab a33d 16a6 0a3e
00000200: d0bf ef3c f66f 0fbb b335 983d ad2c 533d
00000210: e431 4dbd 8c19 303d 0d71 e53c 1083 b73c
00000220: 0e5e d83d af2b e63c 34b8 95bc 5932 823d
00000230: dd86 e23c ff00 19be 9d64 89bd dbf5 973d
00000240: b2a1 ed3c 1307 8a3d 5555 053c 09fd 9539
00000250: 0077 953d fdcd dd3d 617e c93c 33c0 b33d
00000260: 0c62 003e 00c8 383c 8cf2 013d fc76 8e3d
00000270: 53de f5bb 42c6 523c dc69 953d fb82 a4bd
00000280: 2eec e1bd 30cc 133d ba92 b8bc 19d3 f13b
00000290: e637 733d 8e1e 90bb d5b8 923c b2b3 cd3c
000002a0: 0044 08bd 10e8 2cbd 0a34 5cbd 04a7 043d
000002b0: a743 0d3b c6bd 95bd 0404 ae3c 94df 413d
000002c0: e0e7 ea3c 7dad 9aba 6caf a0bd 5d94 003d
000002d0: 67b7 d63c 8bfa 44bc 0163 793d a74f c93c
000002e0: 5cca bebd 8002 8fbb c01d dcbd 1b36 9abd
000002f0: 86d7 933b 6f62 c23c 3cf4 91bd 51f9 b5ba
00000300: 73a3 5e3d 2d8c 8bbd e501 87bd cb49 84bd
00000310: 7313 4ebd f284 d6bd 8c4c 673c bc9b 503c
00000320: d4e8 9fbd 0e4f 10bd bcaa 03bd 727a 8cbd
00000330: 5a54 a13c ea0d 443d 24f5 69bd da27 a33d
00000340: a534 d53c eda0 173d ee68 02bd d4aa 99bd
00000350: 5b01 24bb 9361 4ebd 6dbc 9d3d bee8 353d
00000360: 6e36 79bd 6af2 223c bf8d 2abc 213d 7e3c
00000370: a023 58bd 4451 cdbd 7068 b3b8 4a27 353d
00000380: 032a 073c 0eb8 c13c 8102 ae3d d935 703d
00000390: fca1 b03c b773 e13c 5392 8ebc 5856 a4bd
000003a0: d163 f7bc d98d 7b3b 6053 b03c 0ac5 21be
000003b0: 016e e6bd 4448 6d3a aea4 ebbd 4132 debc
000003c0: 49ae 9cbd 17e1 9abb 04fb 9ebd bf11 b0bd
000003d0: ece9 11be 01b8 86bc fd35 9abd 35ae f5bd
000003e0: 5426 a6bd cf7f b9bc fb32 003d 3de7 8bbd
000003f0: f034 f53c af3c 293d ebfa 12bc 8d8e d5bc

model.4.bias f4 [32]
0.03571398 -0.009488471 0.030039746 -0.020828424 -0.045855343 -0.002832246 -0.01682583 -0.024330487
-0.0284976 -0.03649638 -0.017223625 -0.015985377 -0.013319913 0.06139501 0.043553647 0.044801783
0.030722521 0.052506067 -0.04076278 -0.031026926 -0.021343663 0.042038806 -0.00395378 0.00589973
0.02171085 0.014705157 0.03164897 0.02975585 -0.03533822 -0.049269553 0.031301145 0.02392989
00000000: d348 123d 8875 1bbc ea15 f63c 5fa0 aabc
00000010: d0d2 3bbd 349d 39bb 53d6 89bc bb50 c7bc
00000020: cd73 e9bc 3a7d 15bd 8f18 8dbc c4f3 82bc
00000030: c43b 5abc 5679 7b3d 4f65 323d 1382 373d
00000040: ccad fb3c 9a10 573d dff6 26bd 2e2c febc
00000050: e8d8 aebc e230 2c3d b68e 81bb 8652 c13b
00000060: f4da b13c e6ed 703c 5aa2 013d 8ac2 f33c
00000070: cfbe 10bd dfce 49bd a135 003d 9e08 c43c

model.9.weight f4 [128, 800]
0.002440517 -0.013911525 -0.048298992 -0.054884516 -0.020975856 0.0041082017 -0.042508423 -0.030283585
-0.017476406 -0.027568283 0.031011956 0.015493942 -0.049238637 -0.017945757 -0.009077555 0.015329775
0.03621201 -0.0076790377 0.028558379 -0.048496347 -0.041987035 0.01014594 -0.017485222 0.020364493
-0.0124077955 -0.015263364 -0.018455926 -0.015230937 0.034915924 -0.0024293978 -0.0070945336 -0.03225634
0.011608765 0.03748057 0.015318128 -0.057704158 -0.10294626 -0.046774823 -0.0008926717 0.02671132
-0.0016172938 0.07437519 0.092606544 0.0010152325 -0.05049128 0.04128247 0.030036604 0.028378913
-0.07960867 -0.03434107 0.0063281385 -0.053685818 0.04180367 0.010599699 0.06754395 -0.021225395
-0.052748486 -0.013675714 -0.017903564 0.068332456 -0.051833928 0.0008433872 0.082497954 0.031871706
0.073115185 0.026495382 0.03760487 0.03337574 -0.0058033336 -0.062007837 0.03374771 -0.0017270806
0.016047787 -0.09369832 -0.11316546 0.04275415 0.030434864 0.013648647 0.028789684 -0.02052503
-0.061561614 -0.011208743 -0.08202505 -0.005088774 -0.016289636 -0.06925011 -0.062241912 -0.014173263
0.06350971 0.071267426 0.07457906 0.026892057 0.011597618 -0.00204102 -0.045769244 -0.00895478
-0.0039376365 -0.0204477 -0.061528165 -0.045559008 -0.010287147 -0.024763832 -0.061837625 -0.016542485
-0.009315495 -0.07130589 -0.07782575 -0.030730516 -0.022109874 0.049544897 -0.018830484 0.015798127
-0.006387128 0.007885274 -0.0557366 0.042435184 0.04769926 0.03847133 0.025465257 -0.0009153994
-0.004150669 0.026192984 0.011298657 -0.011129538 0.0063186777 -0.02748482 -0.031078916 -0.049071416
-0.047464237 0.02329803 0.059181057 -0.03118897 0.03178959 -0.012499607 0.02827641 -0.058248755
-0.031622875 0.02374076 0.0017353799 0.09393871 0.0009634922 -0.02013425 0.04389789 0.012722977
-0.06899708 0.04202266 0.0074485578 -0.018466908 -0.019879263 -0.046795804 -0.07329367 0.055689573
0.028188985 -0.034046207 -0.09185913 0.032929976 0.06215774 -0.0056604613 -0.05849451 -0.03463045
0.0325365 0.054677837 -0.00075618876 -0.029536802 0.009812584 -0.032148633 0.051360957 -0.04291796
0.03716352 -0.023484139 -0.047203455 -0.041488532 -0.08212349 0.010535768 0.00065846485 0.008648016
0.0019303609 0.029889626 0.03626959 -0.003722298 -0.06515118 -0.0017834463 -0.014063865 0.0025769782
-0.00019992527 -0.05578216 0.001569896 0.005464523 0.030505575 -0.0063318484 -0.01634981 -0.08274698
0.0019035223 -0.0026202297 -0.07105287 0.03028882 0.063690454 0.042614497 -0.024748322 -0.070207074
-0.0128848795 -0.004203919 -0.023304503 -0.005599635 0.08800737 0.017932791 0.034344018 -0.018221855
0.050007783 0.055206895 -0.039102636 -0.03387092 -0.009293339 -0.01031818 -0.017756619 0.012202121
0.010433359 0.008003957 0.04210237 -0.05313222 0.028140064 0.009800098 0.022017162 0.07516308
-0.033380415 -0.0045345975 0.012577819 0.009069012 0.010994891 0.021863196 -0.016881673 -0.00552919
0.006530591 0.0034336431 0.00035307644 0.0017487145 0.010363262 0.029635943 0.016108453 0.012129831
0.03725784 0.015624743 -0.0066901026 -0.010954739 0.038484458 0.024483813 -0.024566092 -0.0035383324
0.0014784201 -0.0101881735 -0.008297974 -0.043857753 0.027757771 0.0052922983 0.0027952236 0.03830911
00000000: 15f1 1f3b 2aed 63bc 2ad5 45bd 96ce 60bd
00000010: 8fd5 abbc 189e 863b 501d 2ebd 4815 f8bc
00000020: ae2a 8fbc e1d6 e1bc c90c fe3c 4eda 7d3c
00000030: 74ae 49bd fb02 93bc 06ba 14bc bd29 7b3c
00000040: 0b53 143d 70a0 fbbb 43f3 e93c 1ba4 46bd
00000050: 99fa 2bbd 283b 263c 2b3d 8fbc 70d3 a63c
00000060: 114a 4bbc 3013 7abc e230 97bc 2e8b 79bc
00000070: 0004 0f3d 8836 1fbb 4379 e8bb 391f 04bd
00000080: b132 3e3c 3a85 193d e3f8 7a3c 325b 6cbd
00000090: 7dd5 d2bd f596 3fbd 2f02 6aba b3d1 da3c
000000a0: 60fb d3ba 0552 983d 80a8 bd3d 8d11 853a
000000b0: f2cf 4ebd cf17 293d 530f f63c e57a e83c
000000c0: df09 a3bd 39a9 0cbd 465c cf3b a9e5 5bbd
000000d0: 533a 2b3d 5caa 2d3c 7c54 8a3d e1e0 adbc
000000e0: cc0e 58bd 1a10 60bc 7faa 92bc e3f1 8b3d
000000f0: d04f 54bd c216 5d3a b0f4 a83d e88b 023d
00000100: 6abd 953d d80c d93c 9007 1a3d 00b5 083d
00000110: e429 bebb eefb 7dbd 0a3b 0a3d 355f e2ba
00000120: a676 833c e8e4 bfbd 4bc3 e7bd fa1e 2f3d
00000130: 8952 f93c 939e 5f3c 58d8 eb3c 1c24 a8bc
00000140: 0828 7cbd e0a4 37bc c0fc a7bd bbbf a6bb
00000150: d871 85bc 00d3 8dbd 60f1 7ebd f936 68bc
00000160: 6111 823d a8f4 913d e8bc 983d bb4c dc3c
00000170: f003 3e3c a2c2 05bb 8878 3bbd 12b7 12bc
00000180: 4a07 81bb ef81 a7bc f504 7cbd 159c 3abd
00000190: 6c8b 28bc 85dd cabc 7349 7dbd 1b84 87bc
000001a0: 05a0 18bc d308 92bd 1b63 9fbd 90be fbbc
000001b0: c41f b5bc 97ef 4a3d 6342 9abc 136b 813c
000001c0: 1d4b d1bb 3c31 013c 104c 64bd 84d0 2d3d
000001d0: 4d60 433d 1d94 1d3d 849c d03c 6af7 6fba
000001e0: 5602 88bb ab92 d63c 011e 393c aa58 36bc
000001f0: e90c cf3b d827 e1bc 3699 febc 1cff 48bd
00000200: dc69 42bd 83db be3c d667 723d 0380 ffbc
00000210: cd35 023d 27cb 4cbc eea3 e73c 3f96 6ebd
00000220: fd86 01bd fb7b c23c b075 e33a f062 c03d
00000230: de92 7c3a 95f0 a4bc 46ce 333d 0974 503c
00000240: 574e 8dbd f41f 2c3d 0813 f43b ea47 97bc
00000250: d6d9 a2bc f5ac 3fbd fe1a 96bd c01a 643d
00000260: 96ec e63c 0974 0bbd a420 bcbd 95e1 063d
00000270: 1d99 7e3d 647b b9bb f097 6fbd a9d8 0dbd
00000280: fe44 053d def5 5f3d f83a 46ba 2af7 f1bc
00000290: f6c4 203c 49ae 03bd de5f 523d beca 2fbd
000002a0: c638 183d cf61 c0bc 6958 41bd e1ef 29bd
000002b0: 5c30 a8bd 379e 2c3c d49c 2c3a 68b0 0d3c
000002c0: 2a04 fd3a 17db f43c 6c8f 143d ccf1 73bb
000002d0: fb6d 85bd 87c2 e9ba 206c 66bc 85e2 283b
000002e0: 08a3 51b9 d67b 64bd f8c4 cd3a be0f b33b
000002f0: d4e6 f93c 657b cfbb 09f0 85bc 4077 a9bd
00000300: 9c7f f93a 29b8 2bbb 2b84 91bd 4220 f83c
00000310: 2470 823d 8a8c 2e3d febc cabc bac8 8fbd
00000320: 1a1b 53bc 07c1 89bb 16e9 bebc 257d b7bb
00000330: 353d b43d cae7 923c 50ac 0c3d 0046 95bc
00000340: f6d4 4c3d a020 623d 162a 20bd 3cbc 0abd
00000350: 1743 18bc 950d 29bc 5476 91bc 68eb 473c
00000360: aef0 2a3c 0723 033c 8973 2c3d 2ca1 59bd
00000370: fe85 e63c 9790 203c 565d b43c 1aef 993d
00000380: e7b9 08bd f696 94bb 3213 4e3c 3196 143c
00000390: ea23 343c 721a b33c 6f4b 8abc 352e b5bb
000003a0: 91fe d53b f906 613b 1e1d b939 1f35 e53a
000003b0: acca 293c 14c7 f23c e0f5 833c 33bc 463c
000003c0: ad9b 183d ecfe 7f3c a638 dbbb 817b 33bc
000003d0: e1a1 1d3d 4792 c83c d43e c9bc 5ee3 67bb
000003e0: 8cc7 c13a 4cec 26bc 3af4 07bc 30a4 33bd
000003f0: 4464 e33c 046b ad3b 1230 373b 03ea 1c3d

model.9.bias f4 [128]
-0.014700075 -0.040181298 -0.062126283 -0.022690132 -0.02117661 -0.01390086 -0.028358683 0.0018916356
0.022918303 0.021479784 0.05186202 0.017305613 0.033193164 0.031595405 -0.039658703 -0.036625057
-0.023474189 0.016645072 0.01055529 0.01017428 0.007776778 -0.017958734 -0.017937614 -0.018682119
-0.021882774 -0.0045939814 -0.0044459775 -0.025622874 -0.015917897 0.014442885 -0.037705276 0.011802294
0.009664913 -0.0068060956 0.025941651 -0.027147317 0.005920432 -0.032581892 -0.014790836 0.0066219927
0.018874457 -0.0016506634 -0.0038332366 0.036999155 -0.021417066 -0.023049166 -0.017399604 0.036519386
0.018233655 0.026691508 -0.016337996 0.046783593 -0.03248835 -0.004805632 0.018461006 -0.031803753
0.009460621 -0.017254574 0.015067531 0.012011218 0.002196413 0.010802877 0.014950246 0.009147087
0.047498487 0.040390376 -0.012929574 -0.016036965 -0.02299526 -0.007330524 0.012073685 0.008942737
0.008895689 -0.015101673 0.015076672 0.017314874 -0.020382497 0.029178921 0.013749386 0.0061480887
-0.021551799 -0.016637929 0.0032879557 0.011337358 -0.013656024 -0.04277375 -0.007137497 0.00015296633
-0.022514975 0.003384186 0.037520915 0.03244435 0.022489438 -0.028105328 0.03533837 -0.021111997
-0.025215954 -0.052647304 -0.008741475 0.030059073 0.039035466 0.00026787654 0.027966717 0.044765282
0.041971434 -0.0051409714 -0.0071358113 -0.005566478 -0.05942768 -0.019222427 0.014251087 -0.023405101
-0.03636587 0.003767083 -0.04035874 -0.008427745 -0.0011324509 -0.030702664 0.019388799 0.009218991
-0.018082267 0.0027611807 -0.024872107 -0.0022572044 -0.01796737 -0.0007415981 0.0005170209 0.05968456
00000000: 95d8 70bc 2595 24bd 2178 7ebd a8e0 b9bc
00000010: 927a adbc 6fc0 63bc 7850 e8bc c2f0 f73a
00000020: 2abf bb3c 5ff6 af3c 456d 543d 80c4 8d3c
00000030: 8ef5 073d 2f6a 013d 2a71 22bd 2804 16bd
00000040: f14c c0bc 3f5b 883c 18f0 2c3c 06b2 263c
00000050: 58d4 fe3b 321e 93bc e7f1 92bc 3e0b 99bc
00000060: 8143 b3bc 1c89 96bb 90af 91bb 10e7 d1bc
00000070: 4066 82bc daa1 6c3c d970 1abd 695e 413c
00000080: 9559 1e3c ab05 dfbb 9683 d43c 0d64 debc
00000090: 2f00 c23b 9774 05bd 4355 72bc 4dfd d83b
000000a0: 9b9e 9a3c 135b d8ba 0a37 7bbb 6d8c 173d
000000b0: d872 afbc 9bd1 bcbc 9d89 8ebc 5a95 153d
000000c0: bf5e 953c 26a8 da3c 43d7 85bc 27a0 3f3d
000000d0: 8112 05bd 9078 9dbb 893b 973c a744 02bd
000000e0: b800 1b3c 7759 8dbc cedd 763c b3ca 443c
000000f0: b2f1 0f3b 8dfe 303c e0f1 743c aadd 153c
00000100: c68d 423d 6170 253d 90d6 53bc f45f 83bc
00000110: 8e60 bcbc e434 f0bb b5d0 453c 8f84 123c
00000120: 39bf 113c 026d 77bc 2504 773c ecd7 8d3c
00000130: 32f9 a6bc a208 ef3c 1b45 613c e875 c93b
00000140: 668d b0bc 444c 88bc be7a 573b 53c0 393c
00000150: 84bd 5fbc 8733 2fbd aae1 e9bb 9665 2039
00000160: 5371 b8bc 38c9 5d3b 88af 193d 5ee4 043d
00000170: c53b b83c 253d e6bc f7be 103d 11f3 acbc
00000180: b091 cebc b3a4 57bd 6738 0fbc 723e f63c
00000190: a7e3 1f3d c871 8c39 751a e53c cd5b 373d
000001a0: 3dea 2b3d 9875 a8bb 86d3 e9bb 0067 b6bb
000001b0: 706a 73bd 5a78 9dbc 647d 693c 0ebc bfbc
000001c0: 61f4 14bd 2ae1 763b 354f 25bd 8614 0abc
000001d0: bf6e 94ba 2784 fbbc 42d5 9e3c 400b 173c
000001e0: 4321 94bc edf4 343b 97c0 cbbc 9bed 13bb
000001f0: 4e30 93bc ce67 42ba af88 073a cc77 743d

model.12.weight f4 [10, 128]
-0.09658284 -0.033223577 0.048392847 0.078195475 -0.049071956 -0.10346726 -0.08914217 -0.038022052
0.03231676 0.080506735 -0.12688094 0.010763976 -0.08706987 0.08532421 -0.16975072 -0.021160338
0.033073287 -0.05584415 0.041394502 -0.06562767 0.009230181 -0.13869964 0.092552334 0.026449447
-0.05872868 0.03258389 0.027402809 0.12345995 0.030287508 0.10394191 0.10541726 0.00976677
-0.0136578195 -0.067140765 0.06480329 -0.038700566 -0.0153828515 0.004603567 -0.07355039 0.07817006
-0.08642611 -0.21445084 -0.18723609 -0.15473187 0.010053984 -0.041254126 0.016564235 0.08219603
0.05539855 0.06455139 -0.055662744 0.09054248 -0.075367704 -0.04023044 -0.010717782 0.07577597
0.016276574 -0.024130868 -0.01018549 -0.08198599 -0.04929253 -0.1501133 0.045403242 0.07999204
-0.09624221 -0.038833667 -0.010362056 -0.028124351 0.08475609 0.092439376 -0.11168979 -0.11721425
-0.090712376 0.0339521 -0.031202946 0.07451281 0.03472307 0.09072474 0.007203677 0.11779775
-0.13314995 0.038943242 -0.1856023 -0.012799538 -0.11037337 -0.13334048 -0.08359696 -0.16869527
0.06957865 0.13382697 -0.0095533375 0.010996885 0.02577694 0.061526403 0.08613756 -0.13032956
-0.005337364 0.036230266 -0.09010516 -0.20514348 0.06940896 -0.14134924 -0.005275189 -0.099844106
0.06752257 -0.058092397 -0.07374949 -0.07325991 -0.12481749 -0.058479216 -0.0951444 0.07112182
-0.011218355 0.018177442 0.08138375 -0.013319972 -0.0068520834 0.01450414 -0.096355855 0.08856394
0.0599719 -0.06399943 0.076122046 -0.048422176 -0.14995131 -0.14326394 0.064255744 0.10293654
-0.15977804 -0.03478396 -0.22745216 -0.07636338 0.0043495316 -0.039472822 -0.04408825 0.01926368
0.0907937 -0.058891244 0.08165347 0.095687665 0.06460317 0.018262267 -0.10606383 0.09504202
-0.016464083 0.021860719 0.05122528 0.0746859 0.07723405 -0.12283297 -0.1677998 -0.22414622
0.026158283 -0.035381224 -0.13483958 -0.046865672 0.03934227 0.055501785 0.017541861 -0.10485624
-0.10248374 -0.07531398 0.091037095 0.066066206 -0.18443486 0.05066773 0.022380587 -0.12547947
0.06121666 0.006532363 -0.058186427 0.09806609 0.034699976 -0.0185695 -0.07793824 0.15435496
-0.0066021355 0.030431371 -0.01698045 -0.0738489 0.01589953 -0.023173094 0.13688485 -0.097949944
0.11634474 -0.0021624756 0.070622146 -0.1678347 -0.113609046 0.124040395 -0.011784854 -0.08686632
0.08811289 0.111015156 0.03985815 -0.12655173 -0.1013936 0.10397135 0.056269404 -0.15651843
0.111504816 -0.07842304 -0.031792723 -0.10736905 0.06818427 0.036718123 0.12389013 0.01151061
-0.074115336 -0.16225049 0.00064046 0.07791519 0.07792958 -0.08458589 0.078123 0.11478187
-0.13928784 -0.03193208 0.009239826 0.005753519 0.07504606 -0.055500954 0.08949766 0.003504123
0.17571701 -0.03324816 0.07039814 0.10731437 -0.11512906 -0.09670576 -0.038407266 0.1114071
-0.04085877 0.07442909 0.01079181 -0.020129764 -0.06539407 -0.03515162 -0.0530963 -0.16008155
-0.11430789 -0.017581288 0.046295635 0.073837675 0.005868879 0.098071836 -0.05260074 0.0174771
-0.074880995 -0.0602841 -0.027015578 0.04214082 -0.09817633 -0.13962756 -0.19115093 0.09392889
00000000: 39cd c5bd 7215 08bd 9437 463d f324 a03d
00000010: adff 48bd a5e6 d3bd 2c90 b6bd 03bd 1bbd
00000020: 945e 043d b7e0 a43d 14ed 01be 635b 303c
00000030: b051 b2bd 76be ae3d 22d3 2dbe 7258 adbc
00000040: db77 073d d6bc 64bd 488d 293d cd67 86bd
00000050: 2f3a 173c 4707 0ebe 148c bd3d 83ac d83c
00000060: 7c8d 70bd af76 053d db7b e03c 92d8 fc3d
00000070: 821d f83c 7fdf d43d 01e5 d73d cd04 203c
00000080: 0cc5 5fbc 1981 89bd 96b7 843d 7c84 1ebd
00000090: 5b08 7cbc 85d9 963b 96a1 96bd a017 a03d
000000a0: 2c00 b1bd 0099 5bbe d1ba 3fbe 0872 1ebe
000000b0: 77b9 243c 16fa 28bd b8b1 873c 6456 a83d
000000c0: 97e9 623d 8533 843d 9efe 63bd 566e b93d
000000d0: 625a 9abd adc8 24bd a399 2fbc 6f30 9b3d
000000e0: 7356 853c 19ae c5bc 0be1 26bc 45e8 a7bd
000000f0: f7e6 49bd 4db7 19be c0f8 393d ded2 a33d
00000100: a31a c5bd 0d10 1fbd 9dc5 29bc 0a65 e6bc
00000110: 9a94 ad3d db50 bd3d 9ebd e4bd 060e f0bd
00000120: 69c7 b9bd 5b11 0b3d 529d ffbc 2c9a 983d
00000130: c739 0e3d e4cd b93d d30c ec3b f23f f13d
00000140: 7658 08be f382 1f3d 880e 3ebe 27b5 51bc
00000150: 6f0b e2bd 688a 08be e234 abbd 74be 2cbe
00000160: 407f 8e3d f009 093e 9a85 1cbc 472c 343c
00000170: 292a d33c 1c03 7c3d e468 b03d 1d75 05be
00000180: 0ee5 aebb 3066 143d 0e89 b8bd 2211 52be
00000190: 4926 8e3d dbbd 10be 7edb acbb 117b ccbd
000001a0: 4649 8a3d 4bf2 6dbd f909 97bd 4b09 96bd
000001b0: 50a0 ffbd e787 6fbd 11db c2bd 51a8 913d
000001c0: 31cd 37bc dce8 943c 86ac a63d 033c 5abc
000001d0: 7187 e0bb c6a2 6d3c 3856 c5bd 0361 b53d
000001e0: 18a5 753d 2212 83bd e0e5 9b3d 5556 46bd
000001f0: d68c 19be c8b3 12be 8498 833d 65d0 d23d
00000200: db9c 23be a079 0ebd 38e9 68be 6764 9cbd
00000210: 8486 8e3b 41ae 21bd e195 34bd ddce 9d3c
00000220: 0cf2 b93d f237 71bd ef39 a73d e5f7 c33d
00000230: ab4e 843d c09a 953c fe37 d9bd 64a5 c23d
00000240: afdf 86bc 4015 b33c 99d1 513d ecf4 983d
00000250: e32c 9e3d da8f fbbd b6d3 2bbe 9686 65be
00000260: e549 d63c e7eb 10bd 6313 0abe 38f6 3fbd
00000270: 5c25 213d d755 633d f3b3 8f3c debe d6bd
00000280: ffe2 d1bd 373e 9abd a871 ba3d b84d 873d
00000290: 7edc 3cbe f788 4f3d 7e57 b73c b17d 00be
000002a0: 52be 7a3d 6f0d d63b e454 6ebd e0d6 c83d
000002b0: 9021 0e3d 101f 98bc 159e 9fbd 3a0f 1e3e
000002c0: ba56 d8bb 364b f93c 961a 8bbc 183e 97bd
000002d0: bb3f 823c 80d5 bdbc 8b2b 0c3e fb99 c8bd
000002e0: 2746 ee3d 52b8 0dbb 58a2 903d dcdc 2bbe
000002f0: dcab e8bd e408 fe3d 4315 41bc f8e6 b1bd
00000300: 8874 b43d ea5b e33d 4d42 233d c796 01be
00000310: 73a7 cfbd eeee d43d bf7a 663d 5e46 20be
00000320: a35c e43d 429c a0bd 1639 02bd 4ee4 dbbd
00000330: 32a4 8b3d be65 163d 1cba fd3d ff96 3c3c
00000340: c8c9 97bd fe24 26be 8be4 273a 0092 9f3d
00000350: 8b99 9f3d 5e3b adbd f4fe 9f3d c212 eb3d
00000360: 79a1 0ebe 36cb 02bd a462 173c 0488 bc3b
00000370: c0b1 993d f854 63bd 8d4a b73d 6ea5 653b
00000380: 29ef 333e 392f 08bd e62c 903d a3c7 db3d
00000390: c9c8 ebbd ab0d c6bd f050 1dbd 6829 e43d
000003a0: 875b 27bd 476e 983d 22d0 303c 2de7 a4bc
000003b0: 54ed 85bd 25fb 0fbd 827b 59bd 6bec 23be
000003c0: 411a eabd a206 90bc 7ea0 3d3d 3538 973d
000003d0: ba4f c03b e3d9 c83d e073 57bd 232c 8f3c
000003e0: 355b 99bd 76ec 76bd c64f ddbc da9b 2c3d
000003f0: ac10 c9bd 87fa 0ebe 12bd 43be ca5d c03d

model.12.bias f4 [10]
-0.035047855 -0.018492416 -0.030399589 -0.082953334 -0.07784862 0.04020175 0.008768645 0.029033972
0.0501966 0.058993477
00000000: 578e 0fbd 687d 97bc 8f08 f9bc 70e3 a9bd
00000010: 196f 9fbd 97aa 243d 5daa 0f3c a7d8 ed3c
00000020: f39a 4d3d 25a3 713d
