modelos/pytorch/conv-pytorch-mnist.pt (torch, 457092 bytes, 8 tensors)

model.0.weight f4 [32, 1, 3, 3]
00000000: 6203 af3d d8e9 683d 7aa4 b73e 8e72 3bbe
00000010: f8be 5bbd 45dc cfbd a3b3 8bbe d8c2 5fbe
00000020: f38b 82bd 5658 933e f16c ee3e 663b b83d
00000030: c355 893e f8bd 38be 2ce6 823d f54f cebe
00000040: f174 94be b33e 97be 6316 a1be 26a3 c8be
00000050: d6e1 d2be b620 e8bd 65fd e13d b677 c83e
00000060: e4ac 773e 9af0 db3e bde2 b4bd fd10 87be
00000070: ee7c b63e ab4b a9bd 454e 82be dfaf 363e
00000080: 98fb ff3b e28d e1be 756b b13e aadc 3c3e
00000090: aca5 813e d715 e4be d21a 9abe b348 ff3e
000000a0: 467b 99be 5f88 86be fe19 c53e a586 b93e
000000b0: 133b 9f3e eb7a 213d 5270 c6be ddcd bcbe
000000c0: 1c36 a33e 7a90 863d 3217 e6be 8e07 ba3e
000000d0: de41 c73e 1008 a23d 3175 d4be abfe 313e
000000e0: bd2e cb3a 1a44 54be 6ff5 c33e 3380 2d3e
000000f0: d505 47be 9941 b13e 505a 8ebe 6d25 343e
00000100: 5f1f 963d 68a7 9a3e 0c5c 653e 9650 323e
00000110: 5551 843e c47d bfbe c3ca 8dbe 0910 b8be
00000120: 112c 6f3e 2b12 663d d11d 493e d462 ca3e
00000130: 39f9 7d3e 1a18 74be 2361 b53e a9c5 31be
00000140: 7962 0abf 2a8c e33d fbe4 8bbe 6938 00be
00000150: 1df9 57be d353 ddbd 5dd8 443c 7c12 e83e
00000160: 2448 933e 30da 04be e44a 9dbe 7e04 70bd
00000170: 662a d3bc ab66 0abd 55c6 23be 8ad9 5a3e
00000180: 044c bfbd fb9b 1f3e d2ca ac3e 89bd e33d
00000190: f3bd 24be 222c 82be c306 1a3c 5207 543e
000001a0: 316e bfbe 48b7 adbd d75a 77be abd0 a9be
000001b0: 6334 b13e 3257 a6bd 9053 bebe c75b c73e
000001c0: b5fa 53bc cf90 abbe e32b c63d 88bb 403e
000001d0: e7b9 3a3e d389 cc3e eecb 9e3c 30ce 803c
000001e0: 0eda 903a 4e2e de3d dbb2 dcbe 5cc7 993e
000001f0: 8c7d b33e b7f0 62be 9322 253e f0f8 803e
00000200: 9bf9 b9bd 78fa 993e 6d8d 8bbd d317 2a3e
00000210: c57f f2bd 4761 a93e 3e54 96be 4761 563e
00000220: be76 743e e9b9 b23e 2cde 3c3e b3a4 42bd
00000230: bfad 0abe e44e 893e 728f 203e 86a7 9e3e
00000240: 659c 9cbe f5a9 97bd 95b7 62be e4fb c0bd
00000250: 9536 f1bd d45e a8bd 3779 80be fa2e 87be
00000260: 7c04 293e 8e36 d73e 9660 ad3e 618f 1dbe
00000270: f588 57be ac02 e63d 0be7 49be 91c5 43be
00000280: 9414 b4be 0168 bdbe 2513 473e 185e cf3e
00000290: 1a25 c63e df52 b4be 6280 eabc 74c9 003e
000002a0: f9df f7be 3a99 3abe 5b7b 6dbe f1ff 9a3e
000002b0: e68f a03e 9955 a43e 7eb1 613d 00b7 5a3b
000002c0: 1488 2f3e d4c5 e6be b85f 84be 40ba 373e
000002d0: c5ec fb3c e707 363e 3426 723d 03b8 cbbe
000002e0: 8d98 37be 5d55 97bd 6fc6 833e acba a2be
000002f0: f956 79be d087 003e b38c d03e 807f a93d
00000300: 7994 5c3e 9220 443d bc77 023d daa5 f03d
00000310: 0481 3b3e f1c0 8b3e 0c8f ed3e 29c2 51be
00000320: 7526 bfbe 4746 963d b6f8 893c 0334 633c
00000330: 4746 983e 2a2f 6dbe c59b 99be cbcf 2ebe
00000340: d482 91bc 1f02 1c3e c20e 723e c7d5 9b3e
00000350: 7c8e c43e 504b 05be 0866 47be e52c d1be
00000360: 8d69 c13e de8f f13e 10f8 56be d4fd bd3e
00000370: 0ced efbd 0f45 e8be 9613 a53d 4565 eebe
00000380: f908 55be 2326 7ebe 7bb5 523e e1b4 cd3e
00000390: 00a3 b03e 772f e13e bb3a c9be b809 d5bd
000003a0: 914c 873d 8303 c4be 966e 1bbd 3e6f 76bb
000003b0: 2830 c0be 5f91 8f3e e802 613b a3a6 5ebe
000003c0: ae8f c33e ce77 19be 8774 c33e e1eb 6c3e
000003d0: 0162 4b3e 97ab fabe 9df7 0d3e fc93 e43c
000003e0: c7b5 24be e8fc af3d cb74 c83e 47b0 72be
000003f0: ce2e 12be 4db8 74be a157 b23e 9298 87be
0.08545567 0.056863636 0.35867673 -0.18305418 -0.05364892 -0.10149435 -0.2728549 -0.2185167
-0.063743494 0.28778332 0.4656749 0.08995704 0.26823243 -0.18041217 0.06391558 -0.40295377
-0.2899547 -0.29540023 -0.31462392 -0.39186972 -0.41187924 -0.11334364 0.11034659 0.39153832
0.24187046 0.42957002 -0.088323094 -0.2638015 0.3564219 -0.08266386 -0.2545034 0.17840527
0.0078119747 -0.4405356 0.34652296 0.18443552 0.2532171 -0.44547912 -0.30098587 0.49860153
-0.29976863 -0.26275918 0.38496393 0.36235538 0.31099758 0.039423864 -0.3875757 -0.3687581
0.3187722 0.065705255 -0.44939572 0.3633389 0.3891744 0.07911694 -0.4149566 0.17382304
0.00155016 -0.20729104 0.38273188 0.16943435 -0.19435818 0.3462036 -0.27803278 0.17592402
0.07330202 0.30205846 0.22398394 0.17413554 0.258433 -0.3740064 -0.27693757 -0.35949734
0.23356654 0.05616967 0.1964028 0.39528525 0.24802102 -0.23837319 0.35425672 -0.17360558
-0.5405651 0.111107185 -0.27323136 -0.12521519 -0.21091123 -0.10807004 0.012014476 0.45326602
0.28765976 -0.12973857 -0.307212 -0.058598034 -0.025777053 -0.033789318 -0.15993626 0.21372047
-0.09340671 0.15586846 0.3374849 0.11120135 -0.16088085 -0.25424296 0.009401026 0.20705917
-0.37388757 -0.08482224 -0.24155746 -0.33167014 0.3461028 -0.081221 -0.37173128 0.38937208
-0.012938191 -0.33508918 0.096763395 0.18821537 0.18234979 0.39948902 0.01938435 0.015723318
0.0011051313 0.10848676 -0.43105206 0.30034912 0.35056722 -0.22162138 0.1612647 0.25189924
-0.090808116 0.30073905 -0.06814084 0.1661065 -0.11840776 0.3308203 -0.29361147 0.20935546
0.23873422 0.34907463 0.18444127 -0.04752035 -0.13542841 0.26818 0.1567972 0.30987185
-0.3058807 -0.074054636 -0.22140343 -0.09423044 -0.11777989 -0.08221212 -0.2509248 -0.26403028
0.16505617 0.4203381 0.33862752 -0.15386726 -0.21048339 0.11230978 -0.19717042 -0.19118334
-0.3517195 -0.3699341 0.19440897 0.40501475 0.3870018 -0.35219476 -0.02862567 0.12576848
-0.48413065 -0.18222514 -0.23191588 0.30273393 0.31359786 0.32096556 0.05510091 0.0033373237
0.17141753 -0.45072806 -0.25854278 0.17942142 0.030752549 0.17776452 0.059118465 -0.39788827
-0.17929287 -0.07389329 0.2573733 -0.31783044 -0.24349584 0.12551808 0.40732345 0.08276272
0.21541013 0.047882624 0.03185247 0.11750384 0.18310934 0.2729564 0.463982 -0.20484222
-0.37334028 0.07337623 0.016842227 0.013867381 0.29741117 -0.23162523 -0.30001655 -0.17071454
-0.017762579 0.15235184 0.23638442 0.30436537 0.38389957 -0.1301701 -0.19472516 -0.40854564
0.3777584 0.47180074 -0.20993066 0.37107718 -0.11715135 -0.45365188 0.08060376 -0.46561638
-0.20804204 -0.24819236 0.20577042 0.40177062 0.3449936 0.43981525 -0.3930262 -0.10402244
0.06606401 -0.3828393 -0.03794726 -0.0037602927 -0.3753674 0.28040597 0.0034334008 -0.21743254
0.38195556 -0.14987108 0.3817484 0.23136856 0.19861604 -0.48959038 0.13863988 0.027902596
-0.16084968 0.0859316 0.39151606 -0.23700057 -0.14275667 -0.2389843 0.3483248 -0.2648359

model.0.bias f4 [32]
00000000: cc0c 72be 2ef5 033e 27c4 2cbe 451f 67bd
00000010: fcbd b6bd c837 04bd 2173 223d 89e7 3e3b
00000020: 510f 98bd f8e9 4c3e 2cef d8bc a459 7dbe
00000030: 6684 463e c3d7 33be 5b70 c73e 76e1 c13d
00000040: 7f5f 9cbd a724 abbe 9d01 58be da3e a53e
00000050: c77c 67be d7fe e13d ef29 96be 4a34 053e
00000060: 0116 30be 1627 783e 8650 513e 7975 17bd
00000070: cb2d c0be 1aa1 353d 67d0 23bd 38b3 c4bb
-0.23637694 0.12886497 -0.16871701 -0.056426305 -0.089229554 -0.03227976 0.039660577 0.0029129705
-0.074247964 0.20011127 -0.026481234 -0.24741226 0.19386443 -0.17562775 0.38952908 0.094668314
-0.07635402 -0.334264 -0.21094365 0.32274514 -0.22606193 0.11034935 -0.29328868 0.13008228
-0.17195894 0.2423366 0.20440874 -0.036977265 -0.37534937 0.04434309 -0.03999367 -0.00600281

model.4.weight f4 [32, 32, 3, 3]
00000000: d330 c3bd 56ce 92bd 107a 083c 4f6d 00bd
00000010: 24de a4bc 42e0 afbd bbdf 5bbd 9183 babd
00000020: 6d8d 77bd a2a4 01bd b313 a83c 74e6 b0bc
00000030: 007c 9d3b 38bc 9ebd 7d47 86bd 3a02 3bbd
00000040: 6f51 ccbc 7225 08bc dac0 7c3d c5b7 fd3d
00000050: 520a 1f3d eef3 adbc ec5e 093d 523d 4d3d
00000060: f531 e93c 0f73 b9bc 5b0d 14bd 2cc3 96bd
00000070: ace2 adbd 9c92 28bb 0172 403d 31e9 ea3d
00000080: 5221 0a3d 5d38 e03b 4ddf 843d 30c1 2d3e
00000090: 39c6 293e 2f6f 0f3e 5f3b f4b9 9645 6d3d
000000a0: 3799 043e aaf8 6f3d 0658 adbd 161d 8b3c
000000b0: 8ecb 873c 4036 063e e6d0 df3d 66a8 8c3d
000000c0: 1726 3f3d 5e87 603d a5c9 933d c9d4 19bc
000000d0: 5e55 53bd 743e 223d 81b0 1fbd 265a 773c
000000e0: b8a5 45bc a4b7 1dbd b102 4cbc 9797 863d
000000f0: be5f 66bc 2f71 563d b749 e13d d21b 723b
00000100: be24 bcbc 1982 cfbd e953 d83c 7e33 513b
00000110: ba02 06bd 3d82 b8bd c024 9fbd c718 92bd
00000120: 5357 d1bd e3db 06be 9ada 0bbe 163a eebc
00000130: 471e d4bd 1914 ee3c 72c5 813c 17b7 0abd
00000140: c23a b33c c956 c03d 0d69 af3d db44 283d
00000150: 3254 7bbd c759 5a3c 3166 8d3d 09e3 86bc
00000160: 96cd 27bd dc22 fe3c 0e93 1abd fcc8 06bc
00000170: face 05bd 7fad 00be 920f ecbb a839 d8bc
00000180: 771b 133d a04a b3bd 12dc d83c 0a41 a6bd
00000190: 7955 4bbd 7020 853d d947 e2bc 8669 82bd
000001a0: 3bf5 f6bb f659 bebc 3965 66bd 2f19 2abd
000001b0: e22e 263e f4c9 a73d af03 87bd a8e7 583c
000001c0: 9b01 c03d 13d5 df3d 3d7a 863d 2370 493d
000001d0: 7a58 033e 9e18 b6bc 1165 7e3c 1ec2 b6bd
000001e0: fa68 ef3c a44a 5d3c aa34 58bb f7e5 653c
000001f0: d248 d4bc 8e58 913c 21c5 f3bc f449 c3bd
00000200: 7e8a 74bd 705d a9bb 8ca1 8f3c b374 28bd
00000210: fa2e 85bd 7199 a03c 407f dd3b d7a6 1abd
00000220: 9db0 3bbd 6306 17be 766c e43b 1932 d9bc
00000230: 29a7 84bd a3e7 a33c 64e0 043b 2b5b f1bc
00000240: 2754 b9bd 594c 5ebc ab30 283d fa5b 9abd
00000250: df5e 37bd e897 a73c 566d 35bd 3d2b 45bd
00000260: 99e6 a3bd 911b 1ebd b79e a7bc 5884 ef3c
00000270: d11a adbd 4f53 1dbe 2978 9dbc 4fcd f8bd
00000280: 997f b9bd 2f5a ebbd 9cff 423d 0385 7e3d
00000290: f4d1 c23d b953 e53c 512c ec3d 4384 c83c
000002a0: 1e33 d9bd 0ca3 80bb 38dc c7bd 5e68 483d
000002b0: 423e 293c 3b34 a5bd 126b 943c 87fc 9dbb
000002c0: a184 30bd 14c5 713d c51e 403d 2ada e73a
000002d0: 27ad 22bd 5fce 573d de21 df3d 3758 8fbd
000002e0: a832 923a 29d1 273c 63c2 b5bd e349 1dbd
000002f0: 93d5 b7bd a109 69bd c509 11be 7e53 b6bd
00000300: 518c 353d fe14 973c b721 a3bb f7fe de3a
00000310: c43e 563d 96c7 b8ba c5ec b3bc 7910 e9bc
00000320: a929 14bd dd72 dd3b 464e 34bd 5b7c bc3d
00000330: c537 e23b e49b 9a3d 56a2 843d 2f7f 11bd
00000340: 154f 703c c158 c4bb 5eb9 b03c 588e ddbc
00000350: 1ced 32bd 61e0 433d 706c 40bd 5ede 7dbc
00000360: 68e8 9bbd 5404 bfbd 8f67 98bd 0522 26be
00000370: ae95 21be cebf c7bb e0bb 90bd 1349 4c3c
00000380: de96 aabd 41a1 4b3d 00ed 023d acd7 19bd
00000390: 03a5 273b 1211 25bd 0ef0 6e3d c89a 403d
000003a0: 6aa2 d53c 4539 2cbd 8ca6 103e 3ed9 e13d
000003b0: ee6a 853a bf6c 923d 9560 5b3d 7b73 1d3d
000003c0: 8fd8 24bd 57b2 8d3d 8a62 113d 9743 8e3c
000003d0: 7f98 763d 407d b3bd 7312 d63c 27b1 933d
000003e0: 0b17 583d abee f9bc a134 383d 3415 e33d
000003f0: 0543 9e3a ba0b e43d 5648 e03d ce6d 8e3d
-0.09530797 -0.07168262 0.008329883 -0.031354245 -0.020125456 -0.08587696 -0.053680163 -0.091071256
-0.06043761 -0.031651147 0.020517206 -0.021594264 0.0048060417 -0.07750744 -0.06556604 -0.04565642
-0.024941174 -0.008309709 0.061707355 0.12388567 0.0388282 -0.021234479 0.03353779 0.050107308
0.028466204 -0.022637872 -0.03614555 -0.07361445 -0.084905 -0.0025722152 0.046983723 0.11470259
0.033723183 0.0068426565 0.06487904 0.16968226 0.16579522 0.14007257 -0.00046583542 0.05792769
0.12949072 0.058586754 -0.08464055 0.016981643 0.016576555 0.13106632 0.10928516 0.06868057
0.046667185 0.054816596 0.07216195 -0.009389111 -0.051595084 0.03961034 -0.038986687 0.015097177
-0.012063436 -0.03850521 -0.012451814 0.06571882 -0.014060913 0.052354034 0.11000388 0.0036942852
-0.022966739 -0.10132236 0.026407199 0.003192156 -0.032717444 -0.09009216 -0.077706814 -0.07133632
-0.10221734 -0.13169818 -0.13657609 -0.029080432 -0.103573374 0.029062318 0.01584122 -0.033866014
0.021878604 0.09391553 0.08564959 0.04108129 -0.06135959 0.013327069 0.06904257 -0.01646568
-0.040967546 0.031022482 -0.0377379 -0.008226629 -0.03266809 -0.12566184 -0.0072040046 -0.02639468
0.035914864 -0.08754468 0.026472125 -0.08117874 -0.04964206 0.065003276 -0.02762215 -0.06367783
-0.007536558 -0.023236256 -0.056248877 -0.041527923 0.16228822 0.081928164 -0.065924995 0.013238825
0.09375306 0.109293126 0.06566284 0.049179208 0.1282672 -0.022228535 0.015527026 -0.08923744
0.029224861 0.013506565 -0.0032990375 0.014031879 -0.02591363 0.017742421 -0.029757084 -0.0953559
-0.05970239 -0.0051686093 0.017533086 -0.041126918 -0.06503101 0.019604417 0.006759554 -0.037756767
-0.04582273 -0.1474853 0.0069709374 -0.026513146 -0.06477196 0.020007914 0.0020275349 -0.029462418
-0.09049254 -0.013568007 0.04106204 -0.075370744 -0.04476821 0.020458177 -0.044293724 -0.04813694
-0.080029674 -0.038600508 -0.020461423 0.029237911 -0.084523804 -0.15363811 -0.019222336 -0.121485345
-0.090575404 -0.114918105 0.04760705 0.06213857 0.09512702 0.027994024 0.1153189 0.02447713
-0.10605453 -0.0039256867 -0.097588 0.048927657 0.010329785 -0.08066603 0.018117461 -0.0048213634
-0.043095235 0.05902584 0.046904344 0.0017688919 -0.039715912 0.052687045 0.108951315 -0.069992475
0.0011154013 0.010242739 -0.08874967 -0.038400542 -0.08976283 -0.05689395 -0.14163883 -0.089026436
0.04432327 0.018442627 -0.0049783844 0.0017013241 0.05230595 -0.0014097567 -0.021963486 -0.028450238
-0.036172543 0.0067580775 -0.04401996 0.092034064 0.006903621 0.07549265 0.064762756 -0.035521682
0.014667292 -0.0059920256 0.021572765 -0.027045414 -0.043683156 0.047821406 -0.046978414 -0.015494911
-0.07612687 -0.093269974 -0.07441627 -0.16223915 -0.15779755 -0.006095863 -0.07067084 0.012468594
-0.08329557 0.04971433 0.031964302 -0.037559196 0.0025580532 -0.040299483 0.058334403 0.04702261
0.026078422 -0.042046804 0.14126033 0.11027764 0.0010178962 0.07149648 0.053558905 0.03844021
-0.04024559 0.06918781 0.035494365 0.017366214 0.060204025 -0.08764124 0.026131844 0.072115235
0.05275635 -0.030509314 0.044972066 0.110880286 0.0012074417 0.11135049 0.10951297 0.06954537

model.4.bias f4 [32]
00000000: 2263 3f3d 08ec 0bbd 8d5a 66bd 5017 ae3c
00000010: 4e53 113d 2906 05bd 1bf5 0ebc 83b9 0d3d
00000020: 06ea 20bd 439d cb3b b93f d53b a0ce 58bb
00000030: 4990 173d 91b1 6ebd 8d46 09bd b511 afbb
00000040: a4af 933c 5972 353d 7d62 643d f075 813d
00000050: 2f3d fbbc 4e7d bbbc c7ca e73c 704f 12bc
00000060: 3462 193d 836f 603d 9e85 bebc 34dd 83bd
00000070: 5ecf 053d 5f18 6e3b ce9b ddbc 6098 303d
0.0467254 -0.034160644 -0.0562387 0.02125135 0.035479836 -0.032476578 -0.00872543 0.034600746
-0.039285682 0.0062138154 0.0065078405 -0.0033082142 0.037002835 -0.05827481 -0.033514548 -0.005342687
0.018028088 0.044298504 0.05575799 0.06321323 -0.030668823 -0.022886898 0.028294934 -0.008930072
0.03744717 0.054793846 -0.023257073 -0.064386755 0.032668464 0.0036330444 -0.027051833 0.043114066

model.9.weight f4 [128, 800]
00000000: 650d 013d e0e6 13bd f148 46bb 322b 193c
00000010: 1e91 f5bc d418 d9bc daba 863b e866 98bc
00000020: 51a8 43bc 296b ad3c 70b0 943b 7f60 15bd
00000030: 5be4 b3bc 57c2 c83a 471a e03c aede d53c
00000040: 63ba dfbc 0d64 f7bb c20a 99bb 2651 ebbc
00000050: 7a0f b93c e5fd 923c d0e8 14bc 32db 273c
00000060: 997c 96bc 63fe 43bb c78b c7bb d069 dbba
00000070: d35a ca3c f463 a13c 219f 9abc 5d2f 3fbb
00000080: 46bf 17bd 893c 51bb 5179 95bc 3daa 4cbc
00000090: 7c9d 133c d5fd 46bc 5a3d ca3c 5d66 1dbd
000000a0: 2c6c b43b 5697 ed3b 57f4 c1bc 2cd5 943c
000000b0: 4dfc 01bb 025b 25bd ed70 b5bc bedc 2cbc
000000c0: a9d5 813c 134c 943c 7789 5a3c e080 7bbc
000000d0: d6fc 5d3c 57c1 bb3b 8fe5 9dba dc34 afbc
000000e0: 4347 e0bc f8a6 ecbc 7339 c0bc 8c8d 12bd
000000f0: 82e0 e0bc 5909 d1bc 8e5e 29bc f842 13bd
00000100: 1eba a63c 0e98 06bd 1849 f8bc 7d30 8e3c
00000110: 011e 92bb b486 05bb a8af 8bbb d6c0 caba
00000120: 33b1 8a3b 423c 90bb 8738 743a 9154 b3bc
00000130: 2999 f53c 319b 1b3d 0616 c93c 3692 9fbc
00000140: f8ef 0ebd ea93 b0bb 8c6e 983c 2e15 233b
00000150: 780c 8d3c 90c9 97bc 47b7 683c cf28 c8bc
00000160: f3af 68bb d6cb 2ebc c0c7 2bbc 1cb6 9d3c
00000170: 37a0 23bb 205c 30bc d82f e43c b8d0 a4bc
00000180: 60b2 513c 9161 d4bc a1e9 823c b06f a23b
00000190: ff49 ce3c 6580 c33c e3f3 a43c 4a43 13bd
000001a0: 614f 1b3c ed5d 213d be55 11bd 894d ebbc
000001b0: 9125 5b3c 1bc9 123b 9652 22bd a7cc 053c
000001c0: 8870 113c e681 03bd 3b7a 7d3a bb80 56bc
000001d0: d9a8 abbc a3fc dcbc 05b5 27bc b1fa e2bc
000001e0: 0a3d 9fba ee72 c83c 1660 f03c 8f09 17bc
000001f0: c147 c93c f2ad c03c 29d0 323c 1622 1e3b
00000200: 41e1 99bc 7e34 6b3c 625f 92bc 5963 15bd
00000210: 9c00 17bd 0654 4839 ca71 e13b 54fc 1a3b
00000220: 3901 1abd b633 10bc 5120 21bb 8305 fdbc
00000230: b460 9cbb 8496 393c b7b1 26bd 9969 ae3c
00000240: 3e1e 1f3c 193c d9bc 7ef6 2cbc 1ad2 c73c
00000250: 24ad 2b3c 8976 8dbc 80a8 863c 68b3 d73c
00000260: c1c1 0abd 48aa 20bc b721 25bd 55b4 28bd
00000270: 7afb 963c f1a1 af3b 31ab 79bb f6be 9a3c
00000280: b200 1dbd f8e4 fdbc cbc2 a63b e328 8bbc
00000290: 6dac 30bc 3d8c de3c 12cb 5d3c 96ad cabc
000002a0: db14 db3c d952 ebbb c4ca 043b 60c8 1cbd
000002b0: 6f57 f4bc 3e76 e23c 591b 2abc d4a4 a33c
000002c0: 0a5a 73bb cfc9 8cbc 5cfe e5bc 0392 d43c
000002d0: 8d0b 06bd 94ee 923c bcd7 f03a 464d 09bc
000002e0: fef1 eabc ce5a 563c 0d37 e93c af00 f9bc
000002f0: 2017 dc3c 436e 9b3c 3db5 9bbc b455 3bba
00000300: 6f38 db3c b2ea b03c c3d3 2b3c 67fd 15bd
00000310: 0315 d83b 17d3 d23b 979d a5bb 0acf a4bc
00000320: 7286 ad3b 5525 50bb 91d9 d73c 0584 373c
00000330: 8985 bd3c 308b a13c 54e5 dcbb f67f 173d
00000340: 0e25 c03c 9b33 08bd 8c52 d6bc 9eb5 47ba
00000350: 31b7 d13b 8280 90bc c9c1 6f3c 3444 1dbc
00000360: 326c 8d3c c107 01bd 11e5 b5bc e61c f53b
00000370: a052 873c 40ba e3bc 8dae acbc a9b7 2fbc
00000380: 1ee8 b7bc f60a 53bc 335e 60bb 61f7 ac3c
00000390: 4278 18bd 17c4 db3b 9af6 c6bc 8237 f8bc
000003a0: 556f 6fbc 16c1 8fbb b86d 1abd de99 a0bc
000003b0: 9ad0 24bd 4d19 febb d529 093d 4c48 e23c
000003c0: c79d 97bc 94eb 10bb a682 133b 318d 0cbd
000003d0: 6db0 843b 0d71 77bc db01 3dbc 28cc 16bc
000003e0: e377 e13b d531 81bc 9826 093c 72f2 083c
000003f0: 9419 c3bc fee9 2bbc 4c42 91bc 3d3e f03c
0.031506915 -0.03610885 -0.0030255879 0.0093486775 -0.029976424 -0.026501097 0.00411163 -0.018603757
-0.011941985 0.021169262 0.0045376346 -0.03646898 -0.021959474 0.0015316707 0.02735628 0.026107159
-0.027310556 -0.007549769 -0.004670472 -0.028725218 0.022590388 0.017943332 -0.00908871 0.010245131
-0.01836996 -0.0029906265 -0.006089661 -0.0016739909 0.024701511 0.019700982 -0.018874707 -0.0029172518
-0.037047647 -0.003192695 -0.018246325 -0.01249176 0.009009715 -0.012145479 0.024687458 -0.0384277
0.005506059 0.0072507067 -0.02367608 0.018168055 -0.001983422 -0.040369995 -0.022148574 -0.010550676
0.015848951 0.018102681 0.013338438 -0.01535055 0.01354905 0.005729835 -0.0012046563 -0.02138751
-0.02737773 -0.02888821 -0.023464894 -0.03577952 -0.027450804 -0.025517153 -0.010337485 -0.03595254
0.02035242 -0.032859854 -0.030308291 0.017357105 -0.004459143 -0.0020374479 -0.004262883 -0.0015468847
0.0042325496 -0.0044017145 0.00093162846 -0.02189091 0.029980259 0.0379898 0.024546634 -0.019478898
-0.03489682 -0.0053887265 0.0186074 0.002488445 0.01721786 -0.01852873 0.014203853 -0.024433522
-0.0035505265 -0.010668715 -0.010484636 0.019251876 -0.0024967322 -0.010764152 0.027854845 -0.020119056
0.012798876 -0.02592543 0.015980544 0.004957162 0.025181768 0.023864934 0.020135825 -0.035952844
0.009479375 0.039396215 -0.03548216 -0.028723495 0.013375656 0.00223977 -0.03962954 0.008166469
0.008876927 -0.032106303 0.0009669398 -0.013092215 -0.020954536 -0.026975935 -0.0102360295 -0.02770743
-0.0012148928 0.024468865 0.029342692 -0.009218588 0.024570348 0.023520444 0.010913887 0.0024129204
-0.018784167 0.014355777 -0.017867748 -0.0364717 -0.036865816 0.00019104787 0.00688002 0.0023648934
-0.037598822 -0.008801391 -0.0024585912 -0.030886417 -0.00477227 0.01132739 -0.040696826 0.021290587
0.0097118 -0.026517915 -0.010556815 0.024392176 0.010478292 -0.017268436 0.016437769 0.026330665
-0.033876184 -0.009806223 -0.040315356 -0.041187603 0.01843046 0.005359881 -0.0038096423 0.018889885
-0.03833074 -0.03099297 0.005089139 -0.01698727 -0.010783297 0.02716648 0.013537185 -0.024740975
0.026743343 -0.007181507 0.002026246 -0.03827703 -0.029826848 0.027644273 -0.010382497 0.019976057
-0.0037132525 -0.017186074 -0.02807539 0.02594853 -0.03272586 0.017936029 0.0018374841 -0.00838024
-0.028679844 0.013083173 0.028468633 -0.030395834 0.026866496 0.018973475 -0.01900732 -0.00071462546
0.026760308 0.021596286 0.0104875 -0.036618616 0.0065943017 0.0064338553 -0.0050541866 -0.020118255
0.005295568 -0.0031760533 0.026348861 0.0112009095 0.023134964 0.01971969 -0.006741205 0.036987267
0.023455169 -0.03325234 -0.026162408 -0.00076183106 0.006400012 -0.017639402 0.014633604 -0.00959878
0.017263506 -0.031501535 -0.022203954 0.0074802516 0.01651889 -0.027798772 -0.021079326 -0.01072494
-0.02244955 -0.012881031 -0.0034235835 0.021114053 -0.03722406 0.0067067253 -0.02428751 -0.030299906
-0.014613946 -0.0043870313 -0.037702292 -0.01960462 -0.040238 -0.007754481 0.03348716 0.027622364
-0.018507851 -0.0022113072 0.0022508292 -0.034314338 0.004049352 -0.015102637 -0.011536087 -0.009203948
0.0068807467 -0.015770832 0.008371018 0.008358585 -0.023815908 -0.0104928 -0.017731808 0.029326553

model.9.bias f4 [128]
00000000: a93d 71bc 9583 c53c 8cfb 393c 43cb 78bb
00000010: 3930 b1ba 2d54 653b 7266 3d3d b6b1 4fbc
00000020: e0fc 0dbd 0447 3ebd dedc 183d a898 283a
00000030: 7acb 1b3c c87f 1f3a 32e3 c23c 4531 8f3c
00000040: 2321 0f3c 0336 7ebc 0fa6 b43c 2992 7e3d
00000050: a259 b03c 8a5b b83c bce1 cb3c ebf3 153c
00000060: bd43 3d3c 75df b339 9a7f ff3c 8dbe a8bb
00000070: f77a 913c 9f13 933b effe 17bd 77f4 793c
00000080: cea9 13bc 3699 4cbd 7e1a a5bb 736e a9bc
00000090: 261f b23b 29d2 0d3c 07e6 6a3a 1361 18bc
000000a0: 4a94 ea3c 7333 de3b 6265 b13c 858a a6bc
000000b0: 8f96 b7bb df0b d3bc d418 fa3c 8142 84bc
000000c0: cfcd 1f3d 12c1 bb3c 654b 67bc 5c1f e4bb
000000d0: 339e 1f3b e2ab 0cbd 8914 6f3c 5a53 88bc
000000e0: 475e cbbc b689 96bc e947 de39 0513 f5bc
000000f0: ebc0 dc3c bde5 9dbc e9c4 31bd de80 003d
00000100: 0b3a 28bd 2b92 eebc f3d3 82bc 6c4a 923c
00000110: 4a13 94bb ac83 13bc fe3b 0d3c 5893 f5bb
00000120: 8173 ef3c c126 85bb a1df 4c3d 583c bbbc
00000130: cea2 63bc 748c 26bc a5e2 34bd a12c 1abd
00000140: 7ac3 763a b265 66bc 6bdc 303d 78a3 d73c
00000150: 324a c6bc 1300 013d 022e 8f3b ec7b 313d
00000160: e7c0 80bc 7f76 293d a5ef 803a fd9a b83c
00000170: 473c 18bd 848c 37bb 92f5 a5bc c336 20bd
00000180: 497b 633c ffb1 10bc 741e 41bd 4fe4 bfbc
00000190: bf64 5c3b c091 393c c1ab e43c 6ee7 d5bb
000001a0: 2095 db3c 6666 e8bc 29c7 adbb 1c97 15bd
000001b0: 4ffb e4bc d277 2abd 90c0 bf3c eff3 a33c
000001c0: c454 3d3d 1472 e738 7030 9bbb 43b2 77bd
000001d0: 68b2 cdbc be73 b3bc 13ae b2bc 7ee3 93bc
000001e0: 9c3b b73c 4e8f a4bc 5f83 c53c 919b d8bb
000001f0: f5db c33b aaa0 5bbc 2294 0e3d 2c12 15bc
-0.014724174 0.024110595 0.011351477 -0.003796295 -0.00135184 0.00349928 0.046240278 -0.012676647
-0.03466499 -0.046454445 0.03732001 0.0006431439 0.009508962 0.00060844095 0.023789976 0.017479548
0.008735928 -0.015515807 0.02205184 0.062151108 0.021527115 0.022504587 0.024887912 0.009152393
0.011551795 0.0003430803 0.031188775 -0.0051496685 0.01775883 0.004488423 -0.037108358 0.015256039
-0.009012653 -0.0499508 -0.0050385585 -0.02068255 0.005435842 0.008656063 0.00089606683 -0.009300488
0.028635163 0.0067810356 0.021654788 -0.020329723 -0.005602665 -0.025762497 0.030529417 -0.016144993
0.039014634 0.022919212 -0.014117097 -0.006961746 0.0024355769 -0.034343608 0.014592298 -0.016641308
-0.024825228 -0.018376213 0.00042396717 -0.029916296 0.02694746 -0.019274587 -0.04340068 0.031372897
-0.04107098 -0.029122433 -0.015970206 0.017857753 -0.004518901 -0.009003561 0.00862026 -0.0074943714
0.029229881 -0.0040634577 0.050017957 -0.022855923 -0.013893796 -0.010165323 -0.044161458 -0.037640218
0.00094132836 -0.014062332 0.043178957 0.026323065 -0.024205301 0.03149421 0.004369498 0.04333107
-0.015716983 0.041372772 0.0009837045 0.022534842 -0.03716686 -0.0028007338 -0.020258699 -0.039114725
0.013884374 -0.0088315 -0.047148183 -0.023424296 0.0033629385 0.011326253 0.02791393 -0.0065278327
0.026804507 -0.02836914 -0.0053032828 -0.036521062 -0.027951865 -0.041618176 0.02340725 0.020013778
0.046223417 0.00011036187 -0.004735999 -0.060472738 -0.025109485 -0.021905776 -0.02181152 -0.018052813
0.022367291 -0.020087864 0.024110494 -0.006610342 0.0059771487 -0.0134050045 0.03480924 -0.009098571

model.12.weight f4 [10, 128]
00000000: 8061 083c af6c b4bd 9441 563d 1a9b ebbd
00000010: bda9 b53d 4de7 2fbd bc06 023e 50c5 8e3d
00000020: bec3 f63c a469 c7bb f7d8 e8bd 22c9 adbc
00000030: a28b ecbd 5588 cdbc d0ce 0cbe 3c6f 54bd
00000040: e5af 29be 8fb4 d83c 9df2 b3bd bf28 243d
00000050: b2be 983d 5cda e23d 2b5e 483c e8e7 c63d
00000060: dfd6 4f3d 3c95 0abd f4ab 0fbe 4d01 76bd
00000070: b873 13bd ff6b aa3d 1f85 343d 9a41 3a3d
00000080: 0f86 3e3c 9ae2 fe3b 7447 0a3d 68a9 6d3d
00000090: 47da a93d d2fe fdbd 8203 11be 6657 b33d
000000a0: 7671 f9bd 5211 9d3d 8fb9 ccbd 95b6 913d
000000b0: e93f 2dbe a773 6d3c 47aa e0bd 380f cdbd
000000c0: dd11 88be 5a75 86bd 40da ab3d 8ba2 913d
000000d0: 5380 28bd 8c33 b73d e9b3 1f3d 7431 40bd
000000e0: 9648 10be 661b 20be 3621 0fbe 5eeb 523d
000000f0: 21d4 a53d 7dd8 16bd 55ac dfbd 09eb b83d
00000100: a70d 5cbd e5d3 2b3d c235 20be ea3e 4abe
00000110: 0288 4bbc 179b 8dbd ff97 bfbd a916 8fbd
00000120: 3bb9 04bc e810 9e3d 8c70 503d 4195 9e3d
00000130: e3ea c93c a6ae 1fbd 6903 1abe a7b5 3bbe
00000140: aabc 093d 0902 c23d 69e4 813d 0483 e73d
00000150: bea4 9c3d 4cce 9abd 2220 8cbd 8656 423b
00000160: 9951 19ba a311 10be f3b6 86bd 1554 dd3d
00000170: b3b9 893d dc12 0fbd 728e aa3d a8d2 b8bd
00000180: c11d 8f3d 4812 b23d b500 51bb 1148 9a3d
00000190: 52ec cb3c 7963 02bd 16a5 6c3d 6ff1 bbbd
000001a0: 8337 c0bd 121e 1fbd 4dad fabd f90d 4abb
000001b0: c04d 083d 3636 b1bd 7d70 c53d 26c3 66bd
000001c0: c8b3 e63d ebd3 2bbd 6596 0c3c 2759 dfbd
000001d0: f180 4bbd 5790 043e 2fd8 573d c3c2 12be
000001e0: fccb fa3d 0bff e0bd f187 c83d 84af ba3d
000001f0: 02e6 b23d 710a a2bd bf59 df3d ce14 623a
00000200: 4815 813d 5832 68bd 2e1f 29bd bb5e aabd
00000210: 4639 83bd a400 593d 28aa c0bd 6b77 32be
00000220: f2b6 14be f684 02be 54e8 a73d a73a 97bd
00000230: 126a e53d 7c92 08be 1537 ae3d d0e1 b9bd
00000240: 2daa ce3b a9c1 03be 00ff 2c3d 0243 e93d
00000250: 8d2e f9bd 466b a1b9 b1bb 873d 588e 843b
00000260: bbef 15be 6e90 b63d 1396 03be 2187 a33c
00000270: 0ca8 ca3d 0b85 d63a e264 93bc 0175 b73d
00000280: a026 883d 8107 3fbe 99c8 7abc b900 2b3d
00000290: c4ce 06bd 139e cb3d 532d 363d 0f6f 1dbe
000002a0: 838f bb3d b7ab 82bd 4360 cd3d 5d88 0cbe
000002b0: 7128 b4bd 97d0 c3bd 935c 2dbe 51e5 123e
000002c0: e134 553d 1246 d03d 7776 783d 7089 3c3d
000002d0: ce71 df3c e9de 02be cbfe 123d 00ca b63d
000002e0: e3fa 1c3d 887b edbd 3b17 e7bc 8427 50bd
000002f0: 6591 19bd cf8e 8bbc 5ac9 bebd 54de 683d
00000300: a615 63bd dbab 00be 53da 603d 41a8 0fbd
00000310: 1dab a43d d42e 8e3d c438 dabd a817 163d
00000320: 3404 13be eb55 bd3c f61b cf3d c7f1 b8bd
00000330: 7a5b a9bd 0fa5 2f3d 98aa dbbd 4ea3 a63d
00000340: 93ed e53d c44d ec3d 928b e1bd 55d1 dbbc
00000350: e4e9 cdbd 604a c93d 8a9c c5bd 123d a83d
00000360: 88ad 7ebd 57bf 853d 715a 3bbd c0b2 de3d
00000370: afcb 43be c1c0 833d 8eb5 08bd 71dd 7d3d
00000380: 890c 093d 4c10 33be 2702 28be 8b30 0a3d
00000390: f708 3abe 9eb4 7bbd 0f2f a43d a444 ecbd
000003a0: debd 84bd 88d3 143d 3dac f23d f926 fbbd
000003b0: 4d35 2cbd a986 f0bd b79b e6bd f548 e23b
000003c0: 08a8 eb3d bb33 803d 9c21 ab3d 2ce2 19be
000003d0: ce25 57bd b976 01be d2d8 9a3d 0ca1 3dbe
000003e0: 068a df3d f79d 6c3d 1033 8d3d 43fb 94bc
000003f0: 4412 8d3d aea0 a23d 216f d63d af27 2a3c
0.008324027 -0.08809792 0.052308634 -0.11504193 0.08870266 -0.042945195 0.12697881 0.06971228
0.030122634 -0.0060855914 -0.11369508 -0.021214072 -0.1155007 -0.025089422 -0.13750768 -0.051863894
-0.16571005 0.026453285 -0.08786509 0.04007792 0.07458247 0.11076805 0.012229483 0.09712201
0.050742026 -0.033833727 -0.14030439 -0.060059834 -0.03599903 0.0832138 0.044072267 0.04547272
0.011628642 0.007778478 0.03375955 0.058022887 0.08293586 -0.12402119 -0.14161494 0.08756904
-0.12179844 0.07669319 -0.0999633 0.07114903 -0.16918911 0.014492906 -0.10969978 -0.10012668
-0.2657613 -0.06565352 0.08391237 0.07111081 -0.041138005 0.08945379 0.038989935 -0.046922162
-0.1409019 -0.15635452 -0.13977513 0.051493995 0.08097101 -0.036827553 -0.109215416 0.090292044
-0.053723957 0.041950125 -0.15645507 -0.19750562 -0.0124225635 -0.06914347 -0.09355163 -0.06986744
-0.008100803 0.07718068 0.050888583 0.07743312 0.024648136 -0.038984917 -0.15040363 -0.18331014
0.03362719 0.094730444 0.06342394 0.11304286 0.076486096 -0.07558879 -0.06842066 0.0029653623
-0.0005848646 -0.14069228 -0.065778635 0.10807053 0.067248724 -0.034930095 0.083279505 -0.090245545
0.06988097 0.08694893 -0.003189129 0.07533277 0.02489296 -0.031833146 0.057774626 -0.09176909
-0.09385588 -0.038847037 -0.12240086 -0.0030831082 0.033277273 -0.08652918 0.09640596 -0.05633845
0.11264759 -0.041950148 0.008580779 -0.10905676 -0.049683515 0.12945686 0.052696403 -0.14332108
0.12245938 -0.109861456 0.09791554 0.09115508 0.08735277 -0.07912148 0.109057896 0.0008624316
0.06302887 -0.056688637 -0.0412895 -0.0831885 -0.064074084 0.052979127 -0.09407455 -0.17428367
-0.14522913 -0.12746033 0.0819861 -0.07384234 0.11201872 -0.1333713 0.085066 -0.090762734
0.0063069076 -0.12866844 0.042235374 0.11389734 -0.12167082 -0.00030788238 0.06627596 0.004045289
-0.14642231 0.089142665 -0.12850218 0.019961895 0.09895334 0.0016366554 -0.01799244 0.089578636
0.06647992 -0.18655206 -0.015306615 0.041748736 -0.03291203 0.0994226 0.04447682 -0.15374397
0.09158232 -0.06380408 0.10028126 -0.13723893 -0.08796776 -0.0956127 -0.16929846 0.1434529
0.052052382 0.10169615 0.060659852 0.046029508 0.027275946 -0.12780346 0.03588752 0.08925247
0.0383252 -0.11595827 -0.02820932 -0.050818935 -0.037492175 -0.01703587 -0.093157485 0.056852654
-0.055440567 -0.12565558 0.05489571 -0.03507257 0.0804045 0.069425255 -0.106553584 0.036643654
-0.14357072 0.023112258 0.10112755 -0.0903049 -0.08269401 0.04288202 -0.107258976 0.08136617
0.11226954 0.1153827 -0.11012949 -0.026833216 -0.10054377 0.09828639 -0.09648998 0.08214773
-0.06217721 0.06530636 -0.04574055 0.108739376 -0.19120668 0.06433249 -0.03337627 0.06197876
0.03345922 -0.17486686 -0.16407071 0.0337377 -0.18167482 -0.061451547 0.08016788 -0.1153653
-0.06481527 0.036334544 0.11849258 -0.12263293 -0.04204302 -0.117444344 -0.11260169 0.00690567
0.11506659 0.06259867 0.0835602 -0.15027684 -0.052526288 -0.12642945 0.075608864 -0.18518466
0.10914998 0.057767835 0.06894505 -0.018186217 0.068882495 0.079408035 0.10470415 0.010385438

model.12.bias f4 [10]
00000000: 401a a73c fe20 973d 98c8 b9bb 9955 9f3c
00000010: 9de8 23bb 8d0e 813d 9d92 80bd 75df 0f3d
00000020: 1593 d83c 62ef 7dbd
0.02039826 0.0737934 -0.0056696646 0.019449996 -0.0025010474 0.063016035 -0.06277964 0.035125215
0.026437322 -0.06199587
