modelos/pytorch/conv-pytorch-mnist.pt (torch, 457092 bytes, 8 tensors)

model.0.weight f4 [32, 1, 3, 3]
00000000: 3548 703e d286 193c 10ed 4dbe a735 433e
00000010: c8a4 b93e 00bb 84bd 80c4 a7be e117 82be
00000020: 8679 853e d865 cabe 8506 e23d 4c24 86bc
00000030: 5fbb 423e e7a7 b3be 257e 7a3d d745 a03e
00000040: 5c6b 1e3e 69cd 4d3e 2bfc 9e3e 5e9b c23e
00000050: f2d1 5ebd 63c3 9e3e d4f7 84be 8fb3 133e
00000060: cdbf 81be 820e 83be 0753 17be b204 d43e
00000070: b5b4 75be 03cd f0be ba7c c23e c021 923e
00000080: 2171 a5bd 58f5 753e 2982 a93e 1073 1fbc
00000090: be55 dbbd a3b8 ab3e a0d4 f7bd 9a92 19bd
000000a0: caee 8c3e e4d9 67be 90d6 8a3e 4d44 e03b
000000b0: 4001 ab3d f704 613e 7d1f 9d3d a56a 203e
000000c0: 90c8 d63d 9514 923d 52ee b33d cff2 f83d
000000d0: 3b2c 923e bc56 b53d a3cf 66bd fe7d a23e
000000e0: 1f7e 023c 548f b23e fe3e 933e 7756 1abe
000000f0: ab76 283e 53f3 2abe 6fb2 99be 4cec 05bd
00000100: c162 c9be 855c dabd 2272 82be 5ea4 a73e
00000110: 92e6 383e 9281 433e 4161 13be d62d 763e
00000120: 8eb4 b3be defe b1bd 0818 d6bd a0ac a53c
00000130: e07e 5cbd a8f3 5abe 5edf 813e 406b 0f3e
00000140: 8c4e c23e c572 8a3e 15fb 273e 997d c6be
00000150: 127b 993e 24e3 1d3e 5142 bbbe b523 673e
00000160: 9c92 623d c428 673e ddb9 c23e bc8a 9e3e
00000170: bead c93e c26a 4ebe ace9 f43d b129 153e
00000180: ecc3 68be 05bf bdbe 944c c7be 59e1 a03d
00000190: 37d2 973c d396 80bc d944 cc3d 084d cd3e
000001a0: e1ee c5be 13f9 d1bd c126 0d3e 09a6 18be
000001b0: 84a4 fbbc ae40 d43e 1db7 12bd 966c bebe
000001c0: af1d 8a3e 7889 963e c561 a0be 94ac 48be
000001d0: 9b42 9f3e 334b 36be 1171 653e c4c6 1d3c
000001e0: d161 fa3d 7006 b8be 759c a3be 7762 9fbe
000001f0: a261 b83b 50c0 bf3d 3c18 60bd b4aa 35be
00000200: 6e08 cc3e 7924 463e b04b aabe ee7f aebe
00000210: 2a09 afbd 87c5 87be e5c2 81bc 245e a73d
00000220: 8077 8ebe 7c12 b4be da89 b13d 0fd6 bfbd
00000230: 04b6 0c3e d538 94be c4a3 80be accb 28bd
00000240: a6ce 453e e6fc 7abd fd29 98be 7d0d 63be
00000250: 683c b3be 9724 a7be 84c8 023d a630 0e3e
00000260: 73cc 5cbe ee43 1cbe dee7 99bd 280c 90bb
00000270: 8629 36be b5d3 94be 5d0a 64bd 00df 443e
00000280: 9b56 96be fafe 6b3e 49bd ec3d 3b2a 62be
00000290: 6e8c ad3d f40a 7abd 0694 c5bc 04b5 1dbe
000002a0: d452 273e 2123 a53e 2066 803e cbbd 0d3c
000002b0: e158 a3be 76b2 0f3e 7ab4 a8be beb3 53be
000002c0: 7c16 7b3d bb5e aa3d 206f 61be 2db2 b9be
000002d0: 34c6 963e 70e1 2bbe 0637 85be 8a29 bc3e
000002e0: d9bb 2ebe 7435 09be 9f08 1abc 19fb babe
000002f0: 62ca 3ebe 290d abbd d318 97be e5e0 a3be
00000300: 4cab 59bd 19e0 893e 21ee 21be d389 1cbd
00000310: aae4 5bbd c3ea 1cbc b34a e63d 2235 21be
00000320: 0e00 b83e a89e a63e eb88 2cbd be77 8e3e
00000330: 20b3 5ebe 9f0d b2be 3a81 62be 8f5c 37be
00000340: 0f1a 463e a39d 16be da59 92be ce85 343d
00000350: 094d 583e b0f1 a0be baab f0bd 5b68 abbe
00000360: 86f9 e8bd f796 81be 1749 dcbd d4db 4a3e
00000370: 662a 8f3e 9822 243e 55da 22be cd53 833e
00000380: 03c9 24be 60be a5be 3f53 943c 528a 693d
00000390: b2df 6a3b 44ae 69be 8b91 043e 2618 71bd
000003a0: bf64 a7be a6c5 f73d ecec 4c3d 3a88 a0be
000003b0: 3532 f2bc 4ab2 8f3d bbdf c33e b985 c33e
000003c0: c175 2bbd c27c 03be bfd6 a8be c667 8fbe
000003d0: 992d 2f3e 7ca7 913e 98bc dcbe e0ee 573d
000003e0: f2b0 8b3e 81bb 86be 93bf 8a3e 248b c83e
000003f0: 3d3c 8dbe 8c5b 7c3d 9791 bdbd edfe d3be
0.23465045 0.009370523 -0.20109963 0.19063435 0.3625853 -0.0648098 -0.32767105 -0.25408843
0.26069278 -0.39530826 0.110364 -0.01637473 0.19016789 -0.35089037 0.061155457 0.31303284
0.15470642 0.20097889 0.31051764 0.3800916 -0.05439944 0.31008443 -0.25970328 0.14423965
-0.25341645 -0.25597006 -0.14777766 0.41409832 -0.23994716 -0.47031412 0.37985784 0.28541374
-0.08078218 0.24019372 0.33107117 -0.009732023 -0.107097134 0.33539304 -0.12101102 -0.037493326
0.27525932 -0.22641712 0.27116823 0.0068440796 0.08349848 0.2197455 0.076720215 0.15665682
0.10487473 0.07132832 0.0878569 0.12155687 0.2854937 0.08854434 -0.05635036 0.3173675
0.00796464 0.34874976 0.28758997 -0.15072046 0.16451518 -0.16694383 -0.30018947 -0.032696053
-0.39333156 -0.10662178 -0.254777 0.3274259 0.18056706 0.19092396 -0.14392568 0.24040923
-0.3509869 -0.0869119 -0.10453802 0.020223916 -0.053831935 -0.2138201 0.25365728 0.14005756
0.37950552 0.27040687 0.16404374 -0.38767698 0.29976708 0.15418679 -0.36574033 0.22572215
0.0553156 0.22574145 0.38032427 0.3096522 0.39390367 -0.20157912 0.11958632 0.14566685
-0.22730988 -0.370598 -0.38925612 0.07855482 0.018532855 -0.015696919 0.09974069 0.40097833
-0.38658813 -0.10252585 0.13784315 -0.14907087 -0.030718096 0.41455597 -0.03581916 -0.3719222
0.26975772 0.29401755 -0.31324592 -0.19597083 0.31105503 -0.17802124 0.22406413 0.009629909
0.12225688 -0.3594241 -0.31955305 -0.3112981 0.005626873 0.093628526 -0.05471061 -0.177409
0.3985018 0.1934985 -0.3326087 -0.34081978 -0.0854667 -0.2651789 -0.015840003 0.08172253
-0.27825546 -0.35170352 0.08668871 -0.09367 0.13741308 -0.2894961 -0.25124943 -0.04120986
0.19317111 -0.06127634 -0.29719535 -0.22173114 -0.35007024 -0.32645103 0.031929508 0.13885745
-0.21562366 -0.15260288 -0.07514928 -0.0043959804 -0.17789277 -0.2906777 -0.055673946 0.19225693
-0.2936295 0.23046485 0.11559541 -0.22086422 0.084740505 -0.061045602 -0.024118435 -0.15401083
0.1634019 0.32253364 0.25077915 0.008651207 -0.31903747 0.14032921 -0.32950193 -0.20674035
0.06130074 0.0831885 -0.22015047 -0.3626875 0.29448092 -0.16785216 -0.26018542 0.36750442
-0.17063846 -0.13399297 -0.0094014695 -0.36519697 -0.1863189 -0.083521195 -0.29511127 -0.32007518
-0.053141877 0.26928785 -0.15813495 -0.038217377 -0.053684868 -0.009577456 0.112447165 -0.15742925
0.35937542 0.3254292 -0.042122763 0.2782573 -0.21748018 -0.34776017 -0.22119609 -0.17906402
0.19345878 -0.14708571 -0.28584176 0.04407292 0.21123137 -0.31434393 -0.11751504 -0.33478054
-0.11375718 -0.2531049 -0.10756128 0.1981042 0.27962035 0.16028821 -0.159036 0.25649872
-0.16092305 -0.32371807 0.018106101 0.05701668 0.00358389 -0.22820383 0.12946145 -0.05886092
-0.3269405 0.12098245 0.050030634 -0.31353933 -0.029564956 0.07016428 0.3825663 0.3818796
-0.041860346 -0.1284056 -0.32976338 -0.2800886 0.17107238 0.28448093 -0.43112636 0.052718043
0.27283436 -0.2631493 0.27099285 0.39168656 -0.2758502 0.061610743 -0.09256285 -0.4140543

model.0.bias f4 [32]
00000000: d529 a53b 31b0 7f3e d2e2 213e edd3 1abe
00000010: f565 983e 818c 273e 5885 0cbe 9f87 4cbd
00000020: 50c7 9d3c 1105 f8bc 1e37 0b3e f001 603d
00000030: 5d00 11be faba 4bbe 2229 903d 295d 0cbe
00000040: 9837 84be a290 8cbd 3527 8abd f3f4 3dbe
00000050: 730d f63c 5d99 633d 7690 833d 9274 1fbc
00000060: a8d2 76bd e797 67be b2de 1a3a 217a 37be
00000070: 23da cebd 70d8 073d fec1 05be a4bc aabc
0.005040387 0.24969555 0.15809181 -0.15119906 0.29765287 0.16362192 -0.13722742 -0.049934026
0.019260079 -0.030275853 0.13595244 0.054689348 -0.14160295 -0.19895545 0.070390955 -0.13707413
-0.25823665 -0.06863524 -0.067457594 -0.18550472 0.03003571 0.05556618 0.06424038 -0.009732382
-0.06025949 -0.2261654 0.0005907818 -0.17917682 -0.101002 0.033165395 -0.13062283 -0.020841904

model.4.weight f4 [32, 32, 3, 3]
00000000: ae85 87bd c19b eebd 6c3d 633c df75 bcbd
00000010: f96e e2bd c204 0f3b 282d 64bb 2476 f7bd
00000020: 854c cebc cc81 abbd 0e93 973d e0e3 e6bc
00000030: 7703 3ebd 980b 0d3d b357 50bc d8d0 953d
00000040: d8a9 a23d 5f3d d53b 371c 25bd 40ef b1bc
00000050: e6f6 d0bb 906f 9abd c28a bebd a3e1 90ba
00000060: a371 57bd bf82 88bc 162f 463d 6765 92bd
00000070: 0800 abbd 4b31 353d a233 a8bd 3afd a33c
00000080: 64e8 a03d 38ae f4bd 4379 953c c040 c63d
00000090: bc5e 00be 08a1 f4bc 4da3 ae3d b5e8 49bd
000000a0: 82e2 113d a576 403d 6ba5 d5bc d2f0 ce3b
000000b0: a200 8b3d ded0 5dbc 60b9 cb3d 2188 963d
000000c0: 949e aebd cd9d 443d ec14 a73c 4891 19bd
000000d0: e793 253c 652d 823b d5fe 77bd 467a c33a
000000e0: d75e 2c3d 4057 0cbe 51c9 09bd b865 d33b
000000f0: 3564 23bd 8e34 8d3d ba93 7a3c 2510 17bd
00000100: e562 a33d 1ca5 5d3a 0c73 3d3d 45ae 13bd
00000110: 1915 00bd 263c 7f3c 22a6 8e3d a29f 0c3c
00000120: c4a4 8a3c bbcb a1bc 72e8 843c 1e35 b33c
00000130: f25a 7c3c 2bc0 ebbc c747 803d 84d3 533c
00000140: a202 8cbd d0c2 adbc 8aaa 4bbd e6be c33d
00000150: ec97 09be 9b06 82bd 0d6e d33d 3bcd c9bd
00000160: 6c1d 743d 446d 733d e991 eb3c 8f49 a3bd
00000170: 957f 50bd f54e 443b 7f3b e9bd 754f 9d3c
00000180: bc7a 79bd 875a b5bd 11ef 4d3c 452e 8fbd
00000190: bd9c 13bc 9eb8 083e f1a2 68bd 12ff 56bd
000001a0: 57b8 563d fc2c ddbd 3897 853d bd9a 423c
000001b0: efe4 32bd 8740 e13d ed87 af3d 4c7c fabb
000001c0: a383 d73d 1bb7 7e3d 9137 b53c bf82 b53d
000001d0: 2215 243c b008 00bd 9730 c6ba a6f2 68bd
000001e0: 7b56 783d a63e 9ebb a0a8 b6ba 9909 043d
000001f0: a7fb d3bc 21a7 46bd 6646 1b3d 32fa 2e3d
00000200: 52ad 4a3c 74a0 b73b b2a6 87bb ef06 b8bc
00000210: eea2 ba3c c5ec 82bd b4ac 343b 2499 233d
00000220: 403c 203d d58e ad3b ac9f 733d ff03 96bc
00000230: 5fb4 313d 311f 8f3d e18d 94bd eff9 c63b
00000240: 81d4 233d 7027 26bd 156f 81bd 432f 313b
00000250: 211c 33bc cb0c 07bc 7878 323d dcb8 24bc
00000260: 1428 efbc 2e0a aa3d dd35 bb3c 571a c0bd
00000270: 50b9 2e3d 054b 693c 7e0d 7bbd c6f9 9c3c
00000280: 43e2 04bd 1035 d6bc 1590 49bc 008b adbc
00000290: 925d 16bc ecde 9dbd 674d ddbc f771 51bc
000002a0: 1c1c ae3c 9720 553d 9029 9cbc 1300 e3bc
000002b0: 45db a63c 77fd d5bc 3b40 e8bc e3ba 91bc
000002c0: 7475 a9bd 3be1 16bc 4acb 80bc 710e f03c
000002d0: 0a02 ac3b 0e0a a93c 85bc 5b3d 004f 5d3d
000002e0: 71f9 65bd 3049 963d 76d1 353c dbee b4bc
000002f0: b5c7 043c 54e1 8a3d f22e 9dbd f463 b2bd
00000300: 37e6 843d 9619 72bd 7e90 aebd f0fa 953a
00000310: 3da4 1abd a7a8 82bd 0f81 e3bc a4c9 01bc
00000320: 98a5 d93b b73d 83bd 1bf0 64bc c85d 5ebd
00000330: 6adc 70bd 9f94 1c3d 42c8 1d3d 954d c1bc
00000340: fc98 cebc 0c0f 4fbd a33a b6bc 9525 6ebd
00000350: b90a a5bd e182 383c 6cb7 b8bc bb17 6ebd
00000360: 86b0 c2bc abe1 013c 3a95 1b3c 6779 aabc
00000370: a965 663c 2c75 88bc 1f62 273d c4db 5f3d
00000380: 5895 6d3d d06d a8bc 8d68 933d 3848 b8bd
00000390: 5e22 713d aeb3 373c c447 92bd ec74 3f3d
000003a0: 51b4 a43d 97e1 dbbc 175b aa3a ee0d 8abd
000003b0: bbf9 af3b 0654 e1bd 8bdb 5dbc 332a da3c
000003c0: 39c7 46bd 85f3 7abd e049 8e3d 0db4 53bd
000003d0: 51df 463d 2907 003e d8a3 38bc d0fa 853d
000003e0: e696 053d eb90 a53d 5d24 e03d 70ba df3c
000003f0: fc1b 11bc dd3f ac3d fcad 573c 673c 1b3d
-0.06617294 -0.116508015 0.013869625 -0.092021696 -0.110563226 0.0021822904 -0.0034816954 -0.120830804
-0.025182972 -0.08374366 0.07401095 -0.028184831 -0.046390023 0.034434885 -0.012716222 0.073152244
0.079425514 0.00650756 -0.04031011 -0.021720529 -0.006377089 -0.0754081 -0.0930381 -0.0011053573
-0.052598607 -0.016663907 0.04838475 -0.07148247 -0.08349615 0.044236463 -0.08212973 0.020018209
0.07856825 -0.11947292 0.018246299 0.09680319 -0.12536138 -0.029861942 0.08527241 -0.049294192
0.035616405 0.04698815 -0.026079854 0.006315329 0.0678723 -0.013538567 0.09947467 0.07350183
-0.0852634 0.048002053 0.020395719 -0.037492067 0.010106063 0.0039726966 -0.06054576 0.001491376
0.042082634 -0.13705158 -0.033639256 0.006451335 -0.039890487 0.0689479 0.01529401 -0.03688063
0.07977847 0.0008455084 0.046252295 -0.03605487 -0.03127012 0.015578305 0.06965281 0.008582981
0.01692427 -0.019750467 0.01622412 0.021875914 0.015402542 -0.028778156 0.062636904 0.012928847
-0.0683644 -0.021211058 -0.049723186 0.09557895 -0.1343686 -0.06348916 0.10323725 -0.09853598
0.05959837 0.059430376 0.028756099 -0.079730146 -0.05090292 0.0029954289 -0.11388301 0.019202927
-0.060908064 -0.08855157 0.012569205 -0.06991247 -0.009009537 0.13351676 -0.056796018 -0.052489348
0.052421894 -0.10799596 0.06522983 0.011877713 -0.04367536 0.10998636 0.08570848 -0.007644212
0.105231546 0.06218634 0.022121223 0.088628285 0.010014804 -0.031258285 -0.0015120682 -0.056872033
0.06062935 -0.0048292456 -0.0013935752 0.032235716 -0.025876833 -0.04849923 0.037908934 0.042719074
0.012370424 0.0056038443 -0.0041397447 -0.022464244 0.022782769 -0.063928165 0.002756876 0.03994097
0.03911996 0.005296568 0.059478447 -0.018312452 0.043384906 0.06988371 -0.07253624 0.006072275
0.03999758 -0.040564954 -0.06320015 0.0027036227 -0.010931999 -0.008242796 0.04357192 -0.01005384
-0.029193915 0.08302723 0.022852832 -0.09380024 0.042657197 0.014239077 -0.061292164 0.01916207
-0.032442342 -0.026148349 -0.012302418 -0.021184444 -0.009177582 -0.077085346 -0.027014447 -0.012783519
0.021253638 0.052033033 -0.019062787 -0.027709996 0.020368228 -0.026121838 -0.02835094 -0.01778931
-0.082743555 -0.009208973 -0.015721936 0.029303761 0.0052492665 0.020634677 0.053646583 0.05403042
-0.05614609 0.07338178 0.011097303 -0.022086551 0.0081042545 0.06781259 -0.0767497 -0.08710471
0.064892225 -0.059106432 -0.085236534 0.0011442583 -0.037754286 -0.06379824 -0.0277715 -0.00792161
0.0066420548 -0.064082555 -0.013973261 -0.054288656 -0.058803953 0.038227674 0.03852106 -0.023596564
-0.025219433 -0.05055146 -0.022244757 -0.05814131 -0.08058686 0.011261673 -0.0225484 -0.0581281
-0.023765814 0.007927339 0.009496028 -0.020809842 0.014062324 -0.016657434 0.04086506 0.054652944
0.058003753 -0.020560175 0.07197676 -0.0899815 0.058870666 0.011212273 -0.071425945 0.046742365
0.08042205 -0.026840968 0.0012997118 -0.06740938 0.0053703464 -0.11002354 -0.013541113 0.02663145
-0.048529837 -0.061267395 0.06947684 -0.05168538 0.048552815 0.12502731 -0.011269532 0.06541979
0.03261461 0.080842815 0.10944436 0.02731058 -0.00885677 0.084106185 0.01316404 0.0378994

model.4.bias f4 [32]
00000000: e190 583d aafa cc3a 92e1 0abd 3a92 4b3d
00000010: 4add 5abb 9abe dfbc bfd0 c0bc 1705 36bc
00000020: cccd 8abc 74ff a43c 692a 34bc 6b43 093d
00000030: b24d 8abc 9dbb 3f3d a7c9 3fbd d244 4d3d
00000040: 0963 623d cbb7 3abd 8444 aebc c6fb 07bd
00000050: 2912 db3c 12f8 98bc 7f87 34ba 24f0 16bd
00000060: 86a7 3ebc 33f8 6b3c f123 dd3c 074e a0bc
00000070: 3e41 3a3d 6ff6 abbc f17b b4bc 8a5c 253d
0.052872542 0.0015638669 -0.033906527 0.0497 -0.0033396059 -0.027312566 -0.023537038 -0.011109612
-0.016943835 0.02014134 -0.0109964395 0.03351156 -0.016882751 0.04680978 -0.04682317 0.05011446
0.05527023 -0.045585435 -0.021272905 -0.033199094 0.026742058 -0.018672977 -0.00068866456 -0.03685011
-0.01163662 0.014402437 0.026994677 -0.019568456 0.045472376 -0.020991532 -0.022031756 0.040371455

model.9.weight f4 [128, 800]
00000000: 183a e8bc acfa 00bd ce8b c83c 8f83 2b3d
00000010: 6ada 013d 05fd 8e3c 4b20 06bc e674 0c3c
00000020: 31fe 423d e45e ae3d c3d5 483a 8b6f 9cbc
00000030: 4408 c3bc 4739 9c3b 70e2 473d e4bd dbbc
00000040: 6c08 ff3c 1722 fd3c a541 c43c c75c 0bbd
00000050: c07f f93b e069 4e3d 7416 053c c1a4 adbc
00000060: 62c7 40bc 99fe 333b 38cc 433d 370d fcbc
00000070: 6014 3abc e0c9 36ba dd4c 003b 8050 cabc
00000080: a014 37bd 9af1 e2bc 0c08 863c 4618 9fba
00000090: a35c e03c dbde 8cbc a09c e93c f4c7 163c
000000a0: ed0c ac3c 9cc2 c1bc d355 1cbd 1fa5 ddbc
000000b0: 9d43 503c 055a 05bd e910 d1bc 3c16 52bd
000000c0: 15eb a33b f1fe 283d 5476 17bd 7058 bc3b
000000d0: d17a 72bb 35f1 faba 184f d4ba 94ab e7bc
000000e0: 292d 3cbc 606c 57bc 96b7 0c3d 96b4 223c
000000f0: 7a8f 283d 0c15 0d3c d0bd 9e3c bd90 9f3c
00000100: e122 8c3d 938c 8cbc d2cf 05bd 8c30 6b3a
00000110: 9fa0 883c a640 4dbb 681d 38bc 99ba e13c
00000120: a104 283d 5cf2 053d 534a 0e3c ba18 a7bb
00000130: 3cb5 a5bc 8d92 0ebc e3a8 a53b 960c adbc
00000140: 25ca d6bc 14c7 21bb 24c1 33bd 61c2 0fbd
00000150: ac90 303c d627 b23c 8c1c b33c 7942 a33c
00000160: 1ea2 b63b ab8e c6bc 8ed2 2e3d a7ac 5dbd
00000170: fbaa 5e3c ee77 033d fcb8 7f3c 0bf7 abbc
00000180: f599 76bd 65bb 8bbd 0835 ffbb 127b 2c3b
00000190: 2a4b 42bc 68be 063d c733 e0bb 11db c63c
000001a0: eb86 373c ccce 4b3d 770c 23bc e403 ff3c
000001b0: 3d5e 1bbd ca97 9dbc a41b 9d3c bcbb ac3b
000001c0: 2ae9 4d3d 44e6 f7b7 5129 fabb 9df3 e03c
000001d0: 2190 2ebc 033e 8b3a b141 ab3c 06d9 13bd
000001e0: 02c5 d83b 15cd 25bd 579f aebc 0d15 793c
000001f0: cdd7 c43c 4aa1 203c ef4e ae3c 8fc8 3f3d
00000200: 176c 813c 2f58 15bb a81f 48bc 03b5 373d
00000210: c6e0 dcbc c2a5 c3bc 9397 0abd 04c1 f33c
00000220: e317 d5bc 9015 54bb b646 c03b 6afe 263d
00000230: bb0d 29bd a069 a3bc 9e27 253d 5af8 b93b
00000240: 2ac5 3f3d de06 0abb cf02 ba3c 47f9 b03c
00000250: f336 00bd 9ab3 223d e138 01bd bf54 d73c
00000260: dd81 e5bc 159e 2abd 7348 ccba b25c 893b
00000270: 7d73 cabb fc70 29bd 6b88 87bc 175c ac3c
00000280: a03e a73d 478e 3b3d d91a 093c 7caf 17bd
00000290: 3895 48bb d02a 243d 0132 d2bc 026d 3cbd
000002a0: 1127 ce3c b8ad a43d 0034 41bd 192f b1bd
000002b0: 832d 753c 9298 1b3d 4db6 9c3c fa09 e7bb
000002c0: cce7 51bc 77fe 713c 8922 2a3c 5be2 153c
000002d0: 4b9e bdbc b004 26bd 0a5b 4fbd ffde 0cbd
000002e0: 1e2b f4bc 4f21 563d 1e10 42bc 1ca1 343c
000002f0: 2dad bbbc cd0b 963b 6305 7d3d 22ae 883c
00000300: 6736 cbbc 9a42 16bc 138e 0b3d 9966 f73c
00000310: 428a f93b 19cc 893b 2b54 263d 7795 683d
00000320: 004c 70bb 7bb9 ca3c e2dc 703d 453c 3f3c
00000330: 0bf6 4e3c af3e 233d b65e 8a3c 7e1c 0a3d
00000340: 66fa 103d f9c2 3c3d 811e 68bd 08dc 32bd
00000350: 3bac ee3b 2efe 2a3d 79cd 963c 82aa cd3c
00000360: fbac bb3d 0e5e 833d f6e3 613c 4aa6 05bd
00000370: 3e90 373c b38c 013e 0df4 943c fe96 d63c
00000380: 02c3 adbc dd92 a7bb 563c 66bc 36d6 063d
00000390: 156e 9bbc a564 a1bb 8e16 343d 0ecd dc3b
000003a0: 1097 693b 16bb 95bc ad49 2abd f76e c23c
000003b0: 37f7 afbc 16c8 1a3d 1354 143d 3888 083d
000003c0: 30f1 813b 95cd 2a3d 06c9 e73b 1d32 e8bc
000003d0: bbbe cb3b 2c21 2a3d dba3 11bc 1cf8 0abd
000003e0: eea4 c33b 45c0 ff3c 9a03 293b a338 6bbc
000003f0: 62e6 953c 0fe7 01bd 1b31 d4bc 3bec 78bc
-0.028348014 -0.03148906 0.024480727 0.04187351 0.031702437 0.017454633 -0.00818641 0.008572793
0.047605697 0.08514193 0.00076612475 -0.019096157 -0.023807652 0.00476757 0.048799932 -0.026823945
0.031131946 0.030900044 0.023957083 -0.034024026 0.007614106 0.05039394 0.008123029 -0.021196725
-0.011766287 0.0027464984 0.04780218 -0.03076802 -0.011357397 -0.0006972831 0.0019577064 -0.024696589
-0.044697404 -0.027703095 0.016361259 -0.0012137971 0.027387923 -0.01719611 0.028517067 0.009202946
0.021002257 -0.023652367 -0.038167786 -0.027056275 0.012711433 -0.032556552 -0.025520759 -0.051290736
0.005002389 0.041258756 -0.03697808 0.0057478473 -0.0036999474 -0.0019145372 -0.0016197888 -0.028280057
-0.011485376 -0.013148397 0.03435477 0.00993075 0.041152455 0.008610975 0.019377619 0.019478196
0.0684259 -0.017156875 -0.032668896 0.00089717726 0.016678153 -0.003131905 -0.01123748 0.027554797
0.04102004 0.032701835 0.008684712 -0.005099383 -0.02022802 -0.008701933 0.0050555333 -0.021124166
-0.026219437 -0.002468531 -0.043885365 -0.035097484 0.01077668 0.02174751 0.021864198 0.019929158
0.005573525 -0.024237951 0.04268127 -0.054119732 0.01359057 0.032096796 0.015608069 -0.020991823
-0.06020542 -0.06822852 -0.0077883042 0.0026318473 -0.011858741 0.03289643 -0.00684211 0.02427438
0.011201601 0.049757764 -0.009951702 0.031129785 -0.03793167 -0.019237418 0.01917822 0.005271403
0.05027119 -2.955192e-05 -0.00763432 0.027459914 -0.01065448 0.0010623339 0.020905348 -0.03609564
0.006615282 -0.040478785 -0.021316214 0.015202773 0.024028683 0.009804079 0.021277873 0.046822127
0.015798612 -0.0022788157 -0.012214579 0.04485036 -0.02696265 -0.02388275 -0.03383596 0.029755123
-0.026012367 -0.0032361485 0.0058678044 0.040769972 -0.04127286 -0.019947827 0.040320985 0.0056753578
0.04681889 -0.0021061222 0.022706417 0.02160324 -0.031302404 0.039722063 -0.031548385 0.026285527
-0.028016025 -0.041654665 -0.0015585556 0.0041919583 -0.006178318 -0.041367516 -0.016544541 0.021040006
0.08166242 0.045789983 0.008368217 -0.03703259 -0.003060652 0.04007989 -0.02565861 -0.046002395
0.025165113 0.08040947 -0.04716873 -0.08651561 0.014964464 0.0379873 0.019129897 -0.00705075
-0.012811612 0.014770142 0.01038421 0.009148206 -0.023146769 -0.040531814 -0.05062393 -0.034392353
-0.029805716 0.05227786 -0.011844663 0.01102474 -0.022909725 0.0045790435 0.061772715 0.016684595
-0.024806214 -0.0091711525 0.03407104 0.03020029 0.0076153586 0.0042052385 0.040607613 0.056783166
-0.0036666393 0.024746647 0.0588044 0.011672084 0.012631903 0.0398547 0.016890865 0.03371858
0.03539505 0.046084378 -0.056669716 -0.04366687 0.007283715 0.04174631 0.018408524 0.025105719
0.09163853 0.06414424 0.01378726 -0.03262929 0.011203824 0.12651329 0.018182779 0.026195046
-0.021211151 -0.005113943 -0.014052471 0.03291913 -0.01897339 -0.004925328 0.043966822 0.0067383116
0.0035643019 -0.018277686 -0.04157417 0.023734553 -0.021480186 0.037788473 0.036212992 0.033333033
0.0039655194 0.041699965 0.0070735244 -0.028344208 0.006217805 0.04153554 -0.008889164 -0.03392802
0.005970589 0.031219611 0.00257895 -0.014356765 0.018298332 -0.031714495 -0.025902322 -0.0151930405

model.9.bias f4 [128]
00000000: 01bf 9fbc 9cdf bbbc c607 b4bb 5528 11bc
00000010: 08ed 18bc 598a 8cbb 3f35 bd3c e58d 0ebc
00000020: b680 eabc 2849 99bc 9b7c 1bbc 9a05 17bd
00000030: 4fe3 34bc 6683 dabc f9a9 0a3d 597a cc3b
00000040: 4ccc 203d 595f 02bd 2c08 343c 665c b63b
00000050: 4a01 1f3b 7681 fc3c 5034 b7bc 06fc 4cbc
00000060: 0476 293b e8c0 ecbc d151 bcbc fb0e fabc
00000070: c2cf 9cbc e6a9 54bc f3f4 1ebc 254b 83bc
00000080: 596d 15bd c2d9 afbc e52f 0abd 1442 f53c
00000090: 87f8 033d 407b db3c fa13 4bbc 664b 5b3c
000000a0: d9ab 35bc a9bb ea3c bcde 1abd f8d9 0f3d
000000b0: b605 2cbb b3b7 e73c 5f02 20bc 32c9 d1bb
000000c0: 74da 033d 3d02 313d a0b5 e53c 0142 b8bb
000000d0: 2ff4 093c 9408 10bc b4f0 8d3b fcfe 2e3c
000000e0: 2072 a23c 606f 9cbc 9654 b9bc 0a42 a4bc
000000f0: 5559 4bba c719 ff3c f59e b13c 2e78 1f3c
00000100: 0e47 2c3c a301 97bb 823a d63c 2e05 d83b
00000110: 2f6a f23c 0447 e8bb 2e54 7cbb 77da 893c
00000120: 4871 523c 8d02 cd3c 2837 903a 1e87 013d
00000130: 79f3 d7bc 2bb0 bfbc d0ea 933c 93e0 01bd
00000140: 21ba de3c 85b4 233d 5255 053d ff7f d73b
00000150: d74d f23c 0dd6 0c3d c3eb 753c b95a 7d3b
00000160: 7e31 b1bc 4043 ed3c 8fb6 013d fa29 5cbc
00000170: 0ff0 0b3c 137f aebb 0f95 64bc 3038 19bd
00000180: d823 823c b298 a43c f9b6 fdbc 24ef 913c
00000190: 83ae 0d3d a508 bd3c f5f4 893a e1b9 2cbb
000001a0: b288 023c ef0a 203c 041b 0c3c d0a9 46b9
000001b0: 84a7 8ebc ec26 0ebd 89c0 183c b50b 07bd
000001c0: 3b45 7dbc c4f5 f4bb 0097 62b5 743c a4bb
000001d0: eca1 cbbc c24d 0dbd a038 4f37 f103 103c
000001e0: 642c 4f3c 0af4 c73c d7de ef3c aaec 073d
000001f0: 59e4 13bd 0db7 2abc 0f32 c13c 2e1d ab3c
-0.019500257 -0.022933774 -0.0054940907 -0.008859714 -0.009333856 -0.0042889533 0.023096679 -0.0087008225
-0.028625827 -0.018711641 -0.0094901575 -0.036870576 -0.011040523 -0.026673984 0.033853505 0.006240171
0.039257333 -0.03182921 0.010988276 0.005565214 0.0024262243 0.03082345 -0.022363812 -0.012511259
0.0025857696 -0.028900579 -0.022988232 -0.030524721 -0.019142035 -0.01297996 -0.009701955 -0.016027043
-0.036481235 -0.02146614 -0.033737082 0.029938735 0.032219436 0.026792169 -0.0123948995 0.013384676
-0.011088335 0.028653936 -0.037810072 0.03511998 -0.0026248521 0.028285837 -0.00976619 -0.006402158
0.032190755 0.043215025 0.028040707 -0.0056231027 0.008420034 -0.008791108 0.0043316726 0.01068091
0.01982981 -0.019096076 -0.022623342 -0.020051021 -0.0007757147 0.031140221 0.021682242 0.009733243
0.010514988 -0.0046083494 0.026150946 0.0065924143 0.029591648 -0.007088544 -0.0038502323 0.016827805
0.012844391 0.02502563 0.0011002766 0.031623 -0.026361214 -0.023399433 0.018056303 -0.03170831
0.027188363 0.03996708 0.03255207 0.0065765376 0.029578133 0.034383822 0.015009823 0.0038658811
-0.021630045 0.028962731 0.031668242 -0.013437742 0.008541121 -0.005325207 -0.013951554 -0.0374071
0.015886232 0.020092342 -0.030971037 0.017814226 0.034590255 0.023075411 0.0010525273 -0.002635591
0.007967161 0.009768232 0.008551363 -0.00018946012 -0.017413862 -0.034705088 0.009323248 -0.03297015
-0.0154584 -0.0074755866 -8.4411295e-07 -0.0050120894 -0.024857484 -0.034497984 1.23513455e-05 0.008790002
0.012644861 0.02440836 0.029281063 0.033184685 -0.03610644 -0.010419619 0.02358344 0.020887937

model.12.weight f4 [10, 128]
00000000: 1b6d 293d c58d 9d3d 166a c8bd 32c7 7cba
00000010: bc5f 473d ac69 8fbd e40c dbbc 61f0 723d
00000020: 4a88 4abc dbdf 55bd 606a 5ebd b94c 833d
00000030: 87c9 20bd 1aa1 bbbc 3d16 18bc 01ee 9abd
00000040: 461f c43d b9c6 893d cb14 8a3d eb17 2cbd
00000050: 1277 d13d d545 ad3d 5c8f dbbc 8513 6c3d
00000060: e696 fabd 0a5d 913d e827 d7bc 7a59 e0bd
00000070: b0e6 debd 416e 59bd 447a 55bd c827 43bd
00000080: 3b9f 83bc b682 08bb 7648 5ebd 1498 863d
00000090: f086 ed3d eecc 1c3d 5156 3fbd 43d5 4e3d
000000a0: b5a5 d8bd 3fb8 c6bd 5111 883d f1e3 98bd
000000b0: c3ec 823d 52f2 e63c a348 d33c f202 1c3d
000000c0: 3671 493d 8018 983b 6198 433d b08a c9bd
000000d0: 846c 863d 3653 b03d 6feb ca3c ec2d af3d
000000e0: 45d9 8d3d d776 0e3d 4c1b dcbd a58a ccbb
000000f0: a53d 48bd a497 af3d 6d55 7f3d 821a 9ebd
00000100: 1dd3 e7bd efd1 16bd 779e 4fbc 4ab6 113d
00000110: 6366 e2bd 069c 953c 6a51 f4bd 24cb 2e3d
00000120: 8549 00be fb68 2b3d dc10 803d 637a 083d
00000130: d841 213d 82b1 dbbc c5d7 71bc f188 a8bd
00000140: 42d9 d33d c0f7 eabd 6631 3e3b 05ab a3bd
00000150: 5c28 8b3d 688b 15bb f5f0 ecbd a443 0cbe
00000160: 6f87 94bd cdf7 91bd 91c7 a6bd ae2e 41bd
00000170: 7ba6 c43d 3635 89bd 34d8 00be cf68 2cbd
00000180: f828 2c3d 1023 cb3c 775a bf3d d6f9 d1bd
00000190: 8cad 713d 7c81 b0bd 8302 9cbb 0c30 b7bc
000001a0: bcf4 b43d 91d7 d3bd 2bd1 fcbd 7415 59bd
000001b0: 8e44 74bd ecc2 96bc f18d 00be 6c47 053d
000001c0: 6c9a c73d 1d3a 2ebb c58c 133d a3ca 923d
000001d0: 89f2 423d 60de 2ebd d762 913d 45ea 79bd
000001e0: 7b3a f5bd 60f9 65bb ad3f 7b3d ee72 8c3d
000001f0: 5e2d 793c 8750 05bd d564 3e3b d82a f3bd
00000200: 42c4 9f3d 6cb6 0fbd 309d d83d 6035 10bd
00000210: 0982 18bb da16 5fbd 8453 653d 686f a83d
00000220: f466 9fbc 8af5 a43d cb4e 15bc 4f26 d4bb
00000230: fd1c 653d 7bb1 07be 4075 bcbd 3a1e b1bd
00000240: 40af ad3d 0b7c 963d 77bc bc3d 0255 053e
00000250: 0cfb 92bd b854 6b3d 3653 03bd 38dd c03c
00000260: efbb e4bd b5b6 c3bc d83a cd3c 031c fcbd
00000270: d258 19bd 8e8c e3ba 779c 4bbd 9dc9 48bd
00000280: d99d 513d 361a a1bd b9ce 72bb bfe3 903b
00000290: 88a9 7e3d 4a3a 03be 490e 9f3c 9f83 fcbd
000002a0: 14ea 07be 014e bc3d 1da3 50bc 3a27 cc3d
000002b0: b2d7 013e 9c86 d1bb 8c76 13be 2813 eabd
000002c0: d2cd dabd c2e7 9f3d 33c2 66bd aec5 e6bd
000002d0: ea71 e1bd 2724 63bc 3f15 313d bb37 23bd
000002e0: 7e32 113c 89c4 edbd ed3f 7c3d b240 b83c
000002f0: 4806 693d f30b debd 91a2 d0bc a9e5 243d
00000300: 6390 d43d f5f4 93bd cb55 c13c d27f cc3b
00000310: 31a4 863d bdf4 103e 1d15 3a3d c333 08bd
00000320: e271 46ba 518f 33bd ad91 8c3d bdda bf3d
00000330: cd54 18be c06a b2bd 957f e4bd 9ec9 613d
00000340: 11db 6c3c 307c 073d 7368 ebbd 22b6 e43d
00000350: 3d18 86bd 8ec4 343d cfc2 803d 4289 9fbb
00000360: 15eb 88bd ab97 433d c1b6 b6bd 6632 02bd
00000370: 0019 54bd f8b8 cabb b1b9 b43d 722f 383d
00000380: fbd3 ab3d 1fe2 21bd 96eb ac3c 086a 3e3d
00000390: 9b17 8cbd df75 a73c 61bf 13be c351 b83d
000003a0: 0a93 8cbd f519 3c3d f6e7 ad3d 9a32 f1bd
000003b0: 43ee b0bc d5ae 93bd 84b5 bd3d fe7e 903d
000003c0: f83f b1bd 1993 fbbc f4ab 833d 0ee0 8f3d
000003d0: b4f7 a6bd 2f02 25bd 8943 dcbc 2344 b33d
000003e0: 48cc 97bd 5eec 9abd f575 903b 448f 8c3d
000003f0: 1be9 9bbd 8d7b f1bd aa87 753d 376e b83d
0.041363817 0.07693056 -0.09785859 -0.00096427195 0.048675284 -0.07002577 -0.026739545 0.059311274
-0.012361595 -0.05221544 -0.054300666 0.06411118 -0.03925469 -0.022903968 -0.009282646 -0.07564927
0.095762774 0.067273565 0.06742247 -0.042014997 0.10227789 0.08460585 -0.026801758 0.057635803
-0.12235813 0.07097824 -0.026264146 -0.10954566 -0.10883844 -0.053083662 -0.052118555 -0.04764536
-0.016067138 -0.0020829863 -0.054268323 0.06571975 0.11598003 0.038281374 -0.046713177 0.05049635
-0.10578481 -0.09703111 0.06643928 -0.074653514 0.06392815 0.02819172 0.025791472 0.038088746
0.049180232 0.0046415925 0.04775274 -0.09840906 0.065636665 0.08609621 0.024770467 0.08553681
0.069262065 0.034781303 -0.10747394 -0.0062421137 -0.048886914 0.08573845 0.062337328 -0.077199
-0.113195635 -0.036821302 -0.012672058 0.035574235 -0.11054685 0.018262874 -0.11929591 0.0426742
-0.12528045 0.041848164 0.06253216 0.033319842 0.039369434 -0.02681804 -0.014760916 -0.082292445
0.10344173 -0.11473036 0.0029021143 -0.07991604 0.06794807 -0.0022818688 -0.115693964 -0.13697678
-0.072523944 -0.071273424 -0.08143533 -0.047163658 0.09602066 -0.06699602 -0.12582475 -0.04209214
0.04203126 0.024796993 0.09343427 -0.102527305 0.059003398 -0.08618447 -0.0047610416 -0.022361778
0.08835742 -0.103438504 -0.12344583 -0.052998975 -0.05963569 -0.018403493 -0.12554146 0.032538816
0.097462505 -0.0026584931 0.03602292 0.07167556 0.04759458 -0.042692542 0.0709893 -0.061014432
-0.11974045 -0.0035091266 0.061340023 0.068578586 0.01520857 -0.0325475 0.00290518 -0.11873406
0.07801105 -0.03508608 0.10576856 -0.035207152 -0.0023270866 -0.054465152 0.05598785 0.08224374
-0.019458272 0.08054645 -0.009113024 -0.0064742933 0.05593585 -0.13251297 -0.09202051 -0.086483434
0.08480692 0.07347878 0.09215634 0.13020709 -0.0717679 0.05745384 -0.032061778 0.023542985
-0.11168658 -0.023890832 0.025052473 -0.1231003 -0.03743822 -0.0017360614 -0.049709763 -0.0490204
0.051175926 -0.078663275 -0.0037049486 0.0044216807 0.062173396 -0.12815204 0.019415991 -0.12329792
-0.13272887 0.091945656 -0.012734202 0.099684194 0.12679937 -0.0063942205 -0.14400691 -0.11429435
-0.10683788 0.07807876 -0.056337547 -0.11268173 -0.110080555 -0.0138636 0.043233152 -0.03984807
0.008862136 -0.11609752 0.061584402 0.022491787 0.056890756 -0.10842123 -0.025468143 0.040258083
0.10379102 -0.07224456 0.02360048 0.0062408233 0.06574286 0.1415586 0.04543029 -0.03325249
-0.00075700704 -0.04383785 0.06863723 0.09367893 -0.14876099 -0.08711767 -0.11157147 0.055123918
0.014456526 0.03307742 -0.114945315 0.111675516 -0.06547592 0.04413276 0.06287157 -0.0048686573
-0.06685463 0.047752064 -0.08921576 -0.031786345 -0.051781654 -0.006186601 0.0882448 0.044967122
0.083900414 -0.039522287 0.02110843 0.046487838 -0.0684044 0.020441948 -0.14428474 0.0899997
-0.06863983 0.045923192 0.08491509 -0.117772296 -0.021597987 -0.07211081 0.09263137 0.07055472
-0.08654779 -0.03070979 0.06429282 0.07025157 -0.08152714 -0.040285286 -0.026887672 0.087532304
-0.074120104 -0.07564615 0.004408593 0.06863263 -0.07612821 -0.117911436 0.059943832 0.09005397

model.12.bias f4 [10]
00000000: 1f11 e43c d1cb ed3c 7ded 01bc a0ed e53b
00000010: cdf8 c8bc defb 13bc f155 463d 932f f5bc
00000020: 644f 943d 6f4f 9fbc
0.027840195 0.029027851 -0.007930157 0.0070168525 -0.0245327 -0.009032218 0.048421804 -0.029929912
0.07241705 -0.019447057
